models/py_SimpleFeedForwardNN_mdl_64-16-16_12_epochs_0-00100_lr_16_batch_202310261805.pth (torch, 14996 bytes, 7 tensors)

fc1.weight f4 [64, 18]
000000 2e 94 04 be fd bc 0a be 17 16 87 be e4 4d 72 be
       -0.12947151 -0.13548656 -0.2638404 -0.23662525
000010 41 aa 26 3e fe 2f 8e bd 65 e8 99 bd 1b 05 14 bf
       0.16275884 -0.069427475 -0.07515029 -0.5782029
000020 0b d9 17 3e bc 5d ea bd af 61 ce 3c 4a 70 64 be
       0.14828889 -0.1144366 0.025193064 -0.2230846
000030 26 8a 8c 3d 9a ee 46 be 21 df f3 bd d7 89 80 3c
       0.06862287 -0.19426957 -0.11907793 0.015690727
000040 be d0 00 be 7d cd 23 3e 02 9f 88 3e a6 3f 12 3e
       -0.12579629 0.15996356 0.26683813 0.14282092
000050 b5 66 a7 3d 37 cf d7 bd 32 f9 29 bd 96 92 9a bd
       0.08173887 -0.1053757 -0.041497417 -0.0754749
000060 cf 84 05 3e 12 b6 8a bf 94 75 2e bf bf 44 88 be
       0.13038944 -1.0836813 -0.6814816 -0.2661495
000070 ef 9f ea 3e de d3 f3 bd 07 46 80 3f 9f 61 9d 3f
       0.45825145 -0.11905645 1.0021371 1.2295417
000080 0a 34 d3 3f b2 e9 54 be f1 98 98 be 34 59 ad 3d
       1.6500256 -0.20792273 -0.29804185 0.0846428
000090 4f 04 17 bf d5 72 89 3c 3e 94 e8 3d 45 6b 0b 3c
       -0.5899095 0.016778389 0.113564 0.008509462
0000a0 35 a0 d4 3d cb d3 75 3d 3c c3 06 3e 49 42 c2 3e
       0.103821196 0.060016435 0.13160414 0.37941197
0000b0 84 7b 0d bd a3 f0 fd be ac e2 24 bf b9 9f 74 3d
       -0.03454162 -0.49597654 -0.64408374 0.059722636
0000c0 81 85 4d bf 54 94 67 bf 3a 5b c8 bf 45 76 97 be
       -0.80281836 -0.90460706 -1.565284 -0.2958242
0000d0 d0 a6 01 3f 51 9a ac 3e 21 ee 3d be 1f 00 db bd
       0.5064516 0.33711484 -0.1854787 -0.106933825
0000e0 44 8f d0 3c 4b d8 f7 bd 84 12 6e 3e a7 88 d9 bd
       0.02545894 -0.121018015 0.2324925 -0.106217675
0000f0 ab 02 9c 3e 93 8d 74 bd ee 04 1e be 28 73 0b 3e
       0.30470785 -0.05970533 -0.15431568 0.13618147
000100 6c 78 c7 3e 7e cf b2 bd cd a2 d2 3e 18 a9 e9 3f
       0.38959062 -0.08730982 0.41139832 1.8254728
000110 15 36 80 3f e4 d6 48 be d0 34 95 bc 94 06 64 3d
       1.0016505 -0.19613224 -0.01821366 0.055670336
000120 76 d0 f7 3d 05 4c 72 3b c1 bb e8 bc c2 40 3f 3e
       0.12100308 0.003697158 -0.02840984 0.18677047
000130 e5 ac 06 be 05 26 78 be 99 2c 0b be d3 eb 8c bf
       -0.13151892 -0.24233253 -0.13591231 -1.1009468
000140 9d e3 96 be 24 ff 81 bf 20 2d b0 3d 31 47 c4 be
       -0.2947053 -1.0155988 0.08602357 -0.38335565
000150 40 da 86 3f 67 86 a8 3f 8b 26 af 3f d9 1a cd 3d
       1.0535355 1.3166016 1.3683637 0.100148864
000160 c1 68 6e bd ed df d0 bd 87 42 25 be 65 8d d6 bd
       -0.05820537 -0.101989605 -0.1613866 -0.104761876
000170 00 3f be 3c 4c d1 0a be 3c 8e 5e 3e 59 0b 68 bd
       0.0232234 -0.13556403 0.21733946 -0.056651447
000180 dc 84 80 3e 7d 6a d9 be ac 66 ae be cd fc ac 3d
       0.25101364 -0.42464057 -0.34062707 0.084466554
000190 a7 36 c4 3e 95 b4 11 be ab 65 48 3f ce 7f ac 3f
       0.38322946 -0.14229043 0.78280133 1.3476503
0001a0 58 f6 be 3f 66 6b 5f be 48 68 d6 3d 15 e9 55 bd
       1.4918928 -0.21818313 0.10469109 -0.052224237
0001b0 77 87 1e 3e 7e a0 93 3b a4 a6 09 bd 33 c2 73 3d
       0.15481363 0.004505216 -0.033606187 0.059511375
0001c0 21 16 2a be 02 c5 4c 3d 1e c5 c6 bd 09 a7 81 bf
       -0.16610004 0.04999257 -0.09705566 -1.01291
0001d0 86 45 ef be 3d 87 2b bf 94 65 75 3e 5f 48 61 be
       -0.4673273 -0.6700323 0.2396453 -0.22000264
0001e0 63 a4 89 3f 40 95 bc 3f a9 09 f0 3f 95 b2 2e bc
       1.0753292 1.4733047 1.8752948 -0.010662694
0001f0 9b ce b5 3c 3f 04 d4 3d a2 b4 19 bf 44 0c 00 3d
       0.022193244 0.103523724 -0.6004125 0.031261697
000200 3b 55 a0 3d 5d 61 90 3d ae ac b7 3e 2f f9 24 3d
       0.078287564 0.070498206 0.35873932 0.040276702
000210 53 32 85 3e 60 76 62 3f 69 2f 3b 3f 9c ee 18 be
       0.26014957 0.88461876 0.7311922 -0.14934772
000220 87 57 36 bf 4e 16 01 bc 6c 08 9a bf e9 4c 0a bf
       -0.71227306 -0.007878853 -1.203382 -0.54023606
000230 2b fa 0b c0 cf da 00 3d 9b 7d c1 3e 05 51 c5 3e
       -2.187144 0.031458672 0.37791142 0.38538375
000240 46 b3 a0 be 17 4c ac bd 63 8c ba ba a7 39 88 3d
       -0.31386775 -0.084129505 -0.0014232512 0.06651621
000250 b4 64 ed bc 15 15 14 3e 7e 38 7f 3e 2a 9d 33 3f
       -0.028978683 0.14461167 0.24923894 0.7016169
000260 17 3c e3 3e ad 2e da bd 17 2d bd be 97 de 5d 3e
       0.44381782 -0.10653434 -0.36948463 0.21666943
000270 28 36 6d bf 41 de 8a bf 53 f4 5f bf b9 71 01 be
       -0.9266076 -1.0849077 -0.87482184 -0.12641038
000280 8e 28 39 3e ee b3 59 3d 65 b4 d6 3d cb b4 29 bf
       0.18081877 0.05315011 0.10483626 -0.66291493
000290 ed e6 55 bd 0e c0 42 3d 25 31 2b 3d aa 7c 4b 3e
       -0.05222218 0.04754644 0.041794915 0.19871774
0002a0 2b 11 96 bd 5e ca 6f 3e ff 26 05 bf 0e 84 92 3e
       -0.07327493 0.2341704 -0.5201263 0.28616375
0002b0 48 68 2e 3e 30 ce 26 be 14 4e 0b 3e 06 41 4f 3e
       0.17031968 -0.16289592 0.13604003 0.20239648
0002c0 03 73 91 be 1f 46 00 3d 10 14 7e 3e f5 2c 23 3e
       -0.2840806 0.031316873 0.2481234 0.15935118
0002d0 5b 96 03 be c0 6e 15 3c 0f 2e ae 3d e8 20 62 3e
       -0.12850325 0.009120643 0.08504879 0.22082865
0002e0 10 cd 4b be 3a 50 9f 3d 75 8f 95 be f1 0f b2 bf
       -0.19902444 0.07778974 -0.29211012 -1.3911115
0002f0 ff 22 28 bf e9 2b 83 be 7e 86 bf 3e ae 0c f6 be
       -0.656784 -0.25619438 0.37407297 -0.4805655
000300 fe 77 9b 3f 3c 97 d2 3f fb 19 f0 3f d5 47 8b be
       1.2145994 1.6452403 1.8757929 -0.2720324
000310 a1 f8 4e 3d 9c 3f 93 bd 8f 7d a1 3e 5c 24 94 be
       0.05053008 -0.07189867 0.31541106 -0.2893399
000320 f8 cc 17 3d 97 d0 75 be 8a 7f ba 3d d9 a8 fd bd
       0.037060708 -0.24005352 0.091063574 -0.12385721
000330 4c c4 e6 3d 85 e4 02 3f 0e 12 db be b7 6e 86 bd
       0.112679094 0.51129943 -0.42787212 -0.06564086
000340 a6 a4 d9 bd 95 f8 b6 3e d2 1c 0e bf 10 23 78 bf
       -0.10627107 0.35736528 -0.55512726 -0.969285
000350 19 c6 bd be 4a b6 78 3e 7c 1d 1e 3d eb 84 0d 3e
       -0.370652 0.24288288 0.038602337 0.13820235
000360 b0 55 90 be ae bd a6 3d 32 94 d6 bd 9b f1 e6 bc
       -0.28190374 0.08141647 -0.10477485 -0.028191378
000370 39 c1 c7 3e 92 23 76 3d fa 93 2c 3d 39 f8 1f 3f
       0.39014605 0.060092516 0.04213331 0.6248813
000380 14 b9 6b be c0 b8 aa be c0 7c 2c be 95 49 ae 3d
       -0.2301982 -0.33344078 -0.16844463 0.085101284
000390 05 f8 2d bf 6b 1a 4e bf f4 1c bc bf 3a e6 8a 3d
       -0.6795657 -0.8050906 -1.4696336 0.067821935
0003a0 a4 ac 19 3e bc 4c 00 3e 6f 14 0f be 10 11 38 bd
       0.15007263 0.12529272 -0.13972639 -0.044938147
0003b0 00 b3 c4 bd 80 7c e7 3b 24 bc 2d bd 4a 04 b7 bd
       -0.09604454 0.007064402 -0.042415753 -0.08936365
0003c0 98 bd 50 bd ea c4 bf 3d 12 b6 e0 bd c0 29 43 3b
       -0.05096206 0.0936373 -0.10972227 0.0029779524
0003d0 98 c5 4a be 16 b2 bd 3d 55 ba 46 3e 59 95 22 3e
       -0.19801939 0.09262483 0.19407018 0.15877284
0003e0 db e3 18 be fe 3a ad 3d 06 c0 b3 bd f9 17 1f be
       -0.1493067 0.084585175 -0.0877686 -0.15536489
0003f0 18 5a 53 3e 7a fa 08 bf 4e 09 3e 3c ef 6f 42 3d
       0.20639837 -0.53507197 0.011598898 0.04747003

fc1.bias f4 [64]
000000 fc a5 1f be 6f 63 00 3e 26 ba 4c be e9 44 4d be
       -0.15590662 0.12537931 -0.19992885 -0.20045818
000010 3c d1 2e 3d ea ec bf 3d 8e da 4e bd 0d 57 2b be
       0.04268001 0.0937136 -0.0505014 -0.16732426
000020 2e ad eb 3d a7 f0 4c 3e fc 8b a4 bd 7e c2 5f 3d
       0.11507641 0.20013677 -0.080345124 0.05462884
000030 dc 9a 7c 3e d4 09 63 be 49 9b 42 be a5 ae 99 be
       0.24668449 -0.22171718 -0.19004549 -0.30016056
000040 92 b6 40 be ca f4 12 bf 68 d4 7a bd 0e 0b 01 be
       -0.18819645 -0.5740477 -0.061237723 -0.12601873
000050 e7 d1 e6 bd 54 40 d7 bd 18 bd 51 be 64 a4 f5 bd
       -0.112705044 -0.105103165 -0.2048229 -0.11994246
000060 95 61 ce be 9f 2b a0 be 50 f8 96 3d 24 d7 31 3d
       -0.40308824 -0.3128328 0.073715806 0.043418065
000070 46 40 8b 3e 64 b4 17 3e ab 52 8e be b1 dc 80 be
       0.27197474 0.14814907 -0.27797446 -0.25168374
000080 e1 d2 27 3d 7c 04 c6 3d 90 4e 8e 3d 5d e3 d4 3d
       0.040972594 0.09668824 0.06948578 0.103949286
000090 65 a3 55 be 7a f9 91 be b6 19 6f be 16 7b 0b bd
       -0.20863111 -0.28510648 -0.23349652 -0.03405293
0000a0 e8 66 47 bd c1 ad ba bc 20 ee fa be 0f 6c d8 bd
       -0.048682123 -0.02278793 -0.490098 -0.105674855
0000b0 a7 1f a0 3e f2 8b 96 be ec 08 c9 3e 71 06 7e be
       0.3127415 -0.29403645 0.3926462 -0.24807145
0000c0 25 13 58 3e 03 c3 06 be f9 0c 9f be c7 39 05 be
       0.21101053 -0.13160329 -0.31064585 -0.13010322
0000d0 a6 a7 7b 3e 84 79 5d 3d 00 a6 c9 3d 17 3e 14 be
       0.24575672 0.054070964 0.09846115 -0.1447681
0000e0 f2 45 36 be a8 cc 3c 3d 7f 3f c1 bd bf 48 aa 3d
       -0.1780012 0.046093613 -0.09435939 0.083146565
0000f0 2c 5d 1c 3e 2c 80 da bd 63 3a 56 be 08 92 d0 bd
       0.15269917 -0.10668978 -0.2092071 -0.10184103

fc2.weight f4 [16, 64]
000000 21 dc 30 bd 60 17 f8 bb 77 82 5b be 09 a3 d3 bc
       -0.04317868 -0.007571146 -0.21436487 -0.025834577
000010 8d af 35 3e a7 81 29 bd ae c1 3e bd 13 9f 6f be
       0.17742749 -0.04138341 -0.046571426 -0.23400526
000020 fa f5 45 bd e5 a9 f4 3e 09 e7 4d 3e 78 be d8 3e
       -0.048330285 0.4778587 0.20107664 0.42332816
000030 1c 8a 3c be a2 85 ba 3d e4 03 ee bc c4 fd 00 be
       -0.1841206 0.0910752 -0.02905459 -0.12596804
000040 22 98 ab be 8e 05 93 3d 0a 60 e5 be da 27 31 3e
       -0.33514506 0.07178794 -0.44799834 0.17300358
000050 a6 50 e5 3d 2f e6 e3 ba a6 ae 11 bd f9 67 f7 3d
       0.11197023 -0.0017387326 -0.03556695 0.12080378
000060 e0 d6 da bc fe ad d3 be 4f f1 9e be 64 1d 82 bd
       -0.026713789 -0.41343683 -0.3104348 -0.06353262
000070 9c f5 39 be 2c 54 2b be ef 12 52 be 4d 3c 64 3e
       -0.18160099 -0.16731328 -0.20515035 0.22288628
000080 b3 0c ac be 82 db b4 3d 91 7b c4 3e f4 88 80 be
       -0.3360344 0.0883093 0.38375524 -0.25104487
000090 31 16 11 bf 30 7b 6b be 26 2e 03 be 55 8a 46 be
       -0.56674486 -0.22996211 -0.12810573 -0.19388707
0000a0 8a e9 c1 3d cc f7 17 bd ab b3 4c be af e0 c6 bd
       0.09468372 -0.037101552 -0.19990413 -0.09710824
0000b0 01 cc bc bd 01 02 d9 3d 25 d6 ad be ad 30 ec bd
       -0.09218598 0.10596085 -0.33952442 -0.11532722
0000c0 14 69 10 3e 00 d7 83 3c f4 a4 5f be e9 9d a5 bd
       0.14102584 0.01609373 -0.21840268 -0.080867596
0000d0 32 62 b2 be e6 34 fa bd d0 cf cb be cd 01 a5 be
       -0.34840542 -0.12217121 -0.39806986 -0.32227936
0000e0 31 d4 00 be 2f 3e 4e 3e 1e 7f 95 3d 43 84 b3 3d
       -0.12580945 0.20140909 0.07299636 0.08765461
0000f0 73 69 12 3d c1 36 e5 bc 22 dc ef 3e 1a 49 a3 3c
       0.035745095 -0.02798021 0.46847636 0.019932318
000100 3e e5 d7 bd b8 bc af bc a4 db a7 bc b1 79 15 be
       -0.10541771 -0.021452293 -0.020490475 -0.14597203
000110 de db 7b be c1 08 08 be 58 dd 81 bd 8e 2e 24 3e
       -0.24595591 -0.1328459 -0.06341046 0.16033384
000120 30 ba 8b 3c 83 c0 72 3d da ab da 3d f8 0c 02 be
       0.017056555 0.059265625 0.10677309 -0.1270026
000130 d4 56 a5 3c 5c e4 e7 bd 73 a0 24 be bd 46 55 be
       0.020183004 -0.11322853 -0.16076832 -0.20827766
000140 9e ed d9 3d f7 77 2c be 7a 32 04 3e 64 cb 99 3d
       0.10641025 -0.16842638 0.1290988 0.07509497
000150 2a ff 0b 3d 25 b7 f3 bb 52 41 3a 3c 03 98 bc bd
       0.03417889 -0.007437604 0.011368113 -0.092086814
000160 59 28 0c be 0e e7 0d 3e c4 f2 65 bc be 3e fa bd
       -0.13687266 0.13857672 -0.014034931 -0.122189984
000170 25 be 25 3e cb 56 41 bd 5c 42 89 bc 3b d1 db bd
       0.16185816 -0.047201913 -0.016755275 -0.10733267
000180 66 f7 4a 3c e9 00 da be 02 8c b8 be 93 35 8c 3d
       0.012388086 -0.4257882 -0.36044317 0.06846156
000190 aa d1 d7 3d b9 c6 83 bb cb b3 ed bc 53 7b f8 3d
       0.10538037 -0.0040214923 -0.029016396 0.12132897
0001a0 3a 8e 0e bd 66 09 cc 3d 3a 5b 3c bc 20 02 5b bc
       -0.034803607 0.0996273 -0.0114963595 -0.013367206
0001b0 d3 aa 7c be b4 81 6a be 30 3d 2c 3e 33 92 31 3c
       -0.2467454 -0.2290104 0.16820216 0.010838079
0001c0 a9 37 03 be 8d 21 35 3b 2c 10 de bc 11 0e 90 bd
       -0.12814201 0.0027638406 -0.02710732 -0.07033933
0001d0 51 0a ba 3d 14 c4 f5 3d 44 f2 88 3e f9 d0 33 be
       0.09083999 0.120002896 0.26747334 -0.17560185
0001e0 56 01 be bd a6 62 4d be e1 ef a8 be 13 80 90 3d
       -0.092775986 -0.20057163 -0.32995513 0.07055678
0001f0 3d 7c 97 bd a3 85 65 3d 3d 70 28 be 6b 8c d1 bd
       -0.073967434 0.05603565 -0.16449066 -0.10231861
000200 24 c3 43 3e dd 07 92 3d 6c c5 c6 bd 94 27 03 3d
       0.19117409 0.07130406 -0.09705624 0.032020167
000210 47 b1 fc 3c 5a c5 e4 bd ec aa 11 bd 14 77 d8 bd
       0.030846251 -0.11170454 -0.035563394 -0.10569587
000220 2b 10 a6 be 51 09 e3 bd 53 9d 4d 3b 8d d1 a1 be
       -0.3243421 -0.11085761 0.003137429 -0.31605187
000230 e0 d3 e0 bc 30 3c e9 3d 8e 64 89 bc d9 8f 3d be
       -0.02744478 0.11388433 -0.016771581 -0.18511905
000240 a6 b5 b4 3d ab 4f 43 bc 08 e5 ec be 65 e3 26 be
       0.08823709 -0.01192085 -0.46268487 -0.16297682
000250 c9 c7 0b be ad 70 d9 bd f1 4f 2a be 48 09 88 bc
       -0.1365043 -0.10617194 -0.16632058 -0.016605988
000260 da 4d 12 3d 68 bf 39 be 29 2a cf 3b 88 5e ba 3c
       0.035718776 -0.18139422 0.0063221646 0.022750154
000270 b0 c7 94 be 65 b0 86 3e 3e 47 d6 3c da ec 20 be
       -0.290586 0.26306453 0.026157018 -0.15715352
000280 f3 41 47 3e d9 23 a7 3e 2d 2b 5b be fd 67 7c bc
       0.19458751 0.32644537 -0.21403189 -0.015405652
000290 f0 14 0d bf e2 77 98 be 20 06 3c be f0 24 72 3e
       -0.55110073 -0.29778963 -0.18361712 0.23646903
0002a0 73 31 3c bf a6 ac 73 bc 39 ac a4 bd 32 be a9 bd
       -0.73512954 -0.014872706 -0.08040661 -0.0828823
0002b0 e0 1a 4b bc 33 f5 b4 bd 07 4d 08 bd 01 51 cf bd
       -0.012396544 -0.088358305 -0.033276584 -0.10122872
0002c0 af e3 43 3a b6 f4 ba 3d d2 07 65 bd 6c 9c 4f bc
       0.0007472587 0.09128706 -0.05591566 -0.012671571
0002d0 44 f8 cb be 78 5c ae 3c 5f bb bd 3d bb a0 89 3e
       -0.3983785 0.021284327 0.09264254 0.2688044
0002e0 9c c5 bf bc 8c 8d 42 3e e0 4d bb 3d e6 09 c4 bd
       -0.023409657 0.18999308 0.09145713 -0.095722005
0002f0 a3 3b 02 3e 1a 4a 7c be 46 5f a3 be 8d 30 c1 be
       0.12718062 -0.24637643 -0.31908625 -0.37732354
000300 94 d1 22 bd bb ce 07 be 9d 48 17 be 46 83 0d be
       -0.03975065 -0.13262455 -0.14773794 -0.13819608
000310 2e d3 56 3d af 79 18 be a2 d8 1f be 46 bd b3 3b
       0.05244749 -0.14890169 -0.15609983 0.0054852096
000320 2c cd 14 bd 13 73 14 3c 82 da 4e bd 15 d3 db bb
       -0.03632848 0.009060639 -0.050501354 -0.0067085125
000330 ef 20 20 3d 42 b9 9d 3d 1d 2d 1a bd 3a 4c 7a 3d
       0.039093908 0.07701351 -0.03764068 0.06110785
000340 9f 83 6a bd fe e7 34 bc b9 2d 1a bd 34 fb 71 3d
       -0.05725443 -0.011041639 -0.03764126 0.059077457
000350 58 97 2d bc 39 23 18 bd 72 02 d8 bd 0d 58 a2 bd
       -0.010595165 -0.037142966 -0.105473414 -0.079269506
000360 c7 a6 b5 bd e6 72 00 3e fc ce 3a bd b6 23 e4 3d
       -0.08869701 0.1254383 -0.045607552 0.11139624
000370 31 84 8a bd aa 37 15 be 67 ff 8d bd a2 0d 18 3d
       -0.06763495 -0.14572015 -0.0693348 0.037122376
000380 fb 8b 0c be 79 1b d3 bd c7 1b 19 bc d1 4c 02 3c
       -0.13725273 -0.10307974 -0.009345002 0.007952885
000390 fb 6d 4d 3a 7f 70 d7 3d 7c f8 9f 3d 2f 67 03 3e
       0.0007836518 0.10519504 0.078110665 0.1283233
0003a0 23 06 e2 3c e7 7d 3f 3d 32 d4 be 3c 40 25 2e 3c
       0.027590817 0.04675093 0.023294542 0.010628998
0003b0 21 44 94 bd 2f 0d aa 3d e3 6a 0c be f8 b0 3a 3d
       -0.07239557 0.08303296 -0.13712649 0.045578927
0003c0 02 15 65 bd 4a eb 37 bd 0a 5d bd bd cb 0d 8b bd
       -0.055928238 -0.044902124 -0.092462614 -0.0678974
0003d0 77 c3 58 bd a8 bf be bc 87 00 2e 3d c0 44 2f 3d
       -0.052920785 -0.023284748 0.04248097 0.042790174
0003e0 b8 35 58 3d bd 75 02 3e 84 ae 41 be 6c 2a a2 bd
       0.052785605 0.12740226 -0.18914229 -0.079182476
0003f0 9d a2 80 3c f1 bd 22 be 45 07 da bd d4 ba 07 bd
       0.01570254 -0.1589277 -0.10645918 -0.033137158

fc2.bias f4 [16]
000000 d1 2f e4 3d 0e bb 2c 3e 91 d5 d7 bd f5 5d 5e bd
       0.11141933 0.1686823 -0.105387814 -0.054288823
000010 b6 b9 ec bd 96 54 46 bd 2c 54 d3 bd df 6e ca 3d
       -0.11558859 -0.04842051 -0.10318789 0.09884428
000020 87 f9 e1 bc ec 23 16 3e f6 0a 08 3d 4e 57 93 bd
       -0.027584804 0.1466214 0.03321358 -0.071943864
000030 b6 7c 44 be c7 72 61 3d 9c ef 12 be f0 7f 4f be
       -0.19188198 0.0550411 -0.14349216 -0.20263648

fc3.weight f4 [16, 16]
000000 70 fc 66 be 24 f7 38 bd 9f 67 c3 be 0a 62 67 bd
       -0.22557235 -0.045157567 -0.38164994 -0.05648998
000010 0e fa 03 3e 38 49 4b be 1c 1a ae 3d 68 05 10 be
       0.12888357 -0.1985215 0.08501074 -0.14064562
000020 b4 01 4e bd 3c 06 95 3d c3 6c 12 3e ae ff 44 be
       -0.050294593 0.0727658 0.14299302 -0.19238159
000030 77 7e 4f be 17 5f 09 bd 18 f4 7d bd be d0 8d be
       -0.20263086 -0.03353795 -0.062000364 -0.2769832
000040 2c f5 2f bb 65 70 35 be 76 ea 27 3e 7d 03 6d bd
       -0.0026849015 -0.17718656 0.16398033 -0.057864655
000050 2f df 15 be 88 60 57 3e 6e c3 3e be 19 2f 3e 3e
       -0.14635919 0.21032917 -0.18629238 0.18572654
000060 93 af fd 3c 17 1e 20 3e 7b e5 7f bc 7a ee 82 3d
       0.03096751 0.15636478 -0.015618677 0.06393142
000070 23 a8 f9 bd ee bd 3b be 25 45 45 bd 4f 48 1e 3c
       -0.12190273 -0.18334171 -0.048161644 0.009660794
000080 51 b5 d5 3d 6b 6b 5b b9 4b a4 df 3d 5a 48 8c bc
       0.10434974 -0.00020925484 0.10920008 -0.017124344
000090 e5 5a 3c 3e 6e 10 31 be b3 08 0e be 90 c7 c4 bd
       0.18394049 -0.17291424 -0.13870506 -0.09608376
0000a0 7a 4f c9 bd f1 a9 35 be 07 c3 0f bd a8 22 17 bd
       -0.09829612 -0.17740609 -0.035098102 -0.036898285
0000b0 31 63 74 bd 77 4d 99 3d ac c8 bc 3d 2b 3a a5 3d
       -0.05966491 0.07485478 0.092179626 0.08067735
0000c0 ee 14 51 be 40 2c 8b be e6 f5 b0 bd 92 e3 7b 3c
       -0.2041814 -0.27182198 -0.086406514 0.015374081
0000d0 60 0f 41 3e 8f 82 ca bd 0f aa c4 3d 61 a3 e3 bd
       0.18853521 -0.09888183 0.096027486 -0.111151464
0000e0 d1 c9 8a 3b 2b 5f 7e bd 7d 00 8b 3d be 8e 4b be
       0.004235484 -0.062102478 0.067872025 -0.1987867
0000f0 0b 54 d8 bd 7f fc 11 bd 81 d3 04 3e c5 ea f5 bd
       -0.10562905 -0.03564119 0.12971307 -0.12007669
000100 5b 00 90 be 44 7a a6 bc 04 5c b4 bd 1a 55 3d be
       -0.2812527 -0.020321973 -0.08806613 -0.18489495
000110 1f c5 94 bd 18 5f 6d be 22 6f 74 3e da 5c b5 be
       -0.0726416 -0.23180807 0.23870519 -0.35422403
000120 b8 47 e7 be 3c 89 ee bd 79 18 51 3e 9d e2 13 be
       -0.45171905 -0.11647269 0.20419492 -0.14441915
000130 62 b0 2d be 76 a0 82 be 3d ef 58 be 06 a5 59 be
       -0.16961816 -0.25513047 -0.21185012 -0.21254358
000140 e5 12 8e be a3 03 10 3d 45 15 1e bb 99 62 ba bc
       -0.2774879 0.03515972 -0.0024121564 -0.022752093
000150 eb a3 42 3e fd 21 1c 3d 1e 52 fc bd 9d d7 97 3d
       0.19007842 0.03811835 -0.1232035 0.07414172
000160 7a 5c a1 bb b3 d7 06 bd c3 ed 1d 3e 5b b6 22 3e
       -0.004924354 -0.03292055 0.1542273 0.15889876
000170 5d ea 73 3e 36 67 c3 bd 64 7b 7f be 25 03 30 3e
       0.23819871 -0.0954117 -0.24949414 0.171887
000180 12 74 45 be fc cb fe 3c 7b 1b 21 be 76 20 33 3e
       -0.19282559 0.031103127 -0.15733139 0.17492852
000190 f9 91 7b be b6 ae 55 be f1 6a 0d 3e 59 48 b6 be
       -0.24567403 -0.20867428 0.13810326 -0.35602072
0001a0 ec 32 ca bd 15 d9 14 be 4d 0f fd 3d 3e cc b3 bd
       -0.09872994 -0.14535935 0.12356434 -0.087791905
0001b0 e9 29 ab bd 09 03 5f bc f7 3e 71 be 5a 76 59 3c
       -0.08357603 -0.0136115635 -0.23559175 0.013272846
0001c0 0a 90 11 3e c5 8a 51 bd c9 72 9a be 96 91 a4 3c
       0.14215103 -0.05115773 -0.301657 0.020088952
0001d0 1d b9 45 be 51 f3 07 be 05 eb 80 bd 31 8e 00 3e
       -0.19308896 -0.13276412 -0.062948264 0.12554242
0001e0 a8 03 2f 3e 58 1b 3f be 07 1e 1b bd e3 f6 e0 3d
       0.17091238 -0.18662775 -0.037870433 0.1098459
0001f0 ba 49 a8 3d 07 6d 44 be 08 18 af 3d a8 74 2b 3e
       0.08217187 -0.19182216 0.085495055 0.1674372
000200 ae 6c 7c 3e 4c 79 bb be 1c 0c 8f be e0 91 ac 3c
       0.24650833 -0.3661598 -0.27938926 0.021065652
000210 2f cf 43 3e c4 13 f0 bb 0c 9b 29 3e bf 43 e9 3d
       0.19122003 -0.007326575 0.16563052 0.11389875
000220 58 a5 80 be c2 56 cb bd 87 79 02 3e d5 20 52 bc
       -0.25126147 -0.09928657 0.12741672 -0.012825211
000230 b4 46 7e be 64 2c 4e bd 92 6f cb bd 5a 2c 1c 3e
       -0.24831659 -0.050335303 -0.0993339 0.15251294
000240 fb 46 7c bd a2 be 87 be 9e 6c ef bc dd ce 1f 3c
       -0.06159113 -0.2651263 -0.029226597 0.00975391
000250 69 83 89 bd e0 1f 59 3e 97 60 1d 3e f9 ca d1 bd
       -0.067145176 0.21203566 0.15368877 -0.10243792
000260 9f 58 1a be 3c 3e ad bc d6 89 da 3c 70 77 48 3e
       -0.15072869 -0.02114784 0.026677053 0.19576812
000270 9c ef e4 bd 20 4e a8 3d 1d 1b be 3d e7 a8 00 3e
       -0.11178514 0.08218026 0.09282515 0.12564431
000280 dd 2e ec be 39 3a 9e bc 96 63 4a 3e 3a 88 3d bd
       -0.46129504 -0.019314872 0.19764552 -0.046272494
000290 6c b7 03 3e 47 fd 3b bd 5d 7b 38 3d ba e6 8c be
       0.12862939 -0.04589584 0.045039523 -0.2751978
0002a0 23 bb 0e 3b 69 e1 ff bc f8 08 7f 3d e8 29 5f be
       0.0021779023 -0.031235414 0.062264413 -0.2179333
0002b0 a8 ae c1 3d 8a 84 74 3e c0 81 89 bd 43 4f 1e be
       0.09457141 0.23878685 -0.06714201 -0.15459923
0002c0 10 58 03 3e ff df b5 3d 25 93 a2 bd 44 20 99 3c
       0.12826562 0.088806145 -0.07938222 0.018692143
0002d0 f8 3a 84 bd f6 5e d6 bd d2 a8 1d be e0 91 9f 3e
       -0.0645656 -0.10467331 -0.15396431 0.3116598
0002e0 db 14 06 3e 0c 16 3d 3e ae 21 ea 3c 94 96 6d 3d
       0.13093893 0.18465441 0.028580513 0.05800493
0002f0 ad 60 63 bd 2f 9a 34 be 59 1c af bc c6 90 4a be
       -0.05551212 -0.17636941 -0.021375822 -0.19781789
000300 35 d9 82 3d 5f 24 32 3b 58 e5 b3 bd b2 ba 94 bc
       0.06389085 0.0027182323 -0.08783978 -0.01815543
000310 ab c8 cb 3a 17 7c d5 3d d2 05 2f be 7e 20 1b 3e
       0.0015547475 0.10424059 -0.17092064 0.15149114
000320 10 65 23 3d 9c c2 0d be 2a 56 ec 3d 94 56 5e 3e
       0.039891303 -0.13843769 0.11539872 0.21712714
000330 4f 7a b6 bc 27 d2 8e 3d e0 08 5b be 69 4c a1 bd
       -0.022275118 0.06973677 -0.21390104 -0.07875902
000340 51 1e b6 be ef f0 93 bc c1 83 8f bc 16 18 6e be
       -0.35570005 -0.018059222 -0.01751888 -0.23251376
000350 0b 74 41 bc 35 6d 71 be d8 b4 35 bc f3 a5 76 3d
       -0.011807452 -0.23576815 -0.01109048 0.060216855
000360 e3 bf b2 3e ee 96 85 be cf 77 9f bd 10 fb 86 bd
       0.34912023 -0.26091713 -0.077865236 -0.06590855
000370 02 c7 46 be 0a 18 da 3d 40 c4 f3 bb 57 7c 4b 3e
       -0.19411853 0.10649116 -0.0074391663 0.1987165
000380 18 43 8d ba 21 4c c7 bd 59 63 7f 3d bd a3 4b 3d
       -0.0010777442 -0.09731317 0.062350605 0.0497167
000390 f9 5b 09 3e d2 77 1f 3e 20 f8 f8 3c a2 4c 08 bf
       0.13413991 0.15573052 0.030391753 -0.5324193
0003a0 db ba 1b be 19 4a 41 be 74 82 6f be 1c c8 6b be
       -0.15207998 -0.18875922 -0.23389608 -0.23025554
0003b0 25 d7 4a bd f3 03 d2 bd 4c 72 30 be a4 4c e7 bd
       -0.049521584 -0.102546595 -0.17231101 -0.11293915
0003c0 9f 6a d0 3d 40 17 73 bd 01 3f da bd 3d fd 87 bd
       0.10176586 -0.059348345 -0.10656548 -0.06640098
0003d0 be 65 90 3d 4e d1 ed 3d 65 0f 08 3e c1 ac 55 3d
       0.07050656 0.11612187 0.13287123 0.052166704
0003e0 9e d6 f2 3c be f8 2f 3e 3b 6a 14 be 14 72 9b be
       0.029643353 0.17184731 -0.14493649 -0.30360472
0003f0 9c 19 24 be 7c 60 8b 3d 91 0c b5 3d 44 be 98 bd
       -0.16025394 0.06805512 0.088402875 -0.07458165

fc3.bias f4 [16]
000000 7a ce 51 bf a6 87 b6 3e f7 5f f7 bd 12 01 23 bd
       -0.81955683 0.35650367 -0.12078851 -0.039795943
000010 48 a9 89 3d 87 d9 69 3d 1a 20 e7 3d 25 12 b3 be
       0.06721741 0.057092216 0.1128542 -0.3497478
000020 dd a8 27 3e b1 27 d4 3d ea 5b 9d 3d dc 06 d2 3e
       0.1637301 0.10359133 0.07683547 0.41020858
000030 c9 3c 9d be e8 0e 47 bd 79 cc 7f 3e 28 fb 3d 3e
       -0.30710438 -0.0485982 0.24980344 0.1855284

fc4.weight f4 [1, 16]
000000 40 b3 59 3e f6 9a 21 be ba 96 64 bc c6 6e 29 3c
       0.21259785 -0.15781769 -0.013951952 0.010341352
000010 c3 e0 0b 3d 9a a6 8c 3c 22 2e 0e bc 0e 1f 68 3c
       0.034149896 0.017169286 -0.008677991 0.01416756
000020 01 f4 c7 bd dc c1 37 bc 9f 72 05 3c 02 9d 69 be
       -0.09763337 -0.011215653 0.008145004 -0.228138
000030 6a f6 d8 3b 87 db fa 3d e2 5e 1c 3e 5b 7f 91 bd
       0.0066211717 0.12248903 0.1527057 -0.07104369
