models/py_SimpleFeedForwardNN_mdl_16-64-64_12_epochs_0-00100_lr_16_batch_202310261808.pth (torch, 27284 bytes, 7 tensors)

fc1.weight f4 [16, 18]
000000 80 79 0c 3c 9d dd 22 3d f2 15 b4 be bc 8d 9c be
       0.00857389 0.03976213 -0.35172993 -0.30576885
000010 28 15 2c 3e ed 4b a5 3c 3f fd e2 3d db 21 a5 3e
       0.16804945 0.020177806 0.11083459 0.32252392
000020 15 ec 9f 3d ad ab 00 3f a9 e7 04 be 22 89 b8 3d
       0.07808701 0.50261956 -0.12978996 0.09010531
000030 55 be 1f bf 04 57 61 3e 4c 7e f8 be 25 1d 98 be
       -0.623998 0.2200585 -0.48533857 -0.29709736
000040 be d6 e8 bc 14 03 e1 3d 3d c8 30 3e 26 3e 84 bc
       -0.02842271 0.10986915 0.17263885 -0.016142916
000050 96 8d 2a 3d c6 cb 3d 3e 13 1d 37 3e 5e 20 97 be
       0.041638933 0.18534765 0.17882185 -0.29516882
000060 7d c2 74 be 59 b7 92 bf 8a 19 d0 be 2f f7 1f bd
       -0.23902316 -1.1462203 -0.40644485 -0.039054092
000070 41 99 de 3e 09 4a 4b be 58 e9 c0 3f c0 8d d5 3f
       0.43476298 -0.19852461 1.5071211 1.6683884
000080 68 1b f8 3f f3 fd 1c be 56 c2 e3 bd c0 fe 96 3c
       1.9383364 -0.15331249 -0.11121051 0.018432021
000090 6e 8f 7f bd e3 3f 8a 3d 40 a5 d4 3c dd 8b e4 3d
       -0.062392645 0.06750467 0.025957704 0.11159489
0000a0 43 cb cf 3d ef 7a d0 bd 01 58 83 be ab 00 af bf
       0.10146191 -0.10179698 -0.2565308 -1.3672079
0000b0 b6 10 3b bf 45 32 13 bf 3c 2f b1 3e d1 fa 08 bf
       -0.73072374 -0.5749858 0.3460635 -0.53507715
0000c0 45 09 95 3f 6d c0 c8 3f 34 17 e8 3f 7f 5f c8 bd
       1.1643454 1.5683724 1.8132081 -0.097838394
0000d0 fd 1c a6 ba 5d ce 2d 3e 81 11 18 bf b4 31 1e 3c
       -0.0012673434 0.16973253 -0.5940171 0.009655405
0000e0 e5 de 59 3e 97 b7 cb 3c bd c5 0b 3e de 35 67 3e
       0.21276434 0.024867816 0.1364965 0.22579142
0000f0 b3 63 65 3e 13 27 68 bd 0f b8 94 3e 79 7b 33 bf
       0.22401313 -0.05667789 0.29046676 -0.7011028
000100 38 24 50 bf b9 82 a7 bd a5 7c 69 bf 25 1b 8f bf
       -0.81305265 -0.0817923 -0.9120582 -1.1180159
000110 0d 58 dc bf c0 fd 6d be a6 d7 50 3e e4 d2 63 3e
       -1.7214371 -0.23241329 0.20394763 0.22248417
000120 cf c9 29 be 6e 30 2a 3d 4e 79 7e bd d5 ab 80 3d
       -0.1658089 0.041550092 -0.062127404 0.06282774
000130 49 e0 bd bd a9 75 c0 3e b0 40 5f 3e 0d b1 11 3f
       -0.092712946 0.37589768 0.2180202 0.56910783
000140 af f6 eb 3e 20 82 62 bd b9 0c dd be 67 8d 98 be
       0.46086642 -0.055299878 -0.4317377 -0.2979538
000150 ba 66 45 bf 55 70 43 bf 45 83 cf bf 50 0f cd be
       -0.77109873 -0.7634328 -1.6211935 -0.40050745
000160 6e 71 05 3f e9 e6 8e 3e 1f ac ae 3e a7 b1 13 3d
       0.52126205 0.27910545 0.34115693 0.036058094
000170 d8 7e d0 be 72 13 d3 3b 8c a3 13 3e 0d d0 20 be
       -0.40721774 0.006441527 0.14417857 -0.15704365
000180 2b e8 9d be 35 82 b7 3f 5b f3 65 3f 60 7e 91 3f
       -0.30841193 1.4336611 0.89824456 1.1366692
000190 7d fd 53 3d 46 33 ce 3e 25 5a 5c bf 06 6c b1 bf
       0.051755417 0.40273494 -0.8607505 -1.3861091
0001a0 80 ad b3 bf 5e 7a 15 3d 02 9a 9f bb 99 0c 2a be
       -1.4037323 0.03649365 -0.004870654 -0.16606368
0001b0 b1 f2 c6 3d ba 87 2f 3d 28 6a 8a bd 16 af 45 3e
       0.097142585 0.04285405 -0.06758529 0.19305071
0001c0 e4 da 0a bd 2a 76 57 3e 02 5d c9 3c fe 1e a2 3f
       -0.033900157 0.2104117 0.024580482 1.2665708
0001d0 f3 b1 5f 3f 08 2b 35 3f 6e a5 ba be 20 4b ed 3e
       0.87380904 0.70768785 -0.36454338 0.46346378
0001e0 e9 bc 66 bf fc 19 7b bf 96 ec f0 bf 16 23 20 3e
       -0.90132004 -0.98086524 -1.88222 0.15638384
0001f0 9e 1a aa 3c e0 63 a4 3d a7 4e 1d bb 6b 8c ae 3b
       0.020764645 0.08026862 -0.002400318 0.0053267977
000200 0d f4 92 be ec 55 24 be 14 1b 95 be 8c 68 7e 3e
       -0.2870182 -0.16048402 -0.2912222 0.24844569
000210 da 8f 63 3e 57 7b 0f 3e 9c a2 8b bc 67 3a ef 3e
       0.22222844 0.14011894 -0.017045312 0.46724245
000220 0c ff ed bd a0 18 ba 3d ee cf c7 be 43 6f cf be
       -0.11620912 0.09086728 -0.39025825 -0.40514573
000230 49 80 b7 be a9 be 1d be 7e bc 6a 3e 34 d7 95 3c
       -0.3584006 -0.15404762 0.22923467 0.018291093
000240 28 55 0a 3c bd 6f 0c be 38 91 fb bd b6 55 a0 39
       0.008443154 -0.137145 -0.12283558 0.00030581438
000250 de f8 2d 3d ce 7d 18 be b6 0e 3a 3d 2d 1e 18 3e
       0.042473666 -0.1489174 0.045424186 0.14855261
000260 16 75 db bc e9 fb b6 bb fa 16 8c bd a4 77 9c ba
       -0.02678923 -0.0055842292 -0.0684032 -0.0011937511
000270 6b 65 8a bb 1b a5 47 3e 1d 6f 1f 3e d6 3d 51 be
       -0.0042235157 0.19496576 0.1556973 -0.20433745
000280 6a 83 13 3e da 05 0f be e0 8c 3b be 2a be 2c be
       0.14405599 -0.13967076 -0.18315458 -0.16869417
000290 79 dd 16 be 0f 63 3e be 42 0f 37 be a1 f6 25 be
       -0.14732923 -0.18592475 -0.17876914 -0.16207363
0002a0 80 8f 77 bc a3 df 51 be da e2 80 3d b5 29 5c 3e
       -0.015109897 -0.20495467 0.062932685 0.21500285
0002b0 84 17 0f 3d 7c 8a 61 bd 88 53 bb 3c 14 f0 4d be
       0.034934536 -0.05506371 0.02286698 -0.20111114
0002c0 d3 7a 23 3e c3 1c 49 3e 25 e5 5b 3e 62 ce 06 be
       0.15964822 0.19639878 0.2147413 -0.13164666
0002d0 04 dd d9 bc e6 f7 96 39 ea a4 0a be c5 7a a3 be
       -0.026594646 0.00028794928 -0.13539472 -0.31929603
0002e0 0f a6 44 3d aa 73 4b 3d db 78 d1 3d 28 62 20 3e
       0.04800993 0.049670853 0.102281295 0.15662444
0002f0 80 ff 99 bb fc e3 f9 bd b8 48 0a be a8 a2 09 3e
       -0.0046996474 -0.12201688 -0.13504303 0.13440955
000300 a5 69 86 3e 8f 19 9b bc 73 29 c5 bc 2a 01 c9 bd
       0.26252475 -0.018933086 -0.024067616 -0.09814675
000310 04 28 18 3e b6 42 8e 3e 76 9b 87 3e 23 fe 0f bd
       0.14859015 0.2778527 0.26485795 -0.035154473
000320 39 b3 98 be 52 bb 49 3d 7e c7 4e 3e 18 fc b7 be
       -0.29824236 0.04925091 0.20193288 -0.3593452
000330 f4 ac 18 be 32 e6 39 3f 00 3c 34 3e 9b d2 ba 3e
       -0.14909726 0.72616875 0.17601013 0.36488804
000340 d3 e9 9f 3d 33 4d 01 3e f8 ea 98 be 10 5b 8b bf
       0.0780827 0.12627105 -0.29866767 -1.0887165
000350 44 64 80 bf 6e a9 e1 3e 18 a5 9b 3b d5 0a 08 be
       -1.0030599 0.44074577 0.0047499053 -0.13285382
000360 ef bb 2e 3e db f8 5e 3d fe 6c 63 3d 73 83 b8 bd
       0.17063878 0.054436546 0.055523865 -0.09009447
000370 d0 82 1e be e6 32 fd bc 39 60 d0 be d5 d6 8d bf
       -0.15479589 -0.03090806 -0.40698412 -1.1081187
000380 84 f5 1a bf 1e a3 a4 be 4a 73 0d 3f 5a b8 37 be
       -0.6053088 -0.321557 0.5525404 -0.17941418
000390 e6 bb 8e 3f dd 3c c1 3f 39 27 0b 40 86 35 07 be
       1.1151092 1.5096699 2.174269 -0.13204011
0003a0 c7 c3 cc be 05 0b 9f be a3 ab 17 3e 1c 90 e0 be
       -0.39993116 -0.31063095 0.14811568 -0.43859947
0003b0 d6 81 04 bd 25 c8 a8 bd 8d e0 17 3e 67 3a dc bd
       -0.032350384 -0.082412995 0.14831753 -0.10753327
0003c0 65 fb 7c 3c 55 58 53 3e 79 f5 2f bf 08 e6 be bd
       0.0154407965 0.20639165 -0.68733937 -0.09321219
0003d0 38 44 b8 3e cc 86 28 3c b1 32 1b 3d 03 fe 08 3f
       0.35989547 0.010286044 0.03789014 0.5351259
0003e0 23 f7 01 be 08 72 2b be d8 c2 b2 bd 9b a1 03 be
       -0.12691931 -0.16742718 -0.0872857 -0.12854616
0003f0 2c ac 69 bd 82 0d 16 3d 57 76 ac be f0 db 3a 3e
       -0.05704896 0.036633976 -0.33684036 0.18247962

fc1.bias f4 [16]
000000 ea 20 3b 3d 8b e9 37 3e 9a ed 06 3c a2 09 a7 be
       0.045685686 0.17960183 0.00823536 -0.32624537
000010 e5 ac 03 bf c8 c0 e9 bc 50 b9 70 be 89 f7 c2 be
       -0.5143569 -0.028534308 -0.23508191 -0.3807948
000020 d7 35 1c 3e 49 96 52 be ec 3a bb 39 cb 44 06 3d
       0.15254913 -0.20565142 0.0003571132 0.03278045
000030 f5 4b c2 3e 2c d1 97 3d 1f 6b 34 be e4 5a 63 3e
       0.37948576 0.07412943 -0.17618988 0.22202641

fc2.weight f4 [64, 16]
000000 ce 9f 30 be 0c f8 7b be 5a 6c 2c be 73 a5 93 3d
       -0.1724846 -0.24606341 -0.16838208 0.07209291
000010 72 51 a6 bd b0 1f 0c 3d 01 2d 2a 3d 10 0c 4b 3e
       -0.08121003 0.034209907 0.041546825 0.1982882
000020 48 19 61 be 60 7a a3 bd 1a 01 18 be e8 7c ff bd
       -0.219823 -0.079823256 -0.1484417 -0.12474996
000030 a3 2e 08 be 6c 2c f5 bd 30 09 9a 3d f0 9b b6 bd
       -0.1329904 -0.119713634 0.075212836 -0.089164615
000040 50 d8 4a bd 56 69 4f be 00 ce 33 bd 48 8a 2f 3d
       -0.049522698 -0.20255026 -0.04389763 0.042856485
000050 d0 b5 4a be f0 81 5e bd 4a 09 19 be ce 50 28 be
       -0.19795918 -0.054323137 -0.1494495 -0.16437075
000060 30 79 81 3c 5a 05 6a be 78 b6 31 3d b0 96 ae bc
       0.015804857 -0.22853604 0.043386906 -0.021312088
000070 f8 71 e7 bd d8 a7 3d bd 62 bf 57 be 30 ad ac bd
       -0.11301035 -0.046302646 -0.210691 -0.084314704
000080 c1 bd e3 be 06 6a 9b 3d 68 6f 60 be 14 85 00 bd
       -0.44480708 0.07588582 -0.21917498 -0.031376913
000090 f3 3d 75 3d 6a d1 22 bd 78 01 b0 3e a0 39 7c ba
       0.059873533 -0.039750494 0.3437612 -0.0009621624
0000a0 e0 27 50 bc bc 4c 69 3e 88 43 42 3e da 76 9b bd
       -0.012704819 0.22783178 0.18971074 -0.075910285
0000b0 87 8c d1 3d f6 5d aa 3e 90 56 e8 bd 87 0b 5e bd
       0.102318816 0.33274812 -0.113446355 -0.054210212
0000c0 ba a9 d6 3d 96 7e 83 3e 56 b2 c6 3c 47 3a 89 be
       0.104815915 0.25682515 0.02425496 -0.26802275
0000d0 56 f0 04 3e eb d0 e2 be 3c 7c 30 3d c9 30 14 ba
       0.12982306 -0.44300017 0.04308723 -0.00056530215
0000e0 40 47 f2 bd a2 fc 3f be 3c 93 cc bd ab 87 86 bc
       -0.11829996 -0.18748716 -0.0998902 -0.016422113
0000f0 2e 7d 01 be c0 e9 9a 3d c1 cf 95 bb de a5 a7 b9
       -0.12645409 0.075641155 -0.0045718853 -0.00031976303
000100 71 67 36 be f4 76 58 be 75 c2 91 be ab 3a 8a bd
       -0.17812897 -0.21139127 -0.2846867 -0.06749471
000110 ce 1e e5 3d 1b 07 70 be d9 86 0c 3e ab ee 10 3e
       0.11187516 -0.2344021 0.13723315 0.14153545
000120 3e 4b 6c 3e d8 31 55 be f4 7d 41 bd 50 51 ee bd
       0.23075578 -0.20819795 -0.04723926 -0.11636603
000130 69 31 b8 3d b9 7c 2c 3e 13 b7 d8 bc 6c 13 8e 3c
       0.08993799 0.16844453 -0.026454484 0.017343245
000140 dd de db bc 68 e8 6c 3e 56 b8 7c 3e 1d 93 7f be
       -0.026839668 0.23135531 0.24679694 -0.24958463
000150 c5 f6 52 be 7e 2b 17 be 53 52 81 be 59 3d 93 3d
       -0.20601948 -0.14762685 -0.2525812 0.071894355
000160 a9 33 45 be e4 d6 00 be 2b d3 82 3a 9c 42 40 3e
       -0.19257988 -0.12581974 0.0009981146 0.1877541
000170 c4 75 57 3e 82 7f ee 3d df 54 f7 bc 1b 1f 7a be
       0.21041018 0.11645414 -0.030191837 -0.24425928
000180 21 fc 0e 3e 7a bf 85 3e 0f d0 4c 3d 95 3b be be
       0.13963367 0.26122648 0.050003108 -0.37154832
000190 13 5b 38 bd 1e b1 d7 be f8 b2 3d be cc c9 46 bd
       -0.04500873 -0.42127317 -0.18525302 -0.048532292
0001a0 f0 d4 d6 3c 14 5f d7 bd 9e 1f 31 3e c9 8d 05 bd
       0.026224583 -0.105161816 0.17297217 -0.03260592
0001b0 28 73 5a bd a9 ee 85 3e 32 9e 58 3d 91 18 7d 3d
       -0.053332478 0.26158646 0.05288524 0.061791006
0001c0 67 5c 85 bd f4 17 82 be d1 df 4d bd ed e4 fd bd
       -0.06511765 -0.254089 -0.050262276 -0.1239718
0001d0 e5 99 31 3e c3 39 91 3d a0 a9 98 be 35 6a 34 3e
       0.17343862 0.07091095 -0.29816914 0.1761864
0001e0 1f db 5d be 00 50 67 3d d2 95 80 3d e8 6f 05 3e
       -0.2166562 0.05647278 0.06278576 0.1303097
0001f0 aa b1 40 3d 48 91 32 be 54 98 6e be 81 80 35 bd
       0.047044434 -0.17438233 -0.23300296 -0.044312004
000200 d4 a4 da bd d7 fa 1c 3c 9a 50 03 be 40 7b ba 3b
       -0.1067597 0.009581289 -0.12823716 0.005690962
000210 88 37 0d 3e cc 20 2d 3d 1f 37 ab be 4a 91 0f 3e
       0.13790715 0.042267606 -0.33440492 0.14020267
000220 58 f7 de bd 4c e5 2e 3e 90 b2 03 3e 3d 26 fe bc
       -0.10887021 0.17079657 0.12861085 -0.031024093
000230 8f 6a 92 be 4a ca 63 bd 90 4d 66 be 75 0e 5c be
       -0.28596923 -0.05561284 -0.22490525 -0.2148989
000240 78 45 63 bd f6 a9 89 3d 11 34 9c bd d9 5d 89 bd
       -0.055486172 0.067218706 -0.076271184 -0.06707353
000250 18 ad 72 3d dc a6 8d be 45 0a d5 be a0 1f 84 be
       0.059247106 -0.27666366 -0.41609398 -0.25805378
000260 76 0e 5d 3e 08 9c 67 be a1 fe 46 3e 94 da 53 be
       0.21587548 -0.22618115 0.1943307 -0.2068885
000270 d7 a8 c6 bc de 72 55 3e 25 3d 16 bb df d8 9e 3e
       -0.024250431 0.208446 -0.0022924629 0.31024835
000280 12 84 86 be 1f 03 67 bd 57 85 4f be 9d c0 d7 bc
       -0.26272637 -0.05639946 -0.20265709 -0.026336962
000290 be 11 01 3e 77 b8 ba be a3 c3 1b 3e 84 18 39 be
       0.12604424 -0.3646886 0.15211348 -0.18075758
0002a0 69 ae 83 3c 10 90 8a bd ca 63 45 3c c3 89 82 bd
       0.016074376 -0.06765759 0.012047717 -0.06373932
0002b0 8e eb 32 3e 9d f6 ac 3e ee 95 8b 3d 8d d9 a4 3e
       0.1747267 0.337819 0.06815706 0.32197228
0002c0 ce fa 4c be d9 f7 81 bd 41 c9 35 be 3a 81 6e 3d
       -0.2001755 -0.06346101 -0.17752554 0.05822871
0002d0 61 1e 11 3e cb 1a d3 bd 8e ac 87 3a 38 a8 6e 3d
       0.14171745 -0.10307845 0.0010351108 0.058265895
0002e0 79 fe 38 3e 00 93 32 bb b3 8c c5 bd b9 a4 93 bb
       0.18065824 -0.0027248263 -0.09645977 -0.0045057205
0002f0 2f 14 90 be a6 34 ec 3d 0d c6 0d 3e 2e 34 93 3d
       -0.281404 0.115334794 0.13845082 0.07187687
000300 90 8a a6 ba 22 99 62 3e 5a f1 7d 3e 0c ee e8 3c
       -0.001270609 0.22128728 0.247991 0.028433822
000310 2c bc 3f 3e c2 e4 ab be 77 16 35 be 6e ae 4b 3c
       0.18724126 -0.33572966 -0.17684351 0.012431724
000320 ff ca a6 3d 6a ff 54 be 2e 4f 20 3e 3c 4e da bd
       0.08144187 -0.20800558 0.15655205 -0.10659453
000330 4d 98 73 3e 35 c6 ae 3e 51 b7 63 be d8 6d 4e be
       0.23788567 0.34135595 -0.22237898 -0.2015909
000340 af f1 9d 3d 17 cf ae 3d 0b 72 f6 3b 8e 90 8d be
       0.07712113 0.08535593 0.007520919 -0.2764935
000350 90 1c 12 be 82 b9 85 be 5c c0 7c be 81 e0 73 3d
       -0.14268708 -0.26118094 -0.24682754 0.059540275
000360 4c 07 e0 bd e0 03 84 3d 33 aa 15 bc 93 63 5a be
       -0.10938892 0.064460516 -0.009134817 -0.21327047
000370 68 dd 6c 3e 4e d1 d4 3e 89 ce c3 be ac d3 79 be
       0.23131335 0.41565937 -0.3824351 -0.24397153
000380 a1 ea 01 3e 95 51 51 be 5d 1b 3f be d9 33 10 3d
       0.1268716 -0.20441277 -0.18662782 0.035205696
000390 87 6a 82 be 98 49 bb 3d 0c 24 73 be 12 2f cc bd
       -0.254719 0.09144896 -0.2374422 -0.099699154
0003a0 3c 4f ac bd 64 52 5d 3e 53 4f 01 bd c5 32 40 be
       -0.0841355 0.21613461 -0.03156979 -0.18769367
0003b0 d1 6c ab 3d 50 68 4e be 60 ba 1d 3e f1 16 a0 bd
       0.083703645 -0.2015698 0.15403128 -0.07816876
0003c0 00 10 79 3b 13 41 da 3d 55 c4 95 3c 95 9f ef bd
       0.0038003922 0.10656943 0.018282095 -0.1170036
0003d0 f7 a9 2e 3e eb 85 14 bf 8e c7 8e 3e 23 78 b5 3d
       0.17057024 -0.5801684 0.27886623 0.08860805
0003e0 09 00 ed bd 70 a8 86 3d 34 11 a9 3d 5d 85 17 be
       -0.11572272 0.06575096 0.08255234 -0.14796968
0003f0 47 b5 9c be 71 cc 55 3e d3 10 2a be 41 59 63 3d
       -0.30607054 0.2087877 -0.1660798 0.05550504

fc2.bias f4 [64]
000000 99 40 91 3c 30 41 04 3d 8a 4b a3 bd 45 aa 12 3d
       0.017730998 0.03228873 -0.07973392 0.035806913
000010 90 c5 26 3e 06 fd 54 3e e8 be 08 3e af 5a 54 be
       0.16286302 0.20799646 0.13354075 -0.20737718
000020 32 9e 07 bd 6f 1f b8 3d 14 fd 2c 3e a8 b5 5d 3d
       -0.03310985 0.089903705 0.16893417 0.05412832
000030 09 e7 2c 3e 2b 8c 5f 3d 3a 15 22 be 4f 90 18 3d
       0.16885008 0.054577034 -0.1582841 0.037247
000040 90 29 71 3e 50 c3 5d 3d 80 3e 57 3e 15 d1 d3 3e
       0.23551011 0.054141343 0.21019936 0.41370454
000050 50 23 4d be 6e a8 34 3d eb 75 50 be f1 fb 0d be
       -0.20033002 0.04410594 -0.20357482 -0.1386564
000060 27 e5 0d be 3c 72 04 be 54 ad 5e be cc df c8 3c
       -0.13856946 -0.12934202 -0.21745807 0.024520777
000070 2f fd cd 3e a3 f5 4c 3d 7b 29 9a be 5d ae 08 be
       0.40232226 0.050038945 -0.30109772 -0.13347764
000080 6e fe 56 3e 96 37 2b be 78 6b c9 bd 07 a7 77 be
       0.20995495 -0.16720423 -0.09834951 -0.2418481
000090 b2 5f c0 be 0e 5d 3a 3e 3d 96 02 3e df d1 95 3d
       -0.3757301 0.1819956 0.12752624 0.0731542
0000a0 63 5f 36 be a1 59 e7 bd cf 02 a8 3d a1 9d ae be
       -0.17809825 -0.11296392 0.08203661 -0.34104636
0000b0 06 0a d9 3d 35 7e d0 bc dc e2 41 3e 80 48 e6 bd
       0.10597615 -0.025450805 0.18934196 -0.11244297
0000c0 fe 25 06 be 21 35 70 3e ae 3f 14 bf 34 87 e9 3e
       -0.1310043 0.23457767 -0.5790967 0.45610964
0000d0 77 5d 01 bf 6f 30 bc 3e 81 ff 19 be 92 d6 93 3d
       -0.5053324 0.36755702 -0.15038873 0.072186604
0000e0 4c 84 a0 3d 08 16 ed be 47 93 5d 3e b3 b3 92 bd
       0.078377336 -0.4630587 0.21638213 -0.07163181
0000f0 a2 33 5b be 1c 7c cb 3d 8c 83 37 bd e5 51 c8 bc
       -0.21406415 0.09935781 -0.044803187 -0.024453113

fc3.weight f4 [64, 64]
000000 6d 84 b6 3d 38 04 07 bd 50 36 2e be fa 85 db 3c
       0.08911977 -0.032963008 -0.17012906 0.026797283
000010 c4 58 9d bd 4b 39 e2 3d d5 69 b7 3b 06 9e 57 bd
       -0.07682946 0.11046084 0.005597333 -0.052640937
000020 e6 64 c6 bc 8e b4 ed bd 30 d4 8f bd 3e 58 88 3d
       -0.024218034 -0.11606704 -0.070228934 0.06657456
000030 db a9 01 be 1a 5c 68 3e a8 bc 41 3d a7 8b f0 3b
       -0.12662451 0.22691384 0.047299057 0.0073408666
000040 a4 17 e3 3d ac 46 a0 3d 0a 3c bf 3c c0 6f 5c 3e
       0.110884935 0.078259796 0.023344059 0.21527004
000050 df 4f c5 bd 73 42 1e 3d d7 2d 46 3e 70 ce 22 bc
       -0.09634375 0.03863759 0.19353424 -0.009936914
000060 9c cd 29 3d 62 46 a0 be e2 86 8c bd ee b8 3b be
       0.04145585 -0.31303698 -0.06861664 -0.18332264
000070 c1 bf aa be 14 2c 5c bb f0 77 f3 bd b7 d0 9a 3e
       -0.33349422 -0.0033595609 -0.11888111 0.30237362
000080 be ed 6e 3e 4f 85 7e bc 22 78 a1 bd f9 0f cf 3c
       0.23332879 -0.015534713 -0.07884242 0.025276171
000090 65 28 94 3d 10 25 e0 3d 28 96 0b be 3a cc ea bd
       0.07234267 0.10944569 -0.13631499 -0.114647344
0000a0 cb 3e 1c 3d ca 47 80 bd c4 36 08 3d c7 7c 26 3d
       0.03814582 -0.06263693 0.033255354 0.04064634
0000b0 e5 e9 f5 bc 54 df 37 bd 8c b1 5b 3c c9 cc a6 bd
       -0.030018756 -0.044890717 0.01340903 -0.081445284
0000c0 05 3a 1e be c7 ff 26 be f3 e4 26 be de 37 22 be
       -0.1545182 -0.16308509 -0.16298275 -0.15841624
0000d0 c4 5b d1 bd aa 17 d9 3c 5f 7a e7 3d 35 59 a9 bc
       -0.10222581 0.026500542 0.11302637 -0.02067242
0000e0 81 61 9e 3d 78 f7 9b 3d e3 d9 16 be a2 23 b9 bd
       0.07733441 0.0761556 -0.14731555 -0.090399995
0000f0 18 73 e0 bd e2 27 8b 3d 00 26 34 3d 21 2f 80 bd
       -0.109594524 0.067947164 0.043981552 -0.06258989
000100 8e eb b0 bd 12 f6 d5 3d c0 63 98 3c 5a a8 0f be
       -0.086386785 0.10447325 0.018602252 -0.14029065
000110 64 77 09 bd 68 db b3 bd af d1 72 bd f4 fc bd bc
       -0.033561125 -0.08782083 -0.059282 -0.023191907
000120 19 d3 2b 3d ed 1b 02 be c5 b1 bf bc 9d b4 11 bd
       0.041949365 -0.12705965 -0.023400197 -0.035572637
000130 75 54 3a be ed 5d 0a 3e 98 60 bb bc f3 1a f7 bd
       -0.1819628 0.13512392 -0.022873208 -0.12065687
000140 04 06 c7 3d 8e db 76 bd 41 eb bb 3d 35 2b 86 3d
       0.09717944 -0.060267977 0.091757305 0.0655121
000150 06 28 cc 3c ec 36 4b 3d fd 99 f6 3d fa f9 a6 bd
       0.024921428 0.049612924 0.1204109 -0.08153148
000160 0b 1c 05 bd 06 f1 08 be ee 1d a1 bd 3d 26 91 be
       -0.032497447 -0.13373193 -0.07867037 -0.28349486
000170 6d 4f b1 bd c7 50 a9 bd 99 ad 83 3d 69 d4 e1 3d
       -0.086577274 -0.0826736 0.064295955 0.11026842
000180 45 dc af 3c 2b e1 d6 3d f4 80 92 bd 65 db a4 bd
       0.021467337 0.10492166 -0.07153502 -0.08049659
000190 5a 67 86 3d 91 94 c9 3d 32 7c bd bb bb 94 e8 bc
       0.065626815 0.0984279 -0.0057826275 -0.028391233
0001a0 04 b5 ba b9 7c ee b1 3d 5c 33 01 be 82 d6 bd 3c
       -0.00035611552 0.086880654 -0.12617248 0.023173574
0001b0 a8 d6 80 be 2e 98 96 bc 83 fc 1e bd d9 9f d1 3c
       -0.2516377 -0.018383112 -0.038815033 0.025588917
0001c0 54 09 91 3d b8 23 6a bd bb 60 ba bc 11 ef 24 bd
       0.07081857 -0.05716297 -0.022751203 -0.040267054
0001d0 be 36 02 be 4e fe 1d be 6f b3 96 bc a3 5a 9d bd
       -0.12716195 -0.15429041 -0.018396107 -0.07683303
0001e0 da e1 d4 3d 41 b9 ea bd 4d 0e 7e be f4 c9 bb bd
       0.1039464 -0.11461116 -0.24810143 -0.09169379
0001f0 58 54 8c 3c be 7d 9c bd 1c 8e 7d bc 1b 8d 2a be
       0.017130062 -0.07641171 -0.015475776 -0.1665539
000200 7f 87 d8 3d 2c bf f5 bd c5 7c 63 3e b5 12 4d 3d
       0.10572719 -0.11999354 0.22215565 0.05006667
000210 20 68 58 bd 03 d5 af be 79 52 c4 bd 62 26 c9 bd
       -0.052833676 -0.34342203 -0.09586043 -0.09821774
000220 e4 95 00 bd c1 45 af bd fa 8d 15 bb df 5c e9 bd
       -0.031392947 -0.085582264 -0.002282022 -0.11394667
000230 a4 bd ee bd 80 cc ae bc 9c c8 29 3d c3 d5 c7 3b
       -0.11657265 -0.021337748 0.04145108 0.0060984804
000240 eb 60 56 bc 8c 24 99 bd 58 b9 95 3c ea b2 35 3d
       -0.0130846305 -0.07477674 0.018276855 0.04436008
000250 64 49 53 bd 18 cc e8 3b fc 22 5f bd ba 1c 82 3d
       -0.051583663 0.007104408 -0.054476723 0.063531354
000260 d8 e9 9a 3d 32 4c df bd 4c 23 9b 3d 78 bd cb 3d
       0.075641334 -0.10903205 0.07575092 0.09948248
000270 a7 1d 08 be 58 df 0b bd 75 12 99 bd 2c 6a 6f 3d
       -0.13292561 -0.034148544 -0.074742235 0.058450863
000280 2c a0 0e be e0 01 6f 3d d8 06 5a 3d 80 46 9e bc
       -0.13928288 0.058351398 0.053229183 -0.019320726
000290 cd ac 8e bd 21 fd 1f bd 08 13 c4 bd 5e 45 a6 bd
       -0.06966553 -0.039059762 -0.095739424 -0.081186995
0002a0 69 b0 f8 3c e0 3c d1 bc e1 b1 c6 bd 0e da 96 bd
       0.030357556 -0.025541723 -0.097018965 -0.073658094
0002b0 f0 53 80 be 40 bc c7 3c be 82 99 bd 0a 68 e4 3d
       -0.2506404 0.024381757 -0.0749564 0.111526564
0002c0 00 1f 45 ba 17 f9 e4 bd 7e 20 32 be 20 75 1d be
       -0.0007519573 -0.111803226 -0.17395207 -0.15376711
0002d0 da 57 af bd 25 2d b0 be 30 46 eb 3c a5 de c3 bd
       -0.08561678 -0.34409443 0.028719991 -0.095639504
0002e0 fe 90 3c 3d 6e 86 c6 3c 1d fb 29 be 78 cb 1b bc
       0.046036713 0.024234023 -0.16599698 -0.00950896
0002f0 54 92 71 3d 74 c6 fa 3d 9c 14 76 3d 9c 4e 64 3c
       0.05897744 0.12244883 0.06007825 0.013934758
000300 3c ef 1f bd 74 e4 17 3d 47 9d 1e 3e 3b fa 42 bc
       -0.03904651 0.037083104 0.15489684 -0.01190048
000310 8c 5d eb 3c 0a 60 12 3e 06 46 32 3d eb e3 8e b9
       0.02873113 0.14294448 0.04352381 -0.00027254163
000320 ec 39 f9 3d 62 c8 ba 3d af e1 80 3b cd 8f 75 bc
       0.12169251 0.09120251 0.0039331536 -0.014987898
000330 9f 5d 2d 3e c5 72 26 3d 53 22 78 3d 39 4a 61 bc
       0.16930245 0.040636797 0.06057961 -0.013750606
000340 2e c1 12 be da 36 8d bb 08 17 e8 3d 0c 34 82 3e
       -0.14331505 -0.0043095173 0.11332518 0.25430334
000350 93 a7 1b bd 11 02 af bd 46 a3 44 bb 3d dd a5 3d
       -0.038001608 -0.08545316 -0.0030004545 0.080988385
000360 cd 73 81 3b 96 19 ee bd 70 d8 61 3d 76 7b d7 3d
       0.003950572 -0.11625974 0.05513805 0.10521595
000370 6a 13 42 3d 20 fc d7 bd 53 77 60 3b 98 56 4f 3d
       0.047381796 -0.10546136 0.003425081 0.05061969
000380 43 be 92 3d 33 f8 4b 3c 6c 8d 41 bd b5 1d 1a bd
       0.07165196 0.012449312 -0.04725401 -0.037625987
000390 a1 69 80 bd 6c 8d 18 bd 42 50 d6 bc 4d 31 60 bd
       -0.06270147 -0.037244245 -0.026161317 -0.054734517
0003a0 5e 81 f1 3d 29 d2 7f 3d 0f 2d 26 be 85 da a4 bd
       0.11792253 0.062456284 -0.16228126 -0.08049492
0003b0 99 8a 94 3d 88 3f 88 bd 25 68 8d 3c d5 7a 45 bc
       0.07252998 -0.066527426 0.017261574 -0.012053211
0003c0 89 34 82 3d 64 36 cb bd 8d 9d ca 3b 84 6e 01 be
       0.063576765 -0.099224836 0.0061833323 -0.12639815
0003d0 43 85 83 bd 1e 1b ba 3d 9d 79 8a 3d 63 87 bc bd
       -0.06421902 0.090872034 0.06761477 -0.092055105
0003e0 bd a9 58 bd c3 fe 66 3c 0b b6 ea bd 3f 98 c1 3d
       -0.05289625 0.014098826 -0.11460503 0.09452867
0003f0 f7 49 3d bd 00 3a 71 3b b7 44 84 bd 6d 60 ef bc
       -0.046213116 0.0036808252 -0.06458419 -0.029220784

fc3.bias f4 [64]
000000 d9 6c fb 3d 82 1f ac 3d 89 2a 01 3e 5f 7e e6 3e
       0.122766204 0.08404447 0.12613882 0.45018288
000010 dc d0 c0 3e 7c ec e5 bd c5 9e 33 be f3 c1 db bd
       0.37659347 -0.112267464 -0.17541035 -0.10730352
000020 43 42 ba bc 81 79 3d be ed 86 18 be dd 70 94 be
       -0.022736674 -0.18503381 -0.1489522 -0.28992358
000030 88 22 21 be 80 ac ce bd 72 07 89 bd 1a e6 6f be
       -0.15735829 -0.100914955 -0.06690873 -0.2342762
000040 6c 8b 86 bd 49 20 19 3f cc ba 0c 3d ad a3 34 be
       -0.06569561 0.5981489 0.03435783 -0.17640562
000050 7a ad ea bd 95 0a 34 be 52 9d 97 3d af 02 a9 be
       -0.11458869 -0.17582162 0.07403053 -0.3300986
000060 ee 89 bd bc 9d 9d e0 bd 40 4d 93 3e 86 7e 3c bd
       -0.023137059 -0.10967562 0.28769875 -0.0460191
000070 30 0a 0a be d5 04 30 be 5c 6f 14 be 64 9b e4 bd
       -0.13480449 -0.17189343 -0.14495605 -0.11162451
000080 61 d9 05 be ad 3b f4 bd 71 c4 19 3e 28 22 b0 bd
       -0.13071205 -0.11925445 0.15016343 -0.08600265
000090 b5 aa c6 bd 45 2e 10 bd a4 79 25 be 61 19 55 be
       -0.097005285 -0.035200376 -0.16159683 -0.20810463
0000a0 3f 74 5c 3e 24 0d 05 3e 44 a7 c8 bd 2a ab 01 be
       0.2152872 0.12993294 -0.097975284 -0.1266295
0000b0 cd 65 14 bd 18 e4 b2 bd ae 24 d4 bc c3 c6 b5 ba
       -0.036229897 -0.08734912 -0.025896396 -0.001386844
0000c0 c9 38 f7 bd fe 5d 86 bd 8b 4d d9 3e 47 a3 26 3e
       -0.12071378 -0.06560896 0.42441973 0.16273223
0000d0 98 bf 37 3e 33 63 9e bd e7 b1 82 bd 6d 4c 28 be
       0.17944181 -0.077337645 -0.063815884 -0.16435404
0000e0 fa c4 c2 bb d2 0f d8 bc 7a d1 c1 bc c2 56 08 bd
       -0.0059438916 -0.026374731 -0.023659457 -0.033285864
0000f0 a8 74 77 be 30 26 0a 3f 23 02 0d 3f 32 c6 54 be
       -0.24165595 0.5396452 0.55081385 -0.2077873

fc4.weight f4 [1, 64]
000000 39 56 9c bc b8 b9 53 3d c0 9a 73 3e 5f c5 e2 bd
       -0.019084083 0.051690787 0.23789501 -0.11072802
000010 40 39 e6 bd 9f 8b ac 3b fe 05 a0 3c 23 ee 28 3b
       -0.11241388 0.0052656676 0.019534107 0.0025776706
000020 1d ed 10 bc b8 a7 00 3a 68 85 e4 3c 22 06 0d 3d
       -0.008845595 0.00049078045 0.027895644 0.034429677
000030 2f 0a 1e 3d c7 bf 02 3c b8 0e c8 3c a8 56 7d bc
       0.03858393 0.007980294 0.024421081 -0.015462555
000040 0e 92 00 bd d9 74 19 be e6 cf 14 3c f2 9e b2 3b
       -0.03138929 -0.1498598 0.00908277 0.0054510767
000050 13 9c 43 3d 6d 30 8e 3c 53 0a 82 3d 0f 3c a4 3b
       0.047756266 0.017357076 0.063496254 0.0050120424
000060 28 43 7e bc 8f a5 fb 3b 76 f9 c6 bd 05 75 c8 bd
       -0.015518941 0.007679648 -0.0971555 -0.09787945
000070 b3 d9 a9 3b d6 51 86 3d 32 69 e1 bb d0 05 11 3c
       0.0051834225 0.06558578 -0.0068789953 0.008851483
000080 a4 93 a6 3d 38 6a 89 3c 43 2d 3b 3b f2 f6 c6 bb
       0.08133629 0.016774282 0.0028560914 -0.0060719186
000090 3e 10 fc 3c 80 29 bf 3b 77 65 99 3b d4 47 bb 3d
       0.030769464 0.0058338046 0.004681285 0.091445595
0000a0 69 2d 26 bd e9 4c 0b bd 00 45 37 3d fd 5f 16 bc
       -0.04057065 -0.034008894 0.044743538 -0.009178159
0000b0 32 0f 8d bb d5 a2 86 3b 1a bd 83 3c 63 ab b0 bb
       -0.00430479 0.0041087666 0.016081382 -0.0053915246
0000c0 dc 18 b7 3c 70 f4 ac 3d 75 b9 a3 bd 47 26 20 bd
       0.022350721 0.0844506 -0.079943575 -0.039099004
0000d0 93 9d 73 3c a2 da e8 3c ee 02 52 bd d2 f4 84 3c
       0.014869112 0.028424565 -0.051272325 0.01623002
0000e0 ac db 4c 3d 36 99 1d 3d 70 7b 50 bc 77 4b 09 bd
       0.050014183 0.03847619 -0.012724742 -0.033519235
0000f0 43 39 18 3d 40 d7 bb bd f7 a1 df bd 29 da af bc
       0.037163984 -0.09171915 -0.10919564 -0.021466332
