models/py_SimpleFeedForwardNN_mdl_16-64-16_12_epochs_0-00100_lr_16_batch_202310261811.pth (torch, 14612 bytes, 7 tensors)

fc1.weight f4 [16, 18]
00000000: 3a9b 86bd a47e 58be 7ad7 d8bd 596d 09be
00000010: b430 453d 494b 563e d5bf ecbd 3f5e 1a3e
00000020: 571d 3b3e 5e1f c03d 33be 58be 9001 84bc
00000030: d8f6 0dbe bebf cd3d 4b44 5abe db4d 70be
00000040: 0a33 8abd df90 5e3e 8ff7 503e 4db6 503c
00000050: 1000 c73d df7a afbd 071f eebd 5bf3 18be
00000060: 4aec 6bbe abb3 60bf c006 3cbf a7a8 8bbe
00000070: 0f22 dc3e e5f7 1fbe 9731 993f a8eb a73f
00000080: 85ff d83f 59e5 bd3d 394c 8fbd b5fc 24be
00000090: 0f72 3abe 645d dd3c 8553 28be a15b 2d3e
000000a0: ab66 0e3d 29c1 19be 8f1e 7dbd d960 9c3f
000000b0: 0ae4 043f 48e3 283f 13a4 70be 38b7 9b3e
000000c0: 0cc6 4dbf 0d7c 94bf 8761 afbf 45ee 123e
000000d0: 71d1 0a3e 4b27 a03d 489a 08bf 6ba0 36bb
000000e0: b9ae 223e 0e11 d3bc df7e fa3c 6fcd e53c
000000f0: c8c8 d13e bc7e 033e b33b b43e b3e3 ebbe
00000100: caff 0cbf c280 eebd c877 2fbf 05b7 edbf
00000110: 29d0 c4bf 78dc a6be 5831 d73e c008 e83c
00000120: 3a5f 13bf 885a 973d c97c 1b3e 5492 04be
00000130: 4196 923d ff69 6c3e b04b f53e b637 563f
00000140: 5432 b33e 171d 4abe 83fa 3ebf 1f58 d9bc
00000150: e470 96bf 003b 6cbf f427 13c0 cb48 bcbe
00000160: 0f3b b83e bd58 c63e 1ab7 bcbe 12a9 8339
00000170: 6c91 cabc 5124 89be b179 733e a103 6fbd
00000180: 17e0 eb3c 56c8 4fbf 5151 f6be ee6e b1bc
00000190: bac8 e23e 9f3f 843d d4a5 7d3f 0e48 b43f
000001a0: 7e5d 1740 05a9 cc3d 7152 68be c675 bdbe
000001b0: f404 8abd 5940 ebbd fc20 4d3e ec38 8fbd
000001c0: 35dd 80bd a106 88bd e0e3 753e 0ecb cfbe
000001d0: bc90 2a3d 704d acbe 0590 19bf d9d1 c73d
000001e0: 2b47 ecbe b75c c1bf 2812 cdbf 9605 6a3d
000001f0: c7e2 733e 31d3 10be acf9 cf3e ea1c 383d
00000200: 6124 00bf 1f81 173c bdf7 ad3d b301 ebbd
00000210: fa7e ccbd c481 c13f 0e14 593f 6a9d 973f
00000220: db0d c53d 97b2 013f abb1 1bbf 30b4 a1bf
00000230: 6427 adbf 6999 d63e 14b5 f0bc aeea 3c3c
00000240: bb2d 843e 520c a5bc 2a45 79bb c7a1 a43e
00000250: d79e 27be 23db edbd 214f 28be 4e0c 14bf
00000260: edbf bebe ef2f cdbe cc40 afbd 72e8 9cbe
00000270: e5aa b33e 8f2e 953f c1eb 093f 6bd9 11bd
00000280: 891d 15be 22cf 95bd 8c48 8f3e 250b f2bb
00000290: 2a10 f5bb a9ec e43d 5348 32bd 3600 0abe
000002a0: 389a cdbe b0e0 94bf ac49 22bf 9968 89be
000002b0: 1c1a 013f 6d19 3ebe d2ca 923f 121e cc3f
000002c0: 17f8 cf3f 06c6 933e 8348 c03b 4631 aabe
000002d0: 4606 27be 0b88 033d 65c7 c83d c6d5 4d3e
000002e0: 67f6 25be e770 3d3e 7353 93bd 052f b9bf
000002f0: ea62 16bf 4e5d 12bf 7652 983e 70c0 b9be
00000300: a7df 9d3f 4b90 c73f 8cff d63f cf37 43be
00000310: dbdc 5cbe 8506 563e ac0e a63d 9975 25bf
00000320: 28c6 03bd fc6d 3cbd 7af8 103e 2d08 d63d
00000330: 0bcc e73d a703 8d3e c154 03bf 769a debc
00000340: ca94 bd3e 93b8 c23c 2ac9 ce3d b44d 2b3f
00000350: 261c 7a3d 911b 17be 7dc9 81bd f9d3 aabd
00000360: 0f2b a83d c3d8 013d 58f1 093e 4bcb 39be
00000370: 32ef 0b3c 6c91 14be a99b 89be 574f 63bf
00000380: 99f3 2abf ef12 c3be 7ca6 043f 11c4 9ebe
00000390: f57c 953f a7ba b03f f67e e93f 5e16 52bd
000003a0: 0131 00be 67ff c4be 7b5c f3bd 48b6 403d
000003b0: cddc e5bd f2c8 1f3e 3051 63bd 71ed 623e
000003c0: 6ec2 21be 1f5a 6fbf 6572 0cbf ece4 95bf
000003d0: 6f0f 45bd 1471 e4be fabb 4a3f ebd1 9d3f
000003e0: f32c 6f3f ddef 983d 5005 1a3e 6079 1e3d
000003f0: 7772 acbd dc4d bbbd 9f6a 88be dc4c 05bf
-0.06572576 -0.2114206 -0.10587974 -0.13420619 0.04814215 0.20927157 -0.115600266 0.15075015
0.18272911 0.09380983 -0.21166305 -0.016114026 -0.13863695 0.100463375 -0.21315114 -0.234672
-0.06748016 0.21734951 0.20406936 0.012738776 0.09716809 -0.08568358 -0.11627012 -0.14936583
-0.23039356 -0.8777415 -0.734478 -0.2727711 0.42994735 -0.15621908 1.1968259 1.3118792
1.6952978 0.0927226 -0.0699696 -0.16112025 -0.18207572 0.027022071 -0.1643811 0.16929485
0.03476588 -0.15015091 -0.06179672 1.2217056 0.5191046 0.65971804 -0.2350009 0.30413222
-0.8038032 -1.1600357 -1.3701638 0.14348705 0.13556458 0.078199945 -0.53360415 -0.0027866613
0.15886964 -0.025764968 0.030578075 0.02805206 0.40973496 0.12841314 0.35201797 -0.46072158
-0.55077803 -0.11645652 -0.68542147 -1.8571478 -1.5376025 -0.3259008 0.42029834 0.028324485
-0.5756718 0.07390314 0.1518432 -0.12946445 0.07157565 0.2308731 0.47909307 0.8367876
0.34999335 -0.1973766 -0.74601 -0.026531277 -1.1753201 -0.92277527 -2.2993135 -0.36774287
0.35982558 0.38739577 -0.36858445 0.00025112234 -0.024727546 -0.2678552 0.2377689 -0.05835307
0.028793378 -0.81165063 -0.48108914 -0.02165934 0.44293767 0.06457447 0.9908116 1.4084489
2.3650813 0.099931754 -0.22687699 -0.37003917 -0.06739226 -0.11486883 0.20032114 -0.06993279
-0.06292192 -0.06641889 0.24012709 -0.40584606 0.041641936 -0.3365283 -0.5998538 0.09756822
-0.46148047 -1.5106419 -1.6021166 0.057134233 0.23816977 -0.14143063 0.40620172 0.04494945
-0.5005551 0.009247093 0.08494518 -0.114749335 -0.09985156 1.5117726 0.84796226 1.1844914
0.09621783 0.5066313 -0.60817975 -1.2633114 -1.3527646 0.41913918 -0.02938322 0.011530561
0.2581614 -0.020147476 -0.003803561 0.32154676 -0.16369186 -0.11614063 -0.16436435 -0.57831275
-0.37255803 -0.40075633 -0.08557281 -0.30646092 0.3509132 1.1654834 0.53875357 -0.035607737
-0.14562048 -0.07314898 0.27985036 -0.0073865824 -0.0074787335 0.11177952 -0.043526005 -0.13476643
-0.40156722 -1.1631069 -0.63393664 -0.26837614 0.50430465 -0.18564387 1.1468146 1.5946677
1.6247586 0.28862017 0.005868019 -0.33240718 -0.16310987 0.032112163 0.098036565 0.2010108
-0.16207276 0.185001 -0.07193651 -1.4467474 -0.5874468 -0.5717362 0.29750413 -0.3627963
1.2333878 1.559091 1.6796737 -0.19064258 -0.21568625 0.20900925 0.08108267 -0.64632565
-0.0321714 -0.046003327 0.14157286 0.10450778 0.11318215 0.2754185 -0.513012 -0.027173262
0.3702758 0.023769652 0.10096963 0.6691544 0.061062 -0.1475661 -0.06337259 -0.08341212
0.08211338 0.03170086 0.13470972 -0.18143956 0.008540915 -0.14508599 -0.26876572 -0.8879294
-0.6677795 -0.38100383 0.51816535 -0.31008962 1.1678759 1.3806962 1.824187 -0.051290862
-0.12518694 -0.38476107 -0.118828736 0.047048837 -0.11223755 0.15603998 -0.05549735 0.22160889
-0.15796825 -0.9349689 -0.5486205 -1.1710486 -0.04811042 -0.44617522 0.7919308 1.2329687
0.9342796 0.07467625 0.15041089 0.03868997 -0.0842027 -0.0914571 -0.26643845 -0.52070403

fc1.bias f4 [16]
00000000: f47e 4fbe 8e7e b23d bbaf a6bd f649 fbbe
00000010: b57c 88be 96c4 283c f046 92bd 1ec3 f33d
00000020: 972a aabc d80d 023e 3499 cebd 6453 42be
00000030: 245b 813e a90d 413e da85 433e edee 2d3c
-0.20263273 0.08715545 -0.08138987 -0.49079865 -0.26657644 0.010300776 -0.071424365 0.1190245
-0.020772262 0.12700593 -0.10087815 -0.18977123 0.25264847 0.18852867 0.19094029 0.010616046

fc2.weight f4 [64, 16]
00000000: aedb 42be 25d2 abba 8337 a1be c58d 65be
00000010: 5541 68be 5744 a13e ff6a 03be 55ab b8be
00000020: 2883 39bd 55f7 a9bd 46cb 183e 50bb 703e
00000030: 1206 c93d 6b22 acbe 5d18 a4be 73cd 4d3d
00000040: 5aa4 213e d812 55be f335 d73d 227f 92be
00000050: 94f3 32bc 85d8 bd3b b1da d43d d47d 95bd
00000060: 0ae7 81be d5fb d0bd b25d c63d cdd7 e1bd
00000070: 4a51 89be 5690 debd da12 893d 8239 dbbc
00000080: 4e40 3ebe baac 7d3d 69ae a5bd eb50 8e3c
00000090: 2f6a bc3d 46df b63d e257 2d3d 84fc 0a3e
000000a0: 1093 7bbd e698 263e f09a 50be e88e 22be
000000b0: 620f eebd 3503 193e c364 e83e ff3c f13c
000000c0: 58c9 1d3e 882c 873b 9f55 1c3d f1a7 88bd
000000d0: 97e1 6abd a2c5 91be f394 1abe 7904 8fbe
000000e0: be7a b53d 2dd5 233e dc24 363e bd1e ca3d
000000f0: 81d8 3bbe 1164 603e 7d8e a73c 5eb1 903c
00000100: a453 43be 110d 1dbe 7af7 44bd 87d3 2d3e
00000110: 9317 0d3e a2ed 2ebe 195b 583e 9362 abbe
00000120: cbbb ba3e 7df5 70be 0f8c 99bd 444a 753e
00000130: 3788 91be 8a7d 403e 10f2 a73c acbe 3e3e
00000140: d0bb 583d 2b12 09be 1275 423d 9316 2f3e
00000150: 6f95 41bd 5693 af3e 97dd 333e c7b7 643d
00000160: 00d6 523a b98e f63c 4833 b1be afa6 cd3d
00000170: dc56 98be 2d9e 4b3e a81e 8fbc 7fa7 55be
00000180: b8e4 0f3e 9476 d1bd 8033 a7bb de4a 203e
00000190: f05a f03c 00eb a33a 005b ee3a 6826 28bd
000001a0: 80f5 163d 386d 19be 9895 57be ac7f 923d
000001b0: fead 7cbe 8aee 25be 329c 2a3e 38a0 28be
000001c0: 7485 09be e380 d6bd fccc 40bd 0f79 0a3e
000001d0: 5a96 3f3c 0570 103e f170 c5be dec4 cdbe
000001e0: c674 59be 72e7 3c3e 75f0 11be 1fe4 c43d
000001f0: 5c35 34be e451 02be 522c 93be 5003 d9bd
00000200: 9076 3a3e 0ec5 cb3d be01 e53d f73e c7bc
00000210: ba6c 213e 4c29 21be 2c9b 65be fa70 3fbe
00000220: 33fe 01be 8d98 71bd be84 5abe 68dc 14bd
00000230: dc18 72be c309 45be aa5e 003e dbde c3bc
00000240: 10a7 edbc db1e 3fbe bc30 93be 6bf1 8dbe
00000250: fab9 a5be 28ad 703e be20 eebd c507 83be
00000260: 92e8 123d 2ea1 aa3e 26d3 123e 23b8 a23e
00000270: 25c8 0e3e d1bd 46be b6b0 04bf e47f 293e
00000280: 3a4f 08be 2c8f 5e3d 7af3 15be d8c1 36be
00000290: 50eb 06be 34f5 52be b9ba 4cbb 46d4 813e
000002a0: bf0e 6abd 47e9 1dbe cbe2 e8bd 9a76 fdbd
000002b0: 253b df3c 2ac2 653e 19ca d0bd 5f43 a7bd
000002c0: cc1c eabd bcf4 ff3d adc3 04be f72e 503d
000002d0: d148 833b b13c 1c3d 2f4e 1dbe df5d b6bd
000002e0: 6832 443e 681b 89bd 50dd 48be 9062 13be
000002f0: 9a2d 10be 046d f43d 88cf 293e 414b 20bd
00000300: ec83 e03d 89e7 b6bc 30d0 c3bd d40d 8cbe
00000310: 7a9d 04bc a957 7dbe 8da9 ba3d f790 3abc
00000320: cae8 a1bd 367e 9abe 4493 ca3d f2fc 7abe
00000330: f0be 36bd 85d1 ebbd 92f3 29be 2e01 0cbe
00000340: 1075 44bd c9a4 38be dc75 1dbd 613c 2a3d
00000350: bbce 203e ca91 d0be 956e 44bd 2da6 253e
00000360: 36d7 ea3d 132d 3bbe a63d c03c 56e8 223d
00000370: 98e1 54be b84d c6bc 1a1d 5d3e 9e4e 43be
00000380: 3ca7 f83d e5b8 d5bd b85c ba3d 1801 4bbd
00000390: 2735 afbd 2d18 263e 6a30 afbe 426d 41bc
000003a0: 1386 cdbe 08f2 61bd 5828 38bd 94b1 b3bb
000003b0: 597b 54be e2a4 8bbe f6a0 633e 5f61 e63d
000003c0: 2a46 4ebe f538 82be 04ea 23be 3c1c 1c3e
000003d0: a02d 363e 37d3 143e 13d1 33be 29eb 6fbe
000003e0: f12a aebc 52a2 023e 1094 80be 6b0c b73e
000003f0: 0b58 c73d 2a70 53be 9407 d0be 793e aa3d
-0.19029114 -0.0013108893 -0.31487665 -0.22417362 -0.22681172 0.31497452 -0.12833785 -0.36068216
-0.045291096 -0.08299128 0.14921293 0.23508954 0.09815611 -0.3362001 -0.32049838 0.05024476
0.15785351 -0.2080797 0.10508337 -0.2861262 -0.010922331 0.0057936334 0.103932746 -0.072993904
-0.2537158 -0.10204283 0.0968584 -0.11027489 -0.2681983 -0.10867374 0.06693049 -0.02676082
-0.18579218 0.061932303 -0.08089907 0.01737257 0.091999404 0.08929305 0.04232014 0.1357289
-0.061419547 0.16269264 -0.20371604 -0.15874827 -0.11624028 0.1494263 0.45389375 0.02944803
0.15408838 0.0041251816 0.038167592 -0.06672657 -0.057344045 -0.28471094 -0.15095882 -0.279331
0.08861302 0.15999289 0.17787498 0.09869144 -0.18344308 0.21913172 0.020453686 0.0176627
-0.19074875 -0.15337016 -0.048087575 0.16975223 0.13778524 -0.17082837 0.21128501 -0.33473644
0.364714 -0.23531146 -0.07497417 0.23954111 -0.28424236 0.1879789 0.020501167 0.18627423
0.052913487 -0.13385837 0.04747493 0.17098455 -0.04726165 0.34292096 0.17564999 0.055839326
0.0008042753 0.030097352 -0.34609437 0.10041558 -0.29753768 0.19884558 -0.017470673 -0.20864676
0.14052093 -0.10227695 -0.005102575 0.1565356 0.029340237 0.0012505949 0.0018185079 -0.041052252
0.03685522 -0.1498307 -0.21053159 0.07153258 -0.24675748 -0.16204277 0.16661146 -0.16467369
-0.13429815 -0.10473802 -0.04707049 0.13522743 0.011693561 0.14105232 -0.3856273 -0.4018926
-0.21235952 0.18447664 -0.14251883 0.09613823 -0.1759848 -0.12726551 -0.2874475 -0.10596335
0.1820929 0.099496946 0.11181973 -0.024322016 0.15764132 -0.1573841 -0.22422475 -0.18695441
-0.12694626 -0.058983374 -0.213397 -0.03634301 -0.23642296 -0.19242005 0.12536111 -0.023909977
-0.029010326 -0.18664114 -0.2874812 -0.2772325 -0.3236845 0.23503554 -0.11627339 -0.25591865
0.035866328 0.33326095 0.14338359 0.3178111 0.13943537 -0.19408347 -0.5183214 0.16552693
-0.13311473 0.054335758 -0.1464366 -0.17847383 -0.13175702 -0.2060135 -0.0031239225 0.25357264
-0.05714297 -0.1542102 -0.11371382 -0.12376137 0.027249882 0.22437349 -0.10194797 -0.08167147
-0.11431274 0.12497851 -0.1296527 0.05082604 0.004006483 0.038143817 -0.15361856 -0.08904623
0.19159853 -0.066946805 -0.19615674 -0.14393067 -0.14079896 0.119348556 0.16583073 -0.039134268
0.10962662 -0.022327201 -0.09561193 -0.273543 -0.008094186 -0.24740471 0.091143705 -0.011387101
-0.07905729 -0.30174416 0.0989137 -0.24510553 -0.044615686 -0.11514572 -0.16596821 -0.13672325
-0.047963202 -0.1803161 -0.038442478 0.041561488 0.15703861 -0.40736228 -0.04795702 0.16176672
0.114668295 -0.18278913 0.023466896 0.039772354 -0.20789182 -0.024206981 0.21593133 -0.19072959
0.121412724 -0.104356565 0.09099716 -0.04956159 -0.0855506 0.1622016 -0.34216624 -0.011805834
-0.40141353 -0.05516246 -0.04496035 -0.0054838154 -0.20750178 -0.27274233 0.2222937 0.11249041
-0.20143953 -0.2543408 -0.16007239 0.15245146 0.17790842 0.14533697 -0.17560224 -0.2342955
-0.02126071 0.12757233 -0.25112963 0.35751662 0.0973359 -0.20648256 -0.40630782 0.08312697

fc2.bias f4 [64]
00000000: 9628 2fbe 3edc e33d b072 f0bc 50ba 543d
00000010: 584d 3ebe 459b 58be 5ce4 89bd 60f0 c2bd
00000020: 7b3d b73d 1377 d13e fcbc 123e bcb0 adbd
00000030: edf8 52ba eb80 f3be 0f9d 44be 4330 07bd
00000040: 469c 61be 8ea7 893d 7501 8fbd 2791 7b3e
00000050: bd65 133f 6427 2a3e d179 b63e afcd 843e
00000060: dc16 7c3c e5ce e5bc b8f9 353d 7cad d13b
00000070: afd6 363e 1503 5abe 9d31 963d ef2c 5cbe
00000080: 2f93 bf3d 73a3 233e 8809 493e 789e c0be
00000090: 3bc7 9abe d12f 363e 1dce 46be ed43 943d
000000a0: 9375 393e dbdd e33c 5927 593e 90fc 12bf
000000b0: 1049 a53d 0af1 cf3e 3e15 83be 3e8d 7dbe
000000c0: 5d76 843e 4b35 9b3d 49e9 f43e 2ae3 93be
000000d0: 43fa c53c 20c0 d1be 22ba c23e 34ea 90be
000000e0: 4d65 2c3c 403e 703e 1b52 2bbc ccd8 23bc
000000f0: 6f89 2d3e 7a81 763e 6a4b ccbe b38e d0bd
-0.17105326 0.11125992 -0.029351562 0.051935494 -0.18584192 -0.2115298 -0.06733009 -0.09518504
0.08947273 0.4091116 0.14329904 -0.08480975 -0.0008047957 -0.47559294 -0.19200538 -0.03300501
-0.2203227 0.06721412 -0.069827 0.2456709 0.57577115 0.16616589 0.35639814 0.25938174
0.0153863095 -0.028052757 0.044427603 0.006398855 0.17855333 -0.21290238 0.07333682 -0.21501516
0.09354245 0.1598032 0.19632542 -0.37620902 -0.30230126 0.17791678 -0.19414563 0.07239518
0.18111257 0.02781575 0.21206416 -0.5741663 0.08070576 0.40613586 -0.25602144 -0.24760911
0.25871554 0.07578524 0.47834232 -0.2888425 0.024167186 -0.40966892 0.38032633 -0.28303683
0.010522199 0.23461246 -0.010456587 -0.010000419 0.16946958 0.24072829 -0.39901286 -0.10183468

fc3.weight f4 [16, 64]
00000000: e1c1 6dbd 2812 a7bc 17e6 02be 6a7f 8dbd
00000010: ac6e 04bd cda4 7dbd a052 1cbc b754 833d
00000020: caaf 7dbc 3a09 bdbc 546d 1d3d ad51 9538
00000030: 48a8 73bd 02ee 08be 24e7 d43d f027 703d
00000040: e1ee 23be 96de abbd beef 8bbd f6c8 b3bd
00000050: 361e 03bd e000 8a3d 5d47 fbbc da4b 35be
00000060: 97b9 5b3c f491 263c 57be 513d 1360 09be
00000070: b3d5 803c d893 1e3c d0cd d8bd 4636 60bc
00000080: 02e8 e3bc 765a dbbd 522b 003e fcdf 813d
00000090: e1da 0b3d d318 403d 99f1 1a3e 2b5c 91bd
000000a0: b8d4 643d 578c ca3d a040 823b fe6d 1ebe
000000b0: 6255 2dbd cb8b 56bd e8cf 8b3d 9082 dabd
000000c0: fdce 5c3d adc1 2ebd c473 bcbd c049 bd3d
000000d0: 2b02 b8bd 1fa5 d53d bedd 21bd cbc9 013d
000000e0: ece8 e53d 12de 453d a937 033d 0643 023e
000000f0: b940 81bc f7fe 80bd 27e2 b0bd 5792 c0bd
00000100: cd67 f6bd 01b8 70bd 9b35 50be 5687 0cbd
00000110: 1731 883d 41bd 40bd 2887 62bd 2f86 ffbd
00000120: e00d febd 1c75 50be f054 f73a 58b6 fd3d
00000130: 3a83 bf3c 9355 78bd 6064 04be c196 fdbd
00000140: 5879 8bbe c652 053d 5f90 3a3d fd39 e9bd
00000150: b53d 0e3e 83b2 65be 15cb 2bbe 7800 0ebb
00000160: 20e0 7b3c fd07 14bd f180 e1bd 4478 4fbe
00000170: 177c ca3c 2cab f43d fa21 d93d 84e0 7b3d
00000180: c851 2fbe 905b 483d bf7c 92bd 1cf7 c9bd
00000190: 69cb cfbd 333a d0bc 6bb4 4c3e 37da 403c
000001a0: ade8 1e3d 190b 68be 542e a7bd f9bd debd
000001b0: 46b9 083e 1df6 873c d322 f3bc d32b c03c
000001c0: 91df 453d d189 b8bd 838e b6bc cff9 a1bc
000001d0: f52a 5b3b c9dd 62bd fc0f d93d f6e6 e43b
000001e0: 73c2 f9bc 7454 43bd e8d6 efbc 0350 3dbe
000001f0: 2001 f8bc c5ee d53c e445 213d c09e 383d
00000200: 965a 9b3d c1e2 f6bc cf92 6a3d 0293 d3bd
00000210: c2b5 17bd bce2 f63d 20fd 9e3b 2609 b7bd
00000220: a0f4 743d 6af7 c8bc ba5a f2bd 206a e33c
00000230: 94bd cebd c362 96bd ecff f8bd 3428 c73d
00000240: 5844 a13d 4141 02be be6a 8cbd f9da ae3d
00000250: 22e4 e7bd 37bc 853c 2613 70bd a8ce 7fbd
00000260: 743a d0bd e061 713d def1 ec3d 1dc9 84bd
00000270: 66c0 fa3d 6ca9 8a3d 4a3a fe3d ec8a c0bd
00000280: 7fac 82bd 8ecd eebd 74f6 743d e405 8dbd
00000290: 98ba 90bc c195 9d3d a44b 4c3d 2898 3e3d
000002a0: acee 523d fa15 febd 88ae d63d 636d 263d
000002b0: a81e babd 00f6 34bd de6b ce3d 7543 903d
000002c0: 60cc 78bd 69e5 efbd e008 a4bd fefe babd
000002d0: 12a3 dfbd 4133 9a3d b439 1ebd 0051 d03d
000002e0: d69b 00be 6c23 f8bc 00a4 743a 6a5c f6bd
000002f0: 100c 1abe 80af 5b3c 5e45 e1bd b85d ffbd
00000300: c0fe f439 a931 b03d e2d3 b7bd 3ff5 023c
00000310: 3880 9d3d 232b bebd 58e5 453d 9992 84bd
00000320: 6c01 593d 77d7 9dbd aafc b9bd 4e6b 9b3d
00000330: f6af dfbb 10c3 94bd aba5 b8bd 8996 1d3d
00000340: def4 a7bc 7915 28bd e78a 7cbe f4f2 07be
00000350: 5fac 85bc 4150 753d 0197 5c3d 9a81 3abe
00000360: 2eaa 61bd 0fc8 653d b3cd 38bd 9e95 a9bc
00000370: f165 053d aa9d d53d 0865 c3bd 8564 af3c
00000380: 6f8a 99bd 206e cb3b 87ef ca3d 70ce 6a3d
00000390: a7ae 293c 70b3 1cbd 94f0 f6bd 86b1 01bd
000003a0: f82d d03c 3c4f e5bb 094d 20be 32a5 8d3b
000003b0: 66bc 56bd 8594 e8bc 00e8 e0bc 6c06 8d3d
000003c0: 8e0e 8abd c6ec 053d c1d8 55be a292 543d
000003d0: 7e5c 143b eef0 9f3c 9fbc b43d f064 36bd
000003e0: 18f2 c13d c778 ba3c edb8 b8be 3cb5 d3bd
000003f0: 431c ab3c e73c d9bd 4770 383d c4d8 473c
-0.058046225 -0.0203944 -0.12783085 -0.06909068 -0.032332107 -0.061924744 -0.009541184 0.064126424
-0.015483806 -0.023075689 0.03843434 7.120087e-05 -0.059486657 -0.13372043 0.10395649 0.058631837
-0.16009094 -0.08392064 -0.068328366 -0.08778565 -0.032011233 0.06738448 -0.030673677 -0.17704716
0.013410947 0.010166634 0.051206913 -0.13415556 0.0157269 0.009678803 -0.105861306 -0.013684815
-0.02782059 -0.107106134 0.12516525 0.0634155 0.034144286 0.046898674 0.15131225 -0.07097658
0.055866927 0.09890049 0.003974989 -0.15471646 -0.042317756 -0.05237941 0.06826764 -0.10669434
0.053908337 -0.042665172 -0.09201768 0.09242582 -0.089847885 0.10431885 -0.03951811 0.031686585
0.11226067 0.048307486 0.032035504 0.1272088 -0.015777932 -0.06298631 -0.08636885 -0.09402912
-0.12031517 -0.05876923 -0.20332949 -0.034308754 0.06649988 -0.047055487 -0.055304676 -0.12476765
-0.1240499 -0.20357174 0.0018869918 0.12388295 0.023378003 -0.060628485 -0.12928915 -0.1238227
-0.27241015 0.032549642 0.04554784 -0.113880135 0.13890727 -0.22431378 -0.16776688 -0.002166776
0.01537326 -0.03614043 -0.11010922 -0.20260721 0.024717374 0.11946711 0.10602184 0.06149341
-0.17121041 0.048915446 -0.071527 -0.098615855 -0.10146219 -0.025418377 0.19990699 0.0117707765
0.038796116 -0.22660483 -0.08163133 -0.10876078 0.13351926 0.016596848 -0.029679691 0.023458397
0.048308913 -0.090106614 -0.022284752 -0.019772438 0.0033442352 -0.055387292 0.10598752 0.0069855405
-0.030488228 -0.047687963 -0.02927728 -0.18487553 -0.030273974 0.02611483 0.039373294 0.04507327
0.07585637 -0.030137422 0.057268914 -0.10330774 -0.037038572 0.12054965 0.004851952 -0.08937292
0.059803605 -0.024532039 -0.11833711 0.027760565 -0.10094753 -0.07343056 -0.12158188 0.09724465
0.07874364 -0.12720205 -0.06856297 0.085378595 -0.1132281 0.0163251 -0.05861201 -0.062452942
-0.10167399 0.05893123 0.1156957 -0.06483672 0.12243728 0.06770596 0.124134615 -0.09401497
-0.06380557 -0.116603 0.05980535 -0.06885889 -0.0176671 0.07694579 0.049876824 0.046531826
0.051497146 -0.124065354 0.10482508 0.040631663 -0.090878785 -0.044179916 0.10079168 0.070441164
-0.060741782 -0.117136784 -0.08009505 -0.09130667 -0.10919775 0.07529307 -0.03862925 0.101716995
-0.12559447 -0.030290328 0.0009332299 -0.12029345 -0.15043664 0.013408542 -0.10999559 -0.12469047
0.0004672911 0.08603222 -0.0897596 0.007993042 0.076904714 -0.092855714 0.048314422 -0.06473274
0.05297987 -0.07707112 -0.09081395 0.07588826 -0.006826396 -0.07263768 -0.09015974 0.03847364
-0.020502504 -0.041036103 -0.24662362 -0.13276273 -0.016317545 0.05989099 0.053854946 -0.18213502
-0.055093937 0.056098994 -0.045118045 -0.020701226 0.032567922 0.10430463 -0.095407546 0.021410236
-0.07497107 0.0062081963 0.099089675 0.05732578 0.010356582 -0.038257062 -0.120576054 -0.03166344
0.025412545 -0.006997971 -0.15654387 0.0043226713 -0.052425765 -0.028391132 -0.027454376 0.068859905
-0.06741057 0.032696508 -0.20883466 0.051897652 0.0022638137 0.019524064 0.08825039 -0.044529855
0.09470004 0.02276267 -0.36078587 -0.10337302 0.0208875 -0.10607319 0.04502895 0.012197677

fc3.bias f4 [16]
00000000: 8b3e 93bc 9f2f e9bd 9584 a2bd dad2 43be
00000010: cee6 1dbc 16fe 50be 7653 fc3e 6f32 40be
00000020: b6c3 cbbd 3202 8ebd 24eb 13be 0dae fd3e
00000030: d890 fb3c a6dc a83d c61d 0c3d ad5d 533e
-0.017974159 -0.11386036 -0.07935444 -0.19123402 -0.009637548 -0.20409426 0.49282426 -0.18769239
-0.09949438 -0.069340125 -0.14445168 0.49546853 0.030708715 0.0824521 0.03420808 0.20641203

fc4.weight f4 [1, 16]
00000000: 12dc c13b dff3 8d3c c550 163e e6f2 dd3d
00000010: 0b46 62bc f98b 123e 8fd7 05be 5091 6a3c
00000020: 8070 93bc 4926 96bd 291f cfba fa4e f3bd
00000030: 5250 1abd 6a2f e63d 6809 e7bd edc2 acbd
0.005916127 0.0173282 0.14679249 0.10837345 -0.013810645 0.14311208 -0.1307051 0.014316872
-0.01799798 -0.07331521 -0.0015802133 -0.11880298 -0.037674256 0.11239512 -0.11281091 -0.08435617
