models/py_SimpleFeedForwardNN_mdl_64-64-16_12_epochs_0-00100_lr_16_batch_202310261800.pth (torch, 30548 bytes, 7 tensors)

fc1.weight f4 [64, 18]
00000000: a6e9 203d e80f 063b f504 363d 8112 a63b
00000010: 00db a1bc 93cd 94be 31db 81be 00c0 70bf
00000020: 3e5b 1cbf 0b81 f63c ef61 6f3e 8eed 85bd
00000030: 7b07 9f3f 1dec c53f 5357 df3f 6741 73bb
00000040: 3534 873d 47ef 64bd 062e c8be f8e1 04be
00000050: 4e79 1b3e dda1 063c 73bf b9bc 9ba4 e73d
00000060: 6925 03be b20d fdbe 14dc a83e d4ad 993b
00000070: 6e4b 9bbe 77be a13d 0ac2 9c3e 9879 9dbf
00000080: 66e4 ffbe 2710 06be 0112 793e 43be 953d
00000090: b8c6 8dbc 8fda eb3b 1c86 7cbe f5ff c73c
000000a0: 70ee 063d 6987 55bd 9f98 93be 1394 803f
000000b0: 7db7 373f c0b6 453f 470b cabc 9ac3 823e
000000c0: 6744 95be 2c17 90bf 4245 a4bf ffab dc3e
000000d0: 6089 25be 54b3 ecbd 37b0 3cbe 25c8 c5be
000000e0: 17b1 9dbc a945 a33c 8864 863d c6dd 093c
000000f0: da1b 0bbe 44ed a5be 3a02 ecbe 9bbf b93d
00000100: 7017 f43d 570e 60be c657 f23e e08e 8e3f
00000110: ed03 9d3e 8200 04bd 01d8 a33d 6c31 233e
00000120: eb99 7d3c 940e 0b3d 1a2a 1b3c ff65 75bd
00000130: e825 0bbe 7e0a afbe 4562 7dbe bcd3 a7bf
00000140: 4980 e4be e91e 1dbf a639 ea3e de9d acbd
00000150: f377 b93f 1cea c53f 8d56 ec3f 104e 83bd
00000160: 5bfa e3bc 6da0 3abe 2a1b 423d 9802 60bd
00000170: 0b2a 2bbc e198 b2be c811 29be 82d9 52be
00000180: ab35 d7be b32a 54bf 6a76 09bf b3e4 bfbd
00000190: 6b80 bb3e a7ff 80be 0052 6f3f 8188 3f3f
000001a0: f1c4 ec3f 248e 903d cb47 d4be b9b0 87be
000001b0: 657a 35be 5995 00be a082 57be 7bea 8a3d
000001c0: 8b97 cabd 0464 1bbe 32e6 46ba c359 e1bd
000001d0: d87a 42be cea5 64be 8626 9abd 1f3c 6c3d
000001e0: b042 37be f319 21be 3f3e 25bd ea1c aabb
000001f0: 3d99 15be 8eec 113e d04e 70be 4bf0 233c
00000200: 476c bdbe 31f2 4abe 954f dfbe 2a98 fb3e
00000210: 5bfb 603e 4726 0f3d 802f 32be c38f 9ebe
00000220: 113c 13be 18d6 11be ff3d 01be 90be 46be
00000230: 2aaf 97be 84fd 7dbe a5c3 293e 6ec7 e23e
00000240: 499f a6be 34e7 92ba 5430 f1bd 72e4 20be
00000250: 0e88 d7bd ef18 19be 0348 a6bd bcb5 7cbf
00000260: 4a00 a6be a3df 49bf a520 d5bd 74b3 fabd
00000270: ac95 3b3f 2f1a ee3e d929 b73e d108 94bd
00000280: dab1 4ebe a133 fcbd e380 d3bc 3596 37bf
00000290: d81e a93b 1eaa 62bc 53ee b83d dfc9 ca3d
000002a0: 8498 d63d c77b f63d 88d0 6abf ba83 a13e
000002b0: 52c2 473e 559d 023e ccb9 bb3d 2c91 6c3e
000002c0: b3e5 5e3e 085d 8f3e ba95 7d3c df88 be3d
000002d0: 0ded 163e 3843 c9bd b22e b2bd 4c5c 76bd
000002e0: 177a 37be ce62 843d 201e b5bb 6853 b53c
000002f0: b6ea 26be ea14 bd3d 7c9c 62bd 2bd3 083e
00000300: 00c5 1c3a 3a1c 0fbe 7b74 6f3e 0f90 083e
00000310: 0611 aabd ea16 873d f367 00bd d4f5 46be
00000320: b965 46be 3551 773d 23b7 95bd ec01 8e3c
00000330: 05e9 a2bd 1aab 94bd b549 233e 402d 2abe
00000340: d6ff 22be 899b 4abe 5da2 79be 78d6 51be
00000350: 2e91 eb3d f1ce 313e bad6 51bd 5886 4e3d
00000360: ee62 39bf e9cd ba3c af2e 243e 2dba d7bc
00000370: 7487 763e 160a b83e 199b 9b3e 68cf be3e
00000380: 02e1 653e f5ad edbe e664 5dbf fe7c e73d
00000390: 0a1a 6dbf e1a4 0ac0 cc4e d7bf 3f67 44be
000003a0: 3aa3 e93e d011 ce3e 01bc a0be 27c9 26be
000003b0: e788 1c3e c1ee a23d dc83 bf3d 1f0f 98be
000003c0: 3465 b4bd ef51 d7be 673b 28bd 3ba9 49be
000003d0: f958 c0be f533 173e 04b1 82be cfaa 82bf
000003e0: f414 87bf acc3 673e 59a6 8ebe 0c4d 95bd
000003f0: dde8 4abe 29c3 35bd 3465 29be b2b5 9ebe
0.039285325 0.0020456258 0.04443832 0.005068124 -0.019757748 -0.2906309 -0.25362542 -0.9404297
-0.61076725 0.03009083 0.23377202 -0.065394506 1.2424158 1.5462681 1.7448524 -0.003711784
0.066017546 -0.055892255 -0.39097613 -0.12976825 0.15182993 0.008217302 -0.022674298 0.11310693
-0.1280724 -0.4942451 0.32980406 0.0046899114 -0.30330986 0.078976564 0.3061679 -1.2302732
-0.49978942 -0.13092099 0.24323274 0.0731168 -0.01730667 0.007197685 -0.24660534 0.024414042
0.032942235 -0.05213109 -0.28827378 1.0045189 0.71764356 0.7723198 -0.02466358 0.25539857
-0.2915375 -1.1257071 -1.2833636 0.43099973 -0.16165686 -0.115576416 -0.18426596 -0.3862926
-0.019249482 0.019930677 0.065621436 0.008414691 -0.13584843 -0.32407582 -0.4609545 0.09069749
0.11918533 -0.2188047 0.4733259 1.1137352 0.30667058 -0.032227047 0.08000184 0.15936822
0.015478591 0.03394945 0.009470487 -0.059911724 -0.13588679 -0.34187692 -0.24744518 -1.3111491
-0.44629124 -0.6137529 0.45747107 -0.08428548 1.4489731 1.546207 1.8463913 -0.064113736
-0.02782934 -0.1822526 0.047389187 -0.054689974 -0.010447036 -0.34882262 -0.1651069 -0.20590785
-0.42033133 -0.82877654 -0.5369631 -0.09369793 0.36621413 -0.25195047 0.934845 0.74817663
1.8497602 0.07058361 -0.41461024 -0.26502016 -0.17722471 -0.12556972 -0.21045923 0.06783005
-0.09892186 -0.15174872 -0.00075874024 -0.11003449 -0.18992174 -0.22328874 -0.07526879 0.057674523
-0.17896533 -0.15732555 -0.040342566 -0.005191435 -0.14609237 0.14250395 -0.23467565 0.010006021
-0.36996672 -0.19818951 -0.43615404 0.4913953 0.21970885 0.034948613 -0.17400932 -0.30969056
-0.14378382 -0.14241827 -0.12621306 -0.19408631 -0.29625827 -0.2480374 0.16578539 0.44292778
-0.325434 -0.001120782 -0.11776796 -0.15712145 -0.10523997 -0.14950918 -0.08119204 -0.98714805
-0.32422096 -0.7885687 -0.10406617 -0.12241259 0.73275256 0.46504351 0.35774115 -0.07228244
-0.20185032 -0.12314535 -0.025818294 -0.7171357 0.0051611476 -0.013834504 0.09029832 0.09901785
0.10478309 0.120353274 -0.91724443 0.31545812 0.19507721 0.1275533 0.09166297 0.23102254
0.21767311 0.28000665 0.015477592 0.0930345 0.14738865 -0.09827274 -0.08700313 -0.060146615
-0.17917667 0.06464158 -0.005527273 0.022134498 -0.16300473 0.09232505 -0.055325016 0.13361804
0.0005980283 -0.13975611 0.23384278 0.13336204 -0.08304028 0.065961674 -0.031349134 -0.19429713
-0.19374742 0.06038018 -0.07310321 0.0173349 -0.07954601 -0.072591975 0.15946086 -0.16618824
-0.15917906 -0.19785894 -0.24378343 -0.2049197 0.115023 0.17364098 -0.05123017 0.05042109
-0.7241658 0.022803264 0.16033433 -0.026333893 0.24075109 0.35945195 0.30391768 0.37267613
0.22449115 -0.4642178 -0.86482084 0.11303137 -0.9261786 -2.1663134 -1.6820922 -0.1918001
0.45632344 0.40247965 -0.31393436 -0.16287671 0.15286599 0.07955695 0.09351322 -0.29699036
-0.088083655 -0.42054698 -0.041072275 -0.19693463 -0.3756788 0.14765914 -0.25525677 -1.0208377
-1.0553269 0.22633237 -0.27861288 -0.07290086 -0.19815393 -0.044375572 -0.16542512 -0.30997998

fc1.bias f4 [64]
00000000: c1d1 b83d 2c90 68be 5aab fe3c 5ab9 5fbe
00000010: 0d53 a43e 8848 0f3e 80a7 453c 38fe f8be
00000020: 07b6 f5bd dac9 8b3e 42dc 31be 4994 093e
00000030: 3a4e 37be 0029 8e3e 27ae 4d3e 01cc 043f
00000040: 6038 1ebc 3243 2abe 1dea fd3c 9638 4bbe
00000050: 71b8 efbc ecb8 273e ca8b 8cbd 2f82 a8be
00000060: eb5a b5bd c7af ef3c aa90 c8bd 82d0 9cbd
00000070: 0957 f1bd 3258 173e 6162 813e 266e 6c3d
00000080: a95b 89be ef68 9cbe 132e 43be 37b2 24be
00000090: faac af3d df8c 07bd 86b1 55bd 72e7 903e
000000a0: a52c 373e 038a cebe 8555 c83d 960a 9c3e
000000b0: 1ef4 d83c 5db8 5d3e 8288 5bbe a837 f63c
000000c0: 8f1c 08be bc13 04bf c50d 693e 5ce2 173e
000000d0: 85e0 9cbd d503 883d d2e5 6c3e d491 18bf
000000e0: 7966 bc3d 40c0 9abe e1b5 25bd b1c6 213e
000000f0: 9066 8c3e 5aff 153e b2f0 a3bd ab32 69bd
0.090243824 -0.22711247 0.031087566 -0.2184805 0.32094613 0.13992512 0.012063861 -0.48631454
-0.119976096 0.27302438 -0.17369178 0.13435473 -0.17900935 0.27765656 0.20085965 0.51873785
-0.009656996 -0.16627195 0.030995423 -0.19845805 -0.029262753 0.16379136 -0.068626 -0.32911822
-0.08855232 0.029258622 -0.097932175 -0.07656957 -0.11784179 0.14779738 0.2527037 0.057722233
-0.26827744 -0.30548808 -0.19060545 -0.16083609 0.085779145 -0.03309333 -0.052171253 0.2830158
0.17888124 -0.4033967 0.097819366 0.30476826 0.026483592 0.2165236 -0.21438792 0.030055836
-0.13292144 -0.5159261 0.22759159 0.14832443 -0.07660011 0.06641356 0.23134544 -0.59597516
0.091992326 -0.302248 -0.040456656 0.15798451 0.27422 0.1464819 -0.08004893 -0.056933086

fc2.weight f4 [64, 64]
00000000: a78f 9dbd b3ae a2bd 9564 163d 0019 e53d
00000010: d2b9 8d3d 84a1 8bbd d411 c33d bc45 273c
00000020: 1979 d0bc db3e c23c 0870 f9bd 2ce8 1ebd
00000030: 3a0b 7cbb 7faf c0bd a958 5ebd afc8 293d
00000040: c0c7 9e3d 0484 fabd b969 4f3e 50fb 9c3b
00000050: f962 813d 5793 a33d d7ba ce3c 0042 4e3d
00000060: f07b abbd 74e9 a63d 27ae c6bd 51bf b13d
00000070: d15a f7bd c63f 2d3c 22c4 0e3e 831b 403e
00000080: 2e97 ce3a e91b b9bd 689f ba3d 6c44 a93d
00000090: dee7 98bd 7b42 bd3d b332 e93a 4bb6 a63d
000000a0: adf6 b73d f4c9 2fbd e57d 98be a890 f6bd
000000b0: b8a2 19be df63 363c dce0 03bc 5a27 ffbd
000000c0: b695 cebd 994d 79bd 74b2 ccbd 3d10 adbc
000000d0: b296 40bd 02d1 4b3e 411e a3bd f5a8 2c3d
000000e0: 33c7 7d3d b2dd 553d 5ea8 ad3d cbe8 ffbd
000000f0: ceed 11be 10c8 613d c204 e7bc 060b 373d
00000100: dfe5 203e 9636 c6ba a204 debd b4ce 03be
00000110: 40c7 82bc 9b72 a53d 7cbe 13bd 4eaa 08bd
00000120: c92f edbd cdbe 2d3e 3868 c8bc 23b9 f4bc
00000130: 212f d93c 5d92 99bd 0dcc 58be 472f 683e
00000140: a0f6 ddbb 5ac7 23be 7804 393e 5561 3e3d
00000150: bfb5 aa3e 1890 29be 6289 1abd ef67 c9bc
00000160: 46f0 9f3d 462f adbd 6e64 8dba eb60 8dbd
00000170: 13fd 333d b13b 543d a8da 0d3e 3b09 143c
00000180: 5aca 48bd 7496 d1bd 316c 223d e5ab 21be
00000190: a0f9 fbbd 1d51 0f3e bb95 cd3c 7726 9abe
000001a0: e013 f93d 69a7 923c 7e3d bf3e 7f6e 93be
000001b0: 34b1 90bc 1320 07bd e487 62bd 6aca bf3d
000001c0: 44dd 2a3d 6a08 0a3d f85a fbbc 4ac6 253e
000001d0: e754 493e c30f c1bd 83a5 9a3d 865d f83d
000001e0: d3e4 a73c 04bd a7bd 66ef 07be 4c1f 1c3e
000001f0: 57e7 673e a977 333d 6a29 ecbc 064f 0e3d
00000200: 58a3 0cbc 6a0c 003d 44a1 99be 865e d63d
00000210: 8618 25be cff3 0e3e bd70 d23d b43a dfbd
00000220: 666f 00be 2363 743e 04c3 c3bd 9e7f 5cbd
00000230: e1bf 423d cbd2 a3bd b9e9 cf3c 6d13 f03d
00000240: 5a13 8c3d dd32 38bd 11ca dc3e e1e5 d83e
00000250: 6604 2b3e 384c 9e3c 58ab a43d f266 173d
00000260: 5e6d 28bc 48e7 59be ea08 bebc fa7b 103e
00000270: c287 f23b 7e16 80bd 5df9 2a3d c3d3 d23d
00000280: bdaf 913c cd3c 6d3d a8bf 4e3d c2b0 39be
00000290: 1835 e43c 32c1 13bb 9d6c 973e 1349 fabd
000002a0: 6201 c13d ab56 bfbd 6720 1ebb 6c99 4ebd
000002b0: 894a 5fbd f85d 95bc a260 b5be 6cd6 463d
000002c0: e41d 803d 5417 fcbd bce8 8b3d 4c17 2e3e
000002d0: c237 f9bd 5ff0 e6bd 4341 1ebd 0092 29bd
000002e0: 754b 2abe 7490 06be 9854 0bbd 780a 51be
000002f0: 806a c73d 1285 c43d 659e debd 3c52 73bc
00000300: 09c9 f0bd dd75 283b d5b1 cf3d c3df 04be
00000310: dfdf 0dbd 84a9 bb3d 2523 3c3d 0227 f63d
00000320: 9f21 8a3d 02df ae3d cc7d 28bd 7f72 a8bc
00000330: 1c4d bf3d 7fa6 ca3c 4668 16bc 42da 50be
00000340: 8087 74bb 9603 78bc b0db 953d a5a5 90bc
00000350: c44c 153d 56fe ad3d 7398 96bd 044d d53d
00000360: b667 423d 6978 aabd 0c47 9dbd bff1 a43d
00000370: 9d3c 79bd 8684 c43d 4784 49bd 7b38 f4bd
00000380: c17d 24be 929e 4d3d 66cb 9bbd dac8 403c
00000390: 28ba aebd 1398 62be 4411 8f3d 05b6 88bd
000003a0: 06e0 abbd 6408 1a3c 9137 1cbe ac0a c03d
000003b0: 75b1 803c 760c 16be 9971 b8bd a44b ac3d
000003c0: a02b b5bb 2d19 0c3e 4acc e13d 0b22 01be
000003d0: ef51 4bbd 1b0b 27bc 778c dbbd bfa1 99bd
000003e0: f0e7 fb3d 300d 21bd feed 33be 3bd7 0fbd
000003f0: 47e1 23bd 88b4 bbbc 806f 62bb a53f 01be
-0.07693415 -0.079434775 0.036717016 0.11186409 0.06920208 -0.06817916 0.09524885 0.010209497
-0.025448369 0.023711612 -0.121795714 -0.038795635 -0.003845884 -0.09408473 -0.05428377 0.041451152
0.07752943 -0.12232211 0.20255174 0.004790701 0.06317706 0.07987087 0.025235577 0.05035591
-0.083732486 0.081499964 -0.09701186 0.08679069 -0.12077869 0.010574287 0.13942006 0.18760495
0.0015761608 -0.090385266 0.091124356 0.082650036 -0.074661 0.09241196 0.0017791599 0.081402384
0.089825965 -0.042917207 -0.2978355 -0.1203931 -0.15003479 0.01113221 -0.008049216 -0.124586776
-0.10087149 -0.06086502 -0.09994975 -0.021125907 -0.047018714 0.19903949 -0.07964755 0.042153317
0.06195755 0.05221338 0.08479379 -0.124955736 -0.14250872 0.055122435 -0.02820051 0.044688247
0.15712689 -0.0015122469 -0.108407274 -0.1287182 -0.01596415 0.080785 -0.036070332 -0.03336554
-0.1158138 0.16967316 -0.024463758 -0.029873436 0.02651173 -0.0749862 -0.21171589 0.22674285
-0.0067737848 -0.15994015 0.18068111 0.04647954 0.33341786 -0.16558874 -0.037728675 -0.024585692
0.078095004 -0.08456282 -0.0010787377 -0.06903251 0.043942522 0.05181474 0.13852942 0.009035404
-0.049021102 -0.10233775 0.03965396 -0.15788229 -0.123034716 0.13995786 0.025095811 -0.3010747
0.12161994 0.017902093 0.37351602 -0.2879524 -0.017662622 -0.032989573 -0.055305377 0.09364779
0.04171492 0.03369943 -0.030683026 0.16188923 0.19661294 -0.094268344 0.075511 0.12127213
0.020494854 -0.08190349 -0.13274917 0.15246314 0.22646843 0.04381529 -0.028828342 0.03474333
-0.008583866 0.03126184 -0.30005848 0.10467248 -0.16122636 0.13960193 0.10275409 -0.108998686
-0.12542495 0.23865943 -0.09558681 -0.053832643 0.04754627 -0.0799919 0.025380002 0.11722455
0.068396285 -0.044970382 0.43122914 0.42362884 0.16700897 0.019323453 0.08040494 0.03696341
-0.010279981 -0.21279633 -0.02319761 0.14109793 0.0074014375 -0.0625429 0.041741718 0.102942966
0.017783994 0.057919312 0.050475746 -0.18133834 0.027857348 -0.0022545573 0.29575053 -0.12220969
0.09424092 -0.093427025 -0.00241282 -0.050439283 -0.05451444 -0.018233284 -0.35425287 0.048544332
0.06255701 -0.12309137 0.068315 0.17001075 -0.12168838 -0.11276316 -0.038636457 -0.041399002
-0.16630347 -0.13141042 -0.03401622 -0.2041415 0.0973711 0.09595694 -0.10870055 -0.014851149
-0.117570944 0.0025705018 0.10141341 -0.12975983 -0.03463733 0.09163192 0.045931954 0.12019159
0.06744694 0.08538629 -0.041135594 -0.020562408 0.09340879 0.024737595 -0.009180134 -0.20395759
-0.003731221 -0.015137574 0.07317293 -0.01765711 0.036450163 0.08495776 -0.07353296 0.1041508
0.047462188 -0.08323748 -0.07679567 0.08053922 -0.06084882 0.09595589 -0.049198415 -0.11924835
-0.16063596 0.050200053 -0.076071545 0.011766637 -0.085316 -0.22128324 0.06985715 -0.066753425
-0.083923385 0.009401415 -0.15255572 0.093770355 0.015709618 -0.14653191 -0.09006042 0.08412865
-0.005528882 0.13681479 0.11025293 -0.12610643 -0.049638685 -0.010195519 -0.10720151 -0.07501554
0.12300098 -0.039319217 -0.17571256 -0.03511737 -0.040009763 -0.022913232 -0.0034551322 -0.12621935

fc2.bias f4 [64]
00000000: dcb3 44bd b554 fe3e 8e7e 0dbe ad80 31be
00000010: aece e23c 1815 75be bd77 103e 9de8 b3bd
00000020: 461a c23d 1c2b 443e 75f3 593d 11c9 223e
00000030: 2878 3fbd 500c 9e3e 8966 743e 5baf a2bc
00000040: be22 963e dcc2 28be d286 0abd 344c e03e
00000050: ffec e7bc 2d3d fbbd 2795 ec3b dd65 9fbe
00000060: e328 bebd 85f7 e43d a8d6 993d f3d6 7f3d
00000070: 0138 38bd 5ea0 a13d 6b50 57bd 07bc d63e
00000080: 7066 583e 327c b43d 8778 50bd 7a63 943d
00000090: 16d2 7fbd 3fca 8bbd 7f3c 003d 5b7c 24be
000000a0: 6abf 05be 4d85 003e 503a 1dbe 026e 3fbc
000000b0: 1629 dd3e 6ed7 dc3e 52bb 10be 105f 9cbc
000000c0: 83c9 3fbd de9a 40bd 25dd 1e3d c352 0cbd
000000d0: 30ab 123c 523a 073c 1f2f b93e 40ce c43b
000000e0: e060 2dbe 041f 553d fcb1 0e3f ad5c acbd
000000f0: 814e d6bd 6f5b 1ebe 55b0 5dbb d85d 55bd
-0.04802309 0.49674 -0.13817808 -0.17334242 0.027686443 -0.23933828 0.14108177 -0.08784602
0.094776675 0.1915707 0.053210694 0.15897013 -0.04674545 0.3086877 0.23867239 -0.019859007
0.2932338 -0.16480583 -0.03381998 0.43808138 -0.02831125 -0.12267528 0.007219929 -0.31132403
-0.09285142 0.11180023 0.075116456 0.06246085 -0.044975284 0.07891916 -0.052566927 0.41940328
0.21132827 0.08812751 -0.050896194 0.07245536 -0.062456213 -0.06825685 0.031307694 -0.16063063
-0.130613 0.1255085 -0.15354276 -0.011683943 0.4319541 0.4313311 -0.14133957 -0.019088298
-0.046823036 -0.047022693 0.03878512 -0.034258615 0.008951947 0.008253651 0.36168763 0.006006032
-0.16931486 0.052031532 0.5574033 -0.08416114 -0.10464192 -0.15464567 -0.0033827026 -0.05209145

fc3.weight f4 [16, 64]
00000000: ae85 3b3c aa17 f73d f95d 883d efd8 163d
00000010: a17b a13c 11a0 89bc 2490 cf3d bd9c 13bd
00000020: b9e5 8cbe 51d5 813e ec4c 71bd 70cb 9c3d
00000030: 670d 443c 1f4a e43d 9c3b 9d3d a289 953c
00000040: 92e1 233e 62ca 1cbd 0dee 05bd e7ba 183e
00000050: 3dc2 a1bc 7bcb bdbd bb88 01bd a30f c03c
00000060: 65c3 3dbc aed9 813e 3517 f33c 95c8 653c
00000070: 2fc2 903d 965f 0abb ca9e 313c 3792 583d
00000080: 7eca 393d 9681 87bb 712b aebd d548 8d3d
00000090: 2896 c53c 4e9f 2cbd 8661 28bc 7226 8a3d
000000a0: 6a9d 063d 0f44 cf3d 3f6c 28bd d1b1 3fbd
000000b0: 1f19 6b3d 77fb a23d 9a29 4c3d 8b31 053e
000000c0: f8ee 9cbd 6ea9 8abd f836 973d adf0 5bbd
000000d0: b1b7 8a3b 6d86 dd3d 51ea e33d 40bd 0e3d
000000e0: bb8f 783c c8da 4d3e b6ca 4d3e 64d2 92bd
000000f0: fc01 0e3b 426b 01bd 9064 4e3d c472 a13d
00000100: 3e42 9ebd fb8d 29be 18bf f33c 95e9 343d
00000110: f1c8 1fbd 6b32 0dbc 362c abbd ea6e edbd
00000120: e39a b9bd 4f50 09bd 441e 9ebd de6d a7bd
00000130: d00b 60bc 1d8e e7bd 8e85 c1bc b8bc cdbc
00000140: 9612 a43d 010b a73d 11c9 4f3d 0220 97bd
00000150: bc72 d7bd 5067 95bd 3a6f cbbd b2ee 00be
00000160: f453 3d3d 9b98 cb3d c89c 0fbb 2247 3f3d
00000170: da62 d53c d434 d8bd 7e52 b0bd 31b8 d6b8
00000180: da2e 253d 8cc0 a33b 4cd8 973d 1dc7 883d
00000190: 7a45 3abc d86c 2e3d a239 b0bd 2f63 b03d
000001a0: 100a a6bc 65e6 a93d 1a12 abbd adab 963d
000001b0: 02fd bdbd f557 69bd c8f9 cebd 60ad 5abd
000001c0: fda2 b3bd 4899 a13d 995a ae3d d7c0 f1b9
000001d0: 08e4 ae3c d6b7 c4bd 29ab 96bb 0cc8 ed3d
000001e0: b41d 593d 2f97 e8bd e677 e5bc 30ce 3b3c
000001f0: b7ca 9f3d 1f3a 1abd a16f 5c3c f027 3cbc
00000200: 55eb 79bd cdfb 51bd 5733 9a3d 04a5 eebd
00000210: c953 143d bb68 173d 9011 dabd 2532 23bb
00000220: f00f ab3c 080e f13d c139 0f3d 1c41 a63d
00000230: f078 e5bd 299c 9abd bc85 243d 32c1 953d
00000240: 512a 6cbd 1b86 a63d ee02 3fbd 5d3d 00be
00000250: 1c57 fb3c e99d 4abc 7837 c53d 6702 493d
00000260: 1bc6 31bd 9bd3 74bd db8a ae3d 59d3 f6bd
00000270: 4ce5 21bc 34c8 c73d ebca 623c 3e61 67bd
00000280: 90e0 06be e923 cfbb 6de8 99bd e9f3 febc
00000290: d0ff b9bd f4c5 00be 2cc1 123d 28c6 d4bd
000002a0: fa29 b43d 10d7 9e3d 3298 be3b f7ca 4f3a
000002b0: 9bdc 26bd 479f 5bbc f228 e1bc a232 923d
000002c0: e09e 513d f9aa c2bd 809f c8bd db68 7c3c
000002d0: 64e3 973d c0b0 d73b ee0d 07bd 6640 e13d
000002e0: e49e a33d 404e 3cbd 9a94 dcbd 9c07 e73d
000002f0: c873 13bd 5a3c 05be 0318 f6bd b8c5 88bd
00000300: d229 e83d f119 803d 6f4f adbd 1dcb 0fbc
00000310: f5b8 c5bc 52b8 85bd 128b a1bd 2d1b 49bd
00000320: 020e e4bc faef 5d3d a64d 9ebc a93c 123c
00000330: fe94 b43d 18c9 17bc c734 16bd 28bb cebc
00000340: 61fe 6d3c 176a 523d 9f76 bb3d f7e9 09be
00000350: 6aee 113d b26b 533d e255 233c 557f ae3d
00000360: 1d37 fabd ffde 4abd 2663 ffbd 2cc5 51bd
00000370: fe23 413c 3da0 aebc a717 28bd bacf c7bd
00000380: fe31 a7bd 12d7 33bd 939b d63d 034a 243d
00000390: 58bf 943d adc0 9d3d 4a93 b2bc cee0 8cbd
000003a0: 5791 053d 26da 353d 34e0 6a3d 14dc c0bd
000003b0: c993 8d3b ff56 e7bd eccb 51be 5437 503d
000003c0: 43d0 b73c 5e46 11be b009 49bb 6d22 3d3d
000003d0: 0077 3fbb 37fc 113d 6a85 b3bd 4024 133b
000003e0: d05b 16be d64c 17bc de63 423c 20bd e23d
000003f0: 2ec2 10be 166a 0fbd 5a38 ddbd 44a7 743d
0.011445446 0.120650604 0.06658549 0.036827978 0.019712271 -0.016799958 0.101349145 -0.03603815
-0.27519014 0.2535806 -0.05891125 0.0765599 0.011966086 0.1114695 0.07677385 0.018254105
0.16004017 -0.038278945 -0.032697726 0.14915048 -0.01974594 -0.092673264 -0.031624537 0.023444956
-0.01158223 0.2536139 0.029674152 0.014024873 0.070682876 -0.0021114103 0.010841081 0.052873816
0.045359127 -0.004135321 -0.085043795 0.06898657 0.024119452 -0.042144112 -0.010277158 0.06745614
0.032864965 0.10120403 -0.041118857 -0.04680044 0.057397004 0.07958119 0.04984436 0.1300718
-0.07662767 -0.067705974 0.07383531 -0.053696323 0.0042333235 0.10816655 0.11128677 0.03484845
0.015170987 0.2010299 0.2009686 -0.07169035 0.0021668663 -0.03159643 0.050388873 0.07883218
-0.077274784 -0.16558068 0.029754207 0.044168074 -0.039009992 -0.008617978 -0.08358042 -0.11593421
-0.090627454 -0.033523854 -0.077206165 -0.081752524 -0.013674691 -0.11306403 -0.023623254 -0.025114402
0.080113575 0.08156396 0.05072886 -0.07379152 -0.10519931 -0.07295096 -0.09933324 -0.12591055
0.046222642 0.099412166 -0.0021913517 0.046698697 0.026048113 -0.10556951 -0.08609484 -0.000102386235
0.040327884 0.0049973186 0.07414302 0.06678603 -0.011369104 0.04258427 -0.086047426 0.08612668
-0.02026847 0.082958974 -0.08353062 0.07356963 -0.09276773 -0.056968648 -0.10106236 -0.053388
-0.08771322 0.07890564 0.08513374 -0.0004611078 0.021348968 -0.096053764 -0.0045980406 0.116104215
0.053006843 -0.11356961 -0.028011274 0.011462733 0.07802337 -0.037653085 0.013454349 -0.011484131
-0.061015446 -0.051265527 0.075293235 -0.11652568 0.036212716 0.036965113 -0.10647881 -0.0024901715
0.020881623 0.117702544 0.034967188 0.081178874 -0.112047076 -0.075493164 0.0401666 0.0731224
-0.057657544 0.08131047 -0.046633653 -0.12523408 0.030681185 -0.01236675 0.096297204 0.049074557
-0.04340182 -0.059772115 0.08522578 -0.1205203 -0.009881329 0.097549826 0.013842325 -0.05648922
-0.13171601 -0.0063214195 -0.07515035 -0.031122165 -0.090819955 -0.12575513 0.035828754 -0.10389358
0.08797069 0.07755864 0.005816483 0.00079266675 -0.04073773 -0.013404674 -0.027485345 0.07138564
0.051176906 -0.09505267 -0.09796047 0.015405859 0.07416418 0.0065823495 -0.03297227 0.10998611
0.0798929 -0.045973063 -0.10770531 0.11280748 -0.03599909 -0.13011304 -0.120162986 -0.06678337
0.113361016 0.06254948 -0.084624164 -0.008776453 -0.024136046 -0.06529297 -0.07887854 -0.049098182
-0.02783871 0.054183938 -0.019324135 0.008925595 0.088174805 -0.009264253 -0.036671426 -0.025235727
0.014525981 0.051370706 0.091534846 -0.13468157 0.03562776 0.051616378 0.0099692065 0.085203804
-0.12217543 -0.049529072 -0.12470083 -0.05121343 0.011788366 -0.021316642 -0.04103818 -0.097564176
-0.08163832 -0.04390628 0.10478892 0.040109646 0.072630584 0.077027656 -0.021798749 -0.068788156
0.03260931 0.044397496 0.057342723 -0.094169766 0.004320596 -0.1129589 -0.20487946 0.050834015
0.022438174 -0.14186999 -0.003067594 0.04617541 -0.0029215217 0.03564092 -0.08765681 0.0022452027
-0.14683461 -0.009234628 0.0118646305 0.11071229 -0.14136574 -0.03501328 -0.10801764 0.05972983

fc3.bias f4 [16]
00000000: dcf0 0b3f eb8f 63bc d47d f8bc 7811 a93b
00000010: 436d fb3d 76b3 00be 60fb 3dbe ebf0 eabd
00000020: 31b0 bc3e f57f 13be 02d8 093f 7467 20be
00000030: 575b 9cbd c997 a5bd ef43 7f3e 1fb4 a4bc
0.546644 -0.013889293 -0.030333437 0.005159553 0.122766994 -0.12568459 -0.18552923 -0.11471733
0.36853173 -0.1440428 0.53845227 -0.15664464 -0.07634609 -0.08085591 0.24928258 -0.02010542

fc4.weight f4 [1, 16]
00000000: d3f3 03be 64ef 1c3d 38ae 023e cb7d 243c
00000010: 4e51 ba3a 9104 febb a69a 993b 5fbc 63bd
00000020: e278 953d 52a2 0f3b 682f 74bd 0c83 a63d
00000030: 0d5c 503c e5ae 91bd 4166 2c3c 1d48 583c
-0.1288598 0.03831424 0.12761772 0.010039757 0.0014214905 -0.007752009 0.004687625 -0.055599567
0.07298447 0.0021916819 -0.059615523 0.08130464 0.012717259 -0.071134366 0.010522426 0.013200787
