models/py_SimpleFeedForwardNN_mdl_64-16-64_12_epochs_0-00100_lr_16_batch_202310261803.pth (torch, 18452 bytes, 7 tensors)

fc1.weight f4 [64, 18]
-0.52663976 -0.05731404 0.16194911 -0.15899917 -0.2525549 0.04057459 0.1097405 -0.13786237
0.104860805 -0.6576244 -0.4546091 -0.076969884 -0.26906842 -1.2177098 -1.4691056 0.00238954
0.20523655 0.19953385 0.072035275 -0.3490915 -0.39344135 0.21577367 -0.040287346 -0.120286174
0.037518322 0.036945898 0.68276083 0.100570075 -0.19482663 -0.1313348 0.085445754 -0.039362907
-0.07702318 0.19392803 -0.034251366 -0.089566015 0.15113299 -0.07219872 -0.06431041 0.11444417
-0.36844808 0.059435096 -0.18009128 -0.44544762 -0.3623312 -0.10651311 -0.07675723 -0.138831
0.10493036 0.6138173 0.066019714 -0.006623578 -0.08201689 -0.0115141 0.2705091 0.010456967
-0.4221478 -0.04011093 0.012473261 -0.30986947 -0.13766117 1.3970838 0.8744699 0.94981694
0.245747 0.21688278 -0.56444377 -1.0820351 -0.94818354 0.37158284 0.05150668 -0.16276556
-0.3328056 0.006909988 -0.054319117 -0.20958434 -0.04702171 0.39082178 0.10870876 0.31553745
0.23763603 0.046367332 -0.3664328 0.08480079 -0.53236806 -0.12668024 -0.8439022 -0.18505849
0.24786165 0.42395985 -0.052877575 -0.20347096 -0.030914098 0.023167178 -0.049360737 -0.0432979
-0.055061206 0.13601841 0.1667804 -0.12549749 -0.17061532 -0.14614528 -0.026460797 -0.09047437
-0.05497247 0.15607058 -0.11390737 0.05598645 0.057565745 -0.031714186 -0.23221722 0.0047697616
0.21638766 -0.03386579 -0.1468714 0.88092494 0.43264297 0.5658731 -0.32437924 -0.14387539
-0.5443033 -0.06742951 -0.5202002 0.062834166 -0.12715009 0.17643704 -0.15610895 -0.01553823
-0.02279309 0.05672875 -0.007706345 -0.082014315 0.1360159 0.10808737 0.1321012 -0.123706065
-0.22769608 -0.23744775 -0.3288504 0.09807873 -0.28762063 -0.2290134 0.24343807 0.21132165
-0.25042903 -0.23699482 -0.042576812 0.06338461 -0.175594 0.05923252 -0.059612278 0.082679406
-0.15307379 0.0032117814 -0.19980846 -0.22456768 0.19320004 0.0842102 -0.19484848 0.045994915
0.13121612 0.053040802 0.14288224 -0.27237812 -0.00012329924 -0.20699419 -0.023092728 -0.09356309
0.22639403 0.26276976 -0.28289977 -0.095256865 -0.09661946 0.14908914 -0.04618901 0.0015276059
-0.12358581 0.06793301 0.034203485 0.15284856 -0.15402703 0.101187095 -0.590497 0.06306547
-0.259478 0.18789272 0.097956225 1.1904932 0.7096561 1.1680143 -0.42821658 -0.14128675
-0.9021748 -0.50091213 -1.4609507 -0.0547631 0.25028422 0.5038761 -0.5213756 -0.020853791
0.036399066 0.0918197 0.08781394 0.24161716 -0.07716846 1.0448285 0.4567946 0.1166743
-0.43046603 0.07099158 -1.2989975 -0.89481556 -1.5900882 0.039525114 0.19227046 0.25673613
-0.23446554 0.005740674 0.13487627 0.009517463 0.21789534 0.24211746 0.3205351 0.48887348
0.32922155 -0.102093264 -0.65142375 -0.063152984 -1.2595516 -1.0466781 -2.230355 -0.16832691
0.12627703 0.18015823 -0.11658855 -0.17145842 -0.09179997 0.06278924 -0.18899001 -0.15804364
0.022508284 -0.06708669 -0.13451402 -0.098998405 -0.020856688 -0.24678575 0.0033818719 -0.23339753
0.195565 -0.20920146 -0.1086015 0.057518046 -0.06403072 -0.002427777 -0.38184276 -0.088413134
00000000: ddd1 06bf 20c2 6abd fdd5 253e aed0 22be
00000010: e04e 81be 8b31 263d a1bf e03d cb2b 0dbe
00000020: 43c1 d63d 135a 28bf 86c2 e8be 63a2 9dbd
00000030: 56c3 89be eadd 9bbf a70b bcbf d499 1c3b
00000040: 8829 523e 9a52 4c3e 3b87 933d 1fbc b2be
00000050: 2571 c9be c6f3 5c3e 5804 25bd 9958 f6bd
00000060: d0ac 193d 9554 173d 6ac9 2e3f aff7 cd3d
00000070: a280 47be a17c 06be 2ffe ae3d 003b 21bd
00000080: 54be 9dbd 1295 463e 294b 0cbd 636e b7bd
00000090: 9bc2 1a3e ecdc 93bd 2db5 83bd b461 ea3d
000000a0: 3aa5 bcbe 3772 733d d969 38be b611 e4be
000000b0: 7a83 b9be 8c23 dabd e532 9dbd b729 0ebe
000000c0: bbe5 d63d 2123 1d3f 5835 873d 990a d9bb
000000d0: 79f8 a7bd a3a5 3cbc 2b80 8a3e b353 2b3c
000000e0: c223 d8be 5c4b 24bd a65c 4c3c 36a7 9ebe
000000f0: 0df7 0cbe a4d3 b23f 42dd 5f3f 3427 733f
00000100: 1aa5 7b3e 8516 5e3e 637f 10bf 2080 8abf
00000110: 28bc 72bf 1b40 be3e abf8 523d 04ac 26be
00000120: 7f65 aabe 2e6d e23b b97d 5ebd 479d 56be
00000130: d699 40bd cb19 c83e b3a2 de3d 208e a13e
00000140: dc56 733e aceb 3d3d 149d bbbe 09ac ad3d
00000150: 4649 08bf 77b8 01be f909 58bf f97f 3dbe
00000160: 72cf 7d3e 4411 d93e 2896 58bd b15a 50be
00000170: 903f fdbc 18c9 bd3c 7c2e 4abd 2459 31bd
00000180: dc87 61bd 6948 0b3e 7bc8 2a3e 6a82 00be
00000190: c8b5 2ebe 1ca7 15be 50c4 d8bc a04a b9bd
000001a0: d02a 61bd f7d0 1f3e 4448 e9bd 0c52 653d
000001b0: 0fca 6b3d bce6 01bd 5aca 6dbe a94b 9c3b
000001c0: ba94 5d3e dbb6 0abd 7565 16be 4c84 613f
000001d0: 6183 dd3e 0fdd 103f 0915 a6be 1254 13be
000001e0: 7657 0bbf 7c18 8abd d72b 05bf 33af 803d
000001f0: a233 02be e9ab 343e 06db 1fbe 0f94 7ebc
00000200: 93b8 babc 685c 683d 8285 fcbb 1ff7 a7bd
00000210: c147 0b3e e95c dd3d 8945 073e 9b59 fdbd
00000220: 2929 69be 8125 73be 145f a8be 80dd c83d
00000230: 0343 93be 7d82 6abe d447 793e b464 583e
00000240: 3c38 80be c5ae 72be 0665 2ebd cacf 813d
00000250: eace 33be cd9d 723d 012c 74bd d253 a93d
00000260: 60bf 1cbe c07c 523b 979a 4cbe 12f5 65be
00000270: 3bd6 453e 6676 ac3d 5c86 47be 2a65 3c3d
00000280: 855d 063e 5041 593d b94f 123e 2575 8bbe
00000290: e349 01b9 49f6 53be f62c bdbc 019e bfbd
000002a0: d6d3 673e c289 863e 3dd8 90be 0816 c3bd
000002b0: 6ce0 c5bd d3aa 183e b030 3dbd f339 c83a
000002c0: 8f1a fdbd 7620 8b3d f418 0c3d 5584 1c3e
000002d0: 43b9 1dbe 2e3b cf3d d02a 17bf 7828 813d
000002e0: 4dda 84be f366 403e 469d c83d 1562 983f
000002f0: 06ac 353f 7e81 953f 343f dbbe 79ad 10be
00000300: edf4 66bf c73b 00bf 6f00 bbbf 464f 60bd
00000310: 4125 803e 06fe 003f df78 05bf 92d5 aabc
00000320: 3017 153d f80b bc3d ccd7 b33d 7d6a 773e
00000330: 7f0a 9ebd f1bc 853f fbe0 e93e eff2 ee3d
00000340: 0b66 dcbe 0964 913d 8d45 a6bf a212 65bf
00000350: 0388 cbbf 16e5 213d 8ce2 443e eb72 833e
00000360: bc17 70be 441c bc3b 011d 0a3e 22ef 1b3c
00000370: f51f 5f3e a4ed 773e 2d1d a43e a04d fa3e
00000380: ba8f a83e 4616 d1bd b5c3 26bf 5a56 81bd
00000390: fd38 a1bf 8cf9 85bf 23be 0ec0 e45d 2cbe
000003a0: c44e 013e 667b 383e fac5 eebd cc92 2fbe
000003b0: 9f01 bcbd a597 803d 9986 41be 31d6 21be
000003c0: 4b63 b83c bf64 89bd 0bbe 09be adbf cabd
000003d0: a5db aabc 67b5 7cbe 65a2 5d3b c3ff 6ebe
000003e0: 3142 483e e838 56be 776a debd 0b98 6b3d
000003f0: 8a22 83bd 571b 1fbb e580 c3be f211 b5bd

fc1.bias f4 [64]
-0.07377945 0.16893816 0.18744455 0.22496423 -0.10313586 -0.17755857 -0.05638669 -0.1375915
-0.2473315 -0.21162783 -0.24928056 0.062969945 -0.34942827 -0.18162966 -0.25368276 0.061328206
0.22122864 0.16130902 0.04228926 -0.25020984 0.11798067 -0.24411681 -0.2918985 -0.35732096
0.026648445 -0.008079625 -0.10057497 -0.05781481 -0.2649562 0.14270638 0.17590952 -0.0021734457
-0.20394564 -0.07851754 0.06444343 -0.24490306 0.018582977 0.106584296 -0.02905831 -0.07687527
-0.2782799 -0.15789838 0.059484124 0.130389 -0.21831498 -0.05438295 -0.07398468 -0.14793962
-0.1862866 0.14501624 0.10607775 0.26995617 -0.08101727 -0.41660067 0.1407572 -0.44995382
-0.4410243 -0.13317275 0.079341754 -0.16941012 -0.017510911 -0.18696317 0.038460147 -0.2521707
00000000: ae19 97bd 20fe 2c3e 77f1 3f3e 065d 663e
00000010: e538 d3bd ead1 35be bbf5 66bd c9e4 0cbe
00000020: 7844 7dbe f7b4 58be 6743 7fbe 63f6 803d
00000030: 43e8 b2be 20fd 39be b5e2 81be 4933 7b3d
00000040: c389 623e 312e 253e 8137 2d3d 811b 80be
00000050: d99f f13d c2f9 79be b873 95be c6f2 b6be
00000060: d74d da3c 6760 04bc 40fa cdbd 39cf 6cbd
00000070: 57a8 87be 9f21 123e a021 343e 5e70 0ebb
00000080: 20d7 50be cecd a0bd ebfa 833d dec7 7abe
00000090: 543b 983c de48 da3d b10b eebc c870 9dbd
000000a0: b47a 8ebe 1db0 21be a0a5 733d b284 053e
000000b0: f68d 5fbe a8c0 5ebd 4885 97bd 7c7d 17be
000000c0: eac1 3ebe 237f 143e 4b3f d93d b237 8a3e
000000d0: 62ec a5bd af4c d5be a822 103e 5960 e6be
000000e0: f0cd e1be 705e 08be ee7d a23d d979 2dbe
000000f0: 0b73 8fbc 4673 3fbe 6388 1d3d 851c 81be

fc2.weight f4 [16, 64]
-0.028631568 -0.10047779 -0.07468264 -0.031747673 0.025474207 -0.028770864 -0.047059793 -0.05967885
0.1055225 -0.066230364 0.016333332 -0.005861425 -0.3625002 -0.032489922 -0.23915333 0.38061124
-0.19835469 0.11522363 -0.26105332 -0.05860645 -0.28756803 0.048755333 -0.2140353 0.0529506
0.15331098 -0.21436077 0.0550361 0.11166547 -0.049799465 -0.19918962 -0.27106237 -0.19457635
-0.07850923 0.05455592 0.013990891 0.076467454 -0.4228975 -0.2904221 -0.14585818 0.07482998
-0.19689286 -0.018719995 0.1391333 -0.26985425 -0.059746593 0.12041946 -0.14241931 -0.074979186
-0.19177318 -0.17634903 0.17401049 -0.21314014 -0.108897336 -0.15586492 0.03858231 0.0133425575
-0.1785585 -0.16400057 -0.052204013 0.034746207 -0.27779043 -0.019248098 -0.026897196 -0.18348221
-0.016259313 0.036990568 -0.09604309 -0.08474946 0.017020598 -0.04549718 -0.023048759 0.049655944
-0.10519798 0.0330693 0.07113284 0.069781385 -0.17775665 0.08112255 0.09388502 -0.18950567
-0.047689773 0.10402474 -0.017640555 -0.0741694 0.055323716 0.013704257 0.028741973 0.0789097
0.00053154095 -0.020489579 -0.07251008 -0.09751303 0.04092055 -0.19235116 0.027693184 -0.070416436
0.07293038 0.05511597 0.040744513 -0.09642123 0.040210567 -0.026050273 0.00024446598 -0.09281189
0.07129407 -0.07214256 -0.016148167 0.051750656 -0.07922615 -0.027849257 -0.09023642 -0.10898595
-0.03335237 -0.084275626 -0.062390294 -0.13280512 0.047938816 -0.009089906 -0.11043233 -0.13237308
-0.09096318 0.07183409 0.01363469 -0.0018816855 0.006623406 0.056084186 0.026402077 -0.10164616
0.028846402 0.06564675 -0.11925397 -0.08606254 0.14710476 -0.08242349 0.10133974 0.0489496
0.10673769 -0.059487388 -0.11907115 -0.06568982 -0.014104946 0.06692083 -0.100392126 -0.12434569
-0.11303478 0.10593499 0.0047892313 -0.13469613 0.18643841 -0.0968048 -0.03486635 0.044874698
-0.1860862 -0.112685174 -0.06295798 -0.06704044 -0.058316134 -0.14416352 -0.06246778 0.042143904
0.10142895 -0.034773864 0.06390429 -0.029459968 -0.06021449 0.101889834 -0.044226598 0.00905317
-0.038244653 -0.13124913 0.07844387 -0.060584936 -0.15066177 0.06305368 -0.082374334 -0.12691231
0.0305717 -0.061212584 -0.11548802 -0.18410347 -0.10441571 -0.13053825 0.1457152 -0.051308528
-0.032241743 0.019568142 0.07261868 -0.18861958 0.115314156 0.07658836 0.030035129 -0.11571049
-0.13723676 0.13301514 0.12575673 -0.14617969 -0.009632561 0.00067842007 -0.053204805 -0.13428271
-0.016530572 -0.06957935 -0.1887379 0.08233925 -0.28876543 -0.027200492 -0.029457439 0.26331374
-0.061503008 0.02422537 -0.071003035 -0.03927545 0.23624294 -0.009483066 0.007959987 0.1315298
0.14390795 -0.11483911 0.14714853 -0.088141195 -0.2055754 0.014243842 0.27604055 -0.08914417
-0.1624326 -0.016294576 -0.26773545 -0.13207999 0.03815761 0.046213683 0.18370248 0.10676234
0.18312031 -0.008173071 -0.26668674 0.47679004 -0.035672937 -0.097755745 0.12442871 -0.05179718
-0.15988086 -0.07857542 0.06284631 -0.06410599 -0.04122248 -0.15939605 0.057294667 0.08671999
0.12334179 0.32124516 -0.18953395 -0.03606323 0.08159699 -0.014382571 -0.089725 -0.10558837
00000000: c08c eabc 4dc7 cdbd 36f3 98bd d909 02bd
00000010: 49af d03c e0b0 ebbc c5c1 40bd cf71 74bd
00000020: 2e1c d83d c9a3 87bd 7bcd 853c 3211 c0bb
00000030: a099 b9be 2714 05bd 9ce4 74be 7adf c23e
00000040: 7e1d 4bbe 5efa eb3d c8a8 85be 510d 70bd
00000050: 1e3c 93be acb3 473d 122c 5bbe bae2 583d
00000060: 8efd 1c3e 6481 5bbe 896d 613d deb0 e43d
00000070: 86fa 4bbd 5df8 4bbe b0c8 8abe 063f 47be
00000080: 72c9 a0bd 0776 5f3d 0d3a 653c f89a 9c3d
00000090: 0586 d8be 35b2 94be d95b 15be 7640 993d
000000a0: 489e 49be ad5a 99bc f678 0e3e 562a 8abe
000000b0: d8b8 74bd 7a9e f63d 5ed6 11be b08e 99bd
000000c0: 3060 44be d794 34be ce2f 323e 6941 5abe
000000d0: 9105 dfbd 0e9b 1fbe 7c08 1e3d be9a 5a3c
000000e0: 0ad8 36be c4ef 27be e0d3 55bd 0a52 0e3d
000000f0: 8c3a 8ebe 30ae 9dbc 8257 dcbc c3e2 3bbe
00000100: 4032 85bc 6c83 173d 3db2 c4bd 2091 adbd
00000110: c86e 8b3c 405b 3abd c0d0 bcbc 0864 4b3d
00000120: 0a72 d7bd ad73 073d 18ae 913d 8be9 8e3d
00000130: d705 36be 9423 a63d ca46 c03d c60d 42be
00000140: 5a56 43bd ec0a d53d ed82 90bc 20e6 97bd
00000150: 1f9b 623d d287 603c 4974 eb3c 699b a13d
00000160: 1c57 0b3a c3d9 a7bc 2a80 94bd e9b4 c7bd
00000170: 4e9c 273d b4f7 44be d1dc e23c 7e36 90bd
00000180: 865c 953d 49c1 613d b8e3 263d 7e78 c5bd
00000190: d6b3 243d 6267 d5bc ab2b 8039 2914 bebd
000001a0: a002 923d 7abf 93bd 2949 84bc 7ff8 533d
000001b0: 5241 a2bd 2024 e4bc dfcd b8bd 0734 dfbd
000001c0: 7f9c 08bd b398 acbd f78c 7fbd 11fe 07be
000001d0: 7e5b 443d d4ed 14bc 582a e2bd cf8c 07be
000001e0: e74a babd c01d 933d 0964 5f3c e3a2 f6ba
000001f0: 2809 d93b 88b8 653d 2b49 d83c dd2b d0bd
00000200: 4a4f ec3c ce71 863d 6d3b f4bd 8f41 b0bd
00000210: a1a2 163e a6cd a8bd 368b cf3d 607f 483d
00000220: 4a99 da3d 0ca9 73bd 93db f3bd 6288 86bd
00000230: 6e18 67bc ca0d 893d 639a cdbd f4a8 febd
00000240: c77e e7bd 72f4 d83d fcee 9c3b c8ed 09be
00000250: b6e9 3e3e 9841 c6bd 05d0 0ebd 88ce 373d
00000260: 618d 3ebe 7cc7 e6bd 1df0 80bd 804c 89bd
00000270: e6dc 6ebd 9a9f 13be 37de 7fbd 169f 2c3d
00000280: fbb9 cf3d 0a6f 0ebd 41e0 823d 0856 f1bc
00000290: 78a3 76bd 9eab d03d f326 35bd bf53 143c
000002a0: 6da6 1cbd 2c66 06be 2ea7 a03d e927 78bd
000002b0: 1447 1abe 4a22 813d e0b3 a8bd 4df5 01be
000002c0: 8071 fa3c 0cba 7abd fc84 ecbd 9f85 3cbe
000002d0: e7d7 d5bd d2ab 05be 5e36 153e e428 52bd
000002e0: eb0f 04bd 5e4d a03c 1ab9 943d 7e25 41be
000002f0: d429 ec3d 5cda 9c3d 3b0c f63c 9ff9 ecbd
00000300: cb87 0cbe 1f35 083e 5fc6 003e 21b0 15be
00000310: e4d1 1dbc 00d8 313a 48ed 59bd 6881 09be
00000320: 1f6b 87bc 9e7f 8ebd 8244 41be 7ba1 a83d
00000330: 10d9 93be 91d3 debc ba50 f1bc 0fd1 863e
00000340: 94ea 7bbd 4874 c63c 0a6a 91bd 4bdf 20bd
00000350: abe9 713e dd5e 1bbc 9b6a 023c bfaf 063e
00000360: 9b5c 133e c430 ebbd 1bae 163e 5f83 b4bd
00000370: 5c82 52be 015f 693c 3055 8d3e 3891 b6bd
00000380: bb54 26be 347c 85bc 9f14 89be fa3f 07be
00000390: 274b 1c3d 8f4a 3d3d 811c 3c3e 37a6 da3d
000003a0: e483 3b3e 58e8 05bc 2a8b 88be d31d f43e
000003b0: c91d 12bd 2a34 c8bd 7bd4 fe3d 4829 54bd
000003c0: cfb7 23be 26ec a0bd 91b5 803d 004a 83bd
000003d0: e7d8 28bd b838 23be d0ad 6a3d 409a b13d
000003e0: 9f9a fc3d 3f7a a43e 3015 42be 0ab7 13bd
000003f0: 531c a73d e0a4 6bbc bec1 b7bd b73e d8bd

fc2.bias f4 [16]
0.03760968 -0.020798791 -0.080947176 0.08601716 0.1339459 0.20351791 -0.098931946 0.17083247
0.27732077 -0.03704524 -0.12124831 -0.12901694 -0.012201076 -0.17182638 -0.333903 -0.122267954
00000000: 9c0c 1a3d 3a62 aabc a2c7 a5bd c429 b03d
00000010: 1d29 093e 0067 503e d59c cabd b5ee 2e3e
00000020: fdfc 8d3e c0bc 17bd 0951 f8bd 041d 04be
00000030: 06e7 47bc 41f3 2fbe 56f5 aabe 9f67 fabd

fc3.weight f4 [64, 16]
-0.027211767 -0.14479768 0.039683055 0.086962186 0.00036763388 0.22089428 -0.10387011 -0.080545194
-0.026285173 0.10848923 0.19018666 0.09209706 0.056463007 -0.15778479 0.19096287 0.10136835
0.124308504 -0.15232487 -0.2243279 0.02190868 -0.0005886547 -0.1672617 -0.055249482 -0.19762938
-0.04648053 -0.1533836 0.12218698 0.056082472 0.025505202 0.23252974 -0.09129102 0.23169227
0.10870232 -0.20111813 0.10770337 0.049558163 0.042085618 -0.112675786 0.18317907 -0.278306
-0.06175151 -0.057547558 0.12422002 -0.18250889 0.03325138 -0.20859356 -0.083799414 -0.003999848
-0.11821134 -0.25040066 -0.29894492 0.31089684 -0.28597587 -0.17829382 -0.23721209 0.20793535
0.23894857 0.19548665 0.1905602 0.20071287 -0.26569447 0.27199674 0.00799056 0.20825057
0.10035137 -0.038554605 -0.13108973 0.016708372 -0.1835902 -0.08181998 0.20565145 0.047370903
-0.23318149 0.1544828 -0.054459378 0.20720857 -0.1417284 -0.12854524 -0.20134853 -0.03821474
-0.23373204 -0.18673141 -0.35804 -0.30877343 0.0145533625 0.073617406 0.028120581 -0.35865048
-0.08086146 0.16085698 0.12295249 0.16466857 -0.23257495 -0.025082488 -0.62939954 -0.24244124
-0.25363162 -0.05907876 -0.11644891 0.23227687 0.07115221 0.040696997 -0.16707392 -0.081581496
-0.2557677 -0.118616715 0.28152886 -0.03160589 0.06324082 0.118796565 -0.04825111 0.11787817
-0.087831475 -0.012376553 -0.28889972 0.09659571 -0.10654901 -0.24985524 -0.2093127 -0.12250815
0.0873 0.18807556 -0.16153912 -0.24958816 0.00269045 -0.015513963 0.02486586 0.102569304
0.16352691 -0.036974672 -0.13499467 0.12510094 0.075120814 -0.42998394 0.093216494 -0.08165352
0.19226223 -0.24592027 -0.0646207 -0.14883241 0.14772242 0.006995558 -0.0005324928 -0.05342144
-0.10919899 0.009366116 -0.031010345 -0.16591519 -0.16841799 -0.04951948 -0.1552647 -0.38444427
-0.46635398 -0.18323183 0.2535441 0.12283037 -0.26507196 -0.3281022 0.01750143 -0.03185617
0.11859349 0.13951345 0.2179681 0.23635557 0.21101859 0.1358387 0.10932183 -0.041460294
-0.304136 0.15874591 0.080232255 0.19588539 0.022478387 0.01350095 -0.032042217 0.007582864
0.17617726 0.12809864 -0.044065237 -0.34384838 -0.1581779 -0.09721185 0.090426095 -0.13984759
-0.15270169 0.116312295 -0.106466986 -0.14663348 -0.38093463 -0.001650042 0.0002547209 -0.061093297
-0.15027763 0.15689628 -0.03932578 0.066281326 0.027993556 -0.14449176 0.01388064 -0.037521623
-0.23884769 -0.107562974 -0.12812482 -0.27831674 -0.04658792 0.14370424 -0.21726893 0.13644984
0.2050868 0.08197543 -0.114878535 -0.14480159 -0.14089617 -0.17521225 -0.13520381 -0.08669066
0.05281736 0.09697389 0.01538825 -0.0921008 -0.1487184 -0.20639399 -0.13645127 -0.19301587
0.28516722 0.12278444 0.0812625 0.26158735 0.02038894 -0.07171645 0.018492363 -0.21832268
-0.029069375 0.18285772 -0.20563388 0.09517355 0.038043305 0.34678718 -0.06008667 0.15153176
-0.06521587 0.14239888 0.13385181 -0.13760379 0.0741718 -0.29460138 0.23333143 0.03852678
-0.31743526 0.18024808 -0.11355144 0.14051074 -0.12665448 0.06906599 -0.0071593677 -0.25163987
00000000: 36eb debc d845 14be b38a 223d 3b19 b23d
00000010: fcbe c039 1c32 623e dab9 d4bd e1f4 a4bd
00000020: 0154 d7bc 9a2f de3d 4bc0 423e 629d bc3d
00000030: c145 673d 5692 21be c58b 433e 369a cf3d
00000040: 7595 fe3d 0dfb 1bbe 37b6 65be d579 b33c
00000050: f34f 1aba a746 2bbe 484d 62bd 5b5f 4abe
00000060: 5e62 3ebd 9710 1dbe 2b3d fa3d bcb6 653d
00000070: 49f0 d03c 471c 6e3e c9f6 babd bd40 6d3e
00000080: 529f de3d e9f1 4dbe 9693 dc3d 80fd 4a3d
00000090: f861 2c3d 90c2 e6bd 4b93 3b3e 207e 8ebe
000000a0: 27ef 7cbd fdb6 6bbd 1167 fe3d 9ce3 3abe
000000b0: 9932 083d 8d99 55be 079f abbd 2811 83bb
000000c0: c918 f2bd 8434 80be 4f0f 99be df2d 9f3e
000000d0: 6e6b 92be a892 36be bae7 72be 01ed 543e
000000e0: efae 743e a72d 483e 3722 433e ad87 4d3e
000000f0: 1b09 88be 2843 8b3e d6ea 023c a33f 553e
00000100: 0585 cd3d 6feb 1dbd 633c 06be ffdf 883c
00000110: 12ff 3bbe 3c91 a7bd 4b96 523e fe07 423d
00000120: 21c7 6ebe bd30 1e3e cc10 5fbd 7c2e 543e
00000130: 4021 11be 5da1 03be 4f2e 4ebe 0f87 1cbd
00000140: 7457 6fbe 8536 3fbe 0551 b7be 8d17 9ebe
00000150: 3a71 6e3c b9c4 963d 225d e63c 09a1 b7be
00000160: b19a a5bd b1b7 243e 84ce fb3d e19e 283e
00000170: 2128 6ebe ca79 cdbc 5420 21bf 8442 78be
00000180: 01dc 81be 92fc 71bd c47c eebd fdd9 6d3e
00000190: 40b8 913d e5b1 263d 6d15 2bbe 3314 a7bd
000001a0: fcf3 82be 52ed f2bd 8d24 903e 2d75 01bd
000001b0: 6784 813d 9d4b f33d f5a2 45bd 1c6a f13d
000001c0: fde0 b3bd 07c7 4abc aaea 93be f9d3 c53d
000001d0: 5e36 dabd 0dda 7fbe 1256 56be 8ee5 fabd
000001e0: 58ca b23d e196 403e 836a 25be 0a94 7fbe
000001f0: 4352 303b 472e 7ebc 7db3 cb3c db0f d23d
00000200: 9973 273e c172 17bd 0b3c 0abe 761a 003e
00000210: f1d8 993d db26 dcbe 4ae8 be3d f639 a7bd
00000220: 64e0 443e 86d2 7bbe dc57 84bd 8667 18be
00000230: 8c44 173e fe3a e53b fd96 0bba 71d0 5abd
00000240: b8a3 dfbd 5674 193c 6809 febc ace5 29be
00000250: c475 2cbe f0d4 4abd b6fd 1ebe e1d5 c4be
00000260: f3c5 eebe 20a1 3bbe 88d0 813e 7d8e fb3d
00000270: 83b7 87be 03fd a7be 295f 8f3c 9e7b 02bd
00000280: 25e1 f23d 9ddc 0e3e 0833 5f3e 3207 723e
00000290: 4215 583e 4d19 0b3e 20e4 df3d 45d2 29bd
000002a0: b7b7 9bbe 4a8e 223e cf50 a43d 2e96 483e
000002b0: 9824 b83c 1733 5d3c b33e 03bd ac79 f83b
000002c0: d067 343e 4a2c 033e c07d 34bd e50c b0be
000002d0: 63f9 21be 0217 c7bd 5131 b93d 3534 0fbe
000002e0: d55d 1cbe 2435 ee3d 5d0b dabd 1627 16be
000002f0: dd09 c3be 3946 d8ba 0f8c 8539 f73c 7abd
00000300: 61e2 19be 6ba9 203e 1214 21bd 81be 873d
00000310: be52 e53c a6f5 13be a06b 633c 46b0 19bd
00000320: 7d94 74be fa49 dcbd 2733 03be 887f 8ebe
00000330: fad2 3ebd 3427 133e bf7b 5ebe 82b9 0b3e
00000340: 4602 523e bce2 a73d 7045 ebbd de46 14be
00000350: 1647 10be d76a 33be de72 0abe df8a b1bd
00000360: 0457 583d 3f9a c63d 001f 7c3c 589f bcbd
00000370: a349 18be f258 53be e2b9 0bbe f4a5 45be
00000380: 7001 923e 6976 fb3d f46c a63d c7ee 853e
00000390: b506 a73c 13e0 92bd 4c7d 973c fb8f 5fbe
000003a0: e622 eebc 0e3f 3b3e b091 52be 5aea c23d
000003b0: 4cd3 1b3d 178e b13e 711d 76bd 242b 1b3e
000003c0: e68f 85bd 03d1 113e 7310 093e 02e8 0cbe
000003d0: 62e7 973d fed5 96be 6fee 6e3e 42ce 1d3d
000003e0: e086 a2be f492 383e a88d e8bd 0ce2 0f3e
000003f0: b6b1 01be 7872 8d3d 2199 eabb f1d6 80be

fc3.bias f4 [64]
0.5013264 -0.024807593 -0.14466926 0.30206132 -0.04431731 -0.72014433 0.38090062 -0.54894763
-0.14906608 0.11056546 0.33232233 -0.038077924 -0.22619006 -0.2912212 0.03181134 0.02788363
0.12899728 -0.34352747 -0.5019174 -0.38879862 0.40476894 -0.23800172 -0.0181737 -0.56537503
-0.10255166 0.17440286 -0.33005908 -0.16225566 -0.16337985 0.2394591 0.59476626 -0.6302902
-0.12572984 0.54104614 0.26654714 -0.008234584 -0.08357937 -0.11906805 0.25880107 -0.27958134
-0.068546854 -0.64182574 -0.35564145 -0.29171568 -0.002376743 0.35993627 -0.031194553 0.113702394
-0.15359685 -0.12120422 -0.2440934 -0.05009295 0.36685276 0.43765682 -0.3310195 -0.072161146
-0.26813158 0.12939534 -0.063333444 0.25669077 -0.7337034 0.052276213 -0.19352283 0.37503722
00000000: ed56 003f 4b39 cbbc 2e24 14be c8a7 9a3e
00000010: 1186 35bd 615b 38bf 6805 c33e d587 0cbf
00000020: c7a4 18be 2570 e23d 2726 aa3e 99f7 1bbd
00000030: 5e9e 67be f21a 95be 9c4c 023d 366c e43c
00000040: dd17 043e d5e2 afbe a97d 00bf 9d10 c7be
00000050: e03d cf3e b9b6 73be 03e1 94bc 6bbc 10bf
00000060: 9b06 d2bd aa96 323e 81fd a8be 5926 26be
00000070: 0c4d 27be c434 753e 9a42 183f b35a 21bf
00000080: 53bf 00be 0082 0a3f de78 883e 59ea 06bc
00000090: a92b abbd f3d9 f3bd 9381 843e 4925 8fbe
000000a0: 4b62 8cbd b14e 24bf a316 b6be c25b 95be
000000b0: 21c3 1bbb 9149 b83e b88b ffbc cddc e83d
000000c0: 7e48 1dbe eb39 f8bd 9ff3 79be 442e 4dbd
000000d0: 20d4 bb3e 8e14 e03e 637b a9be 39c9 93bd
000000e0: 8b48 89be 3680 043e f7b4 81bd f96c 833e
000000f0: fcd3 3bbf 951f 563d d92a 46be e104 c03e

fc4.weight f4 [1, 64]
-0.11393648 0.016145287 0.02271434 0.098402046 -0.0022043106 0.33282056 -0.050050143 0.046290632
0.036936417 -0.0006916685 -0.0777478 0.016069518 -0.00042561456 -0.028238581 0.03325309 0.0031027016
0.0020126456 -0.011529332 0.091869645 0.019166784 -0.06432464 0.007230218 -0.05114626 0.19172499
0.0047847466 0.004549388 0.010036533 -0.0031308704 0.0047795884 -0.1072638 -0.11233323 0.19653937
0.023471855 -0.116031 -0.22192277 0.0032945313 -0.06012735 -0.015544279 0.13846746 -0.034785487
0.047442693 0.2962757 0.09138054 0.005152634 -0.00084869575 0.11919454 -0.012150654 -0.07066411
0.015622913 0.02802197 -0.013921851 -0.003756549 -0.18304394 -0.06965624 0.015635053 -0.01889374
0.003439238 -0.06305052 -0.009361814 -0.084619164 0.30180156 -0.003626709 -0.019404456 -0.00982164
00000000: 8757 e9bd 1f43 843c 6c13 ba3c 0387 c93d
00000010: 3276 10bb 7567 aa3e 6101 4dbd 3f9b 3d3d
00000020: a44a 173d 1651 35ba 3d3a 9fbd 39a4 833c
00000030: 0525 dfb9 9954 e7bc 6434 083d b256 4b3b
00000040: 97e6 033b 86e5 3cbc 2726 bc3d a903 9d3c
00000050: a3bc 83bd 77eb ec3b be7e 51bd 8e53 443e
00000060: 5dc9 9c3b 0813 953b 4570 243c 4a2f 4dbb
00000070: 189e 9c3b 20ad dbbd f70e e6bd 9e41 493e
00000080: 0c48 c03c a9a1 edbd b93f 63be 10e9 573b
00000090: 1948 76bd 6ead 7ebc 6aca 0d3e 3a7b 0ebd
000000a0: 4553 423d 73b1 973e b825 bb3d 6dd7 a83b
000000b0: 027b 5eba 441c f43d 8913 47bc 58b8 90bd
000000c0: 3ff7 7f3c 558e e53c 7a18 64bc 6f30 76bb
000000d0: df6f 3bbe eea7 8ebd 1515 803c 0bc7 9abc
000000e0: d764 613b a220 81bd 4b62 19bc d04c adbd
000000f0: bc85 9a3e 15ae 6dbb 18f6 9ebc f2ea 20bc
