models/py_SimpleFeedForwardNN_mdl_16-16-64_12_epochs_0-00100_lr_16_batch_202310261813.pth (torch, 11732 bytes, 7 tensors)

fc1.weight f4 [16, 18]
0	0x3dfd7076	0.12374966
1	0xbcfc5240	-0.030800939
2	0xbe289296	-0.16462168
3	0xbdca58ec	-0.09880242
4	0xbd92128c	-0.07132444
5	0x3c45f550	0.012082413
6	0x3dae8b22	0.08522631
7	0xbdf8f217	-0.1215555
8	0xbd346dd4	-0.044050053
9	0x3e6d1751	0.23153426
10	0xbe5839da	-0.21115819
11	0xbdebfff4	-0.115234286
12	0xbe6bdca3	-0.23033385
13	0xbe428944	-0.18997675
14	0xbdecfcf0	-0.115716815
15	0xbddd4766	-0.10804634
16	0x3b60b1c0	0.0034285635
17	0x3a9cc580	0.0011960715
18	0x3dadc07e	0.084839806
19	0xbe458c1e	-0.19291732
20	0xbda4ecb8	-0.08052963
21	0xbcb4d00b	-0.022071859
22	0x3de9cb77	0.11415761
23	0xbde48e6a	-0.11159976
24	0x3e174073	0.14770679
25	0x3cddb9b5	0.027066091
26	0xbe60a99b	-0.219397
27	0x3e006cc0	0.12541485
28	0xbd94991a	-0.07255764
29	0xbe519b62	-0.2046943
30	0xbd75bb53	-0.0599931
31	0x3e7a2f6a	0.2443215
32	0xbbdd851f	-0.006760254
33	0xbd1984d3	-0.037480187
34	0x3de766bb	0.11298891
35	0xbde6fe8b	-0.11279019
36	0x3e8ac35b	0.2710217
37	0xbd2bca79	-0.04194114
38	0xbe54b507	-0.20772181
39	0xbca24f44	-0.019813187
40	0x3e09e8a3	0.1346765
41	0xbe8f44fa	-0.27982312
42	0xbec33c91	-0.38132146
43	0x3f02ff72	0.5117103
44	0x3f1ff3be	0.62481296
45	0x3f35b49c	0.70978713
46	0xbd14d9f5	-0.036340673
47	0x3f077f55	0.5292867
48	0xbe34a92f	-0.17642663
49	0xbf7127ed	-0.94201547
50	0xbec957bc	-0.3932475
51	0x3eef995f	0.467967
52	0xbe98bb40	-0.2983036
53	0xbec6bfcc	-0.38818204
54	0xbb7f9c95	-0.0039003242
55	0x3cfa237a	0.030534495
56	0xbc547098	-0.012966298
57	0x3e82f7e8	0.25579762
58	0xbddd90fd	-0.1081867
59	0xbe3e204a	-0.18567005
60	0x3d930435	0.07178537
61	0xbf8297fe	-1.0202634
62	0xbf285a8e	-0.65763175
63	0xbf9ba243	-1.2158893
64	0x3db9495b	0.090471946
65	0xbe9c2a94	-0.30501235
66	0x3f55261e	0.8326129
67	0x3fa69477	1.3014058
68	0x3fa1a2da	1.2627823
69	0x3df7cb8c	0.1209937
70	0xbdbc67ad	-0.09199462
71	0xbe325124	-0.17413765
72	0x3d5eb75c	0.054374084
73	0x3d0721cd	0.03299122
74	0xbe83a4a0	-0.25711536
75	0x3e7b52d9	0.24543323
76	0x3d98a56f	0.07453429
77	0x3db811e3	0.089877866
78	0x3cd47242	0.025933389
79	0x3f6d0164	0.92580247
80	0x3f1593b4	0.584285
81	0x3f2fd425	0.6868308
82	0xbe7f94b1	-0.24959065
83	0x3e257c73	0.16160755
84	0xbf807d17	-1.0038174
85	0xbfa47332	-1.2847655
86	0xbffdcdd0	-1.9828434
87	0x3e7d88c8	0.24759209
88	0xbdca3584	-0.098734885
89	0xbe1d2263	-0.15345149
90	0xbdb92053	-0.090393685
91	0xbe1ced36	-0.15324864
92	0x3d7b7b6a	0.061396994
93	0xbe535c9e	-0.206408
94	0x3d80ad55	0.062830605
95	0xbd4ef805	-0.0505295
96	0x3e01636d	0.12635584
97	0xbe053373	-0.13007908
98	0xbe0215cb	-0.12703626
99	0x3ecc81ae	0.39942688
100	0x3eb1c62a	0.347215
101	0xbe6dcbe9	-0.23222317
102	0x3f0c7a3b	0.5487401
103	0x3fe8a140	1.817421
104	0x3f80fb64	1.0076718
105	0xbe62d320	-0.2215085
106	0x3ea2df78	0.31811118
107	0xbd2641c7	-0.040590074
108	0xbe366e99	-0.17815627
109	0xbcbb4b30	-0.022863
110	0xbe69fc2c	-0.22850102
111	0x3d039f64	0.03213443
112	0xbd19f5d8	-0.03758797
113	0xbdc3b78e	-0.09556495
114	0x39c51000	0.0003758669
115	0xbe34c3e6	-0.17652854
116	0xbe47398f	-0.1945555
117	0xbd427c6c	-0.04748194
118	0xbbe2e3e0	-0.0069241375
119	0xbe20baa6	-0.156962
120	0x3e207b95	0.15672143
121	0x3e290009	0.1650392
122	0xbe128a7c	-0.1431064
123	0x3e6803d1	0.22657706
124	0x3e315837	0.17318808
125	0xbe193d6a	-0.14964834
126	0xbe17bcfd	-0.14818187
127	0xbdede35b	-0.1161563
128	0x3e604b67	0.21903764
129	0xbdfe0667	-0.12403565
130	0x3d1f0dd8	0.03883156
131	0xbe58cd62	-0.21172097
132	0xbdafb5b7	-0.08579581
133	0xbe1fa47b	-0.15590088
134	0x3f0b0943	0.5431101
135	0xbec8bebf	-0.39208028
136	0xbf128388	-0.5723195
137	0xbe47627a	-0.1947116
138	0xbe315698	-0.17318189
139	0xbfda83ac	-1.7071433
140	0xbfb62f77	-1.4233235
141	0xbd45fc6c	-0.04833643
142	0xbdf4939b	-0.11942216
143	0xbaf52485	-0.00187029
144	0x3e99a162	0.30005938
145	0x3ba14731	0.0049218168
146	0x393d4fc2	0.00018054157
147	0x3e178fdd	0.14800973
148	0xbe062e11	-0.1310351
149	0xbe9683f7	-0.29397556
150	0x3d3d9feb	0.046295088
151	0xbf9cf5d4	-1.2262521
152	0xbf0c191a	-0.547258
153	0xbecb31ed	-0.39686528
154	0x3f0f5aff	0.55998224
155	0xbe57b9c7	-0.21066962
156	0x3fa77a00	1.3084106
157	0x3faaac04	1.3333745
158	0x3fedb2b9	1.8570167
159	0x3da91ce2	0.08257462
160	0xbea5e122	-0.32398325
161	0x3c13ae8b	0.009013782
162	0x3e10a8be	0.1412687
163	0x3cabf0b9	0.020988809
164	0x3c915609	0.01774122
165	0xbe713d7e	-0.23558614
166	0x3e05d530	0.13069606
167	0xbe0a0e2c	-0.13481969
168	0xbe975b30	-0.29561758
169	0xbf8b6fa2	-1.0893443
170	0xbf3d127e	-0.7385634
171	0x3e3fe277	0.18738733
172	0x3f0ce22a	0.550326
173	0xbebac00c	-0.36474645
174	0x3f83b156	1.0288494
175	0x3fc81771	1.5632154
176	0x4008df5d	2.138633
177	0x3dbf3e26	0.09338026
178	0x3e0602a6	0.13086948
179	0xbe90c107	-0.28272268
180	0x3e19fef5	0.15038665
181	0xbe935228	-0.28773618
182	0xbca97c96	-0.02068929
183	0xbc205dd3	-0.009787994
184	0xbe0ec3d4	-0.1394189
185	0xbdd3e1e8	-0.103458226
186	0x3e38544d	0.18000908
187	0xbd4caae9	-0.04996768
188	0x3de99594	0.11405483
189	0xbccee122	-0.025253836
190	0xbe8aa271	-0.27077058
191	0xbe21e629	-0.15810455
192	0x3e4cd6cc	0.20003814
193	0x3ea8bc66	0.32956237
194	0xbe650df6	-0.22368607
195	0xbe513960	-0.20432043
196	0x3c0b85b0	0.00851576
197	0x3e59e65a	0.21279278
198	0xbe158c43	-0.14604287
199	0x3b3af30a	0.002852621
200	0xbea4bb7f	-0.32174298
201	0xbdd251c6	-0.10269503
202	0xbe773335	-0.24140628
203	0x3e9279f5	0.2860867
204	0x3e2642cb	0.16236417
205	0x3f02feb0	0.5116987
206	0x3dcf4d65	0.10122184
207	0x3e1c2022	0.15246633
208	0xbcd2280a	-0.025653858
209	0x3cc03af0	0.023465604
210	0xbe8f7886	-0.2802164
211	0xbd85a0a2	-0.06524779
212	0xbf43dffa	-0.76513636
213	0x3d59a66d	0.05313723
214	0xbd358dce	-0.04432469
215	0x3e4fb0fb	0.20282356
216	0xbebae3e5	-0.36501995
217	0x3cd13e22	0.025542323
218	0x3e11e9d6	0.14249358
219	0x3af5432d	0.0018712037
220	0x3e803d0d	0.25046578
221	0x3d8e44f5	0.06946746
222	0x3e0f6146	0.1400195
223	0xbfabe858	-1.3430281
224	0xbf45fbfb	-0.77337617
225	0xbf3567f0	-0.7086172
226	0xbc8a589b	-0.016887954
227	0xbe92b1f4	-0.28651392
228	0x3f76dc1b	0.96429604
229	0x3ff3c46f	1.9044322
230	0x3fd85ba8	1.6902971
231	0xbd1c2e15	-0.038129885
232	0xbba306ae	-0.0049751615
233	0x3e8241ac	0.2544073
234	0xbe4f2dc1	-0.20232297
235	0x3bee389c	0.007269932
236	0xbd6f100b	-0.05836491
237	0xbe6fd654	-0.23421603
238	0x3e1dbab3	0.15403251
239	0xbd901280	-0.070347786
240	0x3de1c072	0.11023034
241	0xbeb61c17	-0.35568306
242	0xbedd0a8c	-0.4317211
243	0x3ee9d9db	0.45674023
244	0x3f0f7821	0.5604268
245	0xbe39c52a	-0.18141618
246	0x3f54362e	0.8289517
247	0x3f55ecce	0.8356446
248	0x3ff379cc	1.9021544
249	0x3d651cfb	0.05593584
250	0x3d47b970	0.04876083
251	0xbe4830b4	-0.19549829
252	0x3ed29aae	0.41133636
253	0x3d0a10fa	0.033707596
254	0xbebad6ac	-0.36491907
255	0x3d99531f	0.07486557

fc1.bias f4 [16]
0	0x3e2c9aff	0.16856001
1	0xbd871107	-0.065950446
2	0x3e2b8a33	0.16751938
3	0xbe2fb77e	-0.1715984
4	0x3d3e8889	0.04651693
5	0xbe15562e	-0.14583656
6	0xbe36c9a9	-0.17850365
7	0x3e74f65a	0.239221
8	0x3e3e61ad	0.18591948
9	0x3dde7514	0.10862175
10	0xbe2d319e	-0.16913459
11	0x3d816a3d	0.063190915
12	0xbc8a2382	-0.016862635
13	0x3da86c79	0.082238145
14	0x3e075d92	0.13219288
15	0x3aff5576	0.0019480425

fc2.weight f4 [16, 16]
0	0xbe72e37e	-0.23719594
1	0x3d1f32ed	0.038866926
2	0xbdb264f6	-0.08710663
3	0x3d9b23a2	0.07575156
4	0xbde98f5d	-0.114042975
5	0x3e36b053	0.178407
6	0x3e015c8e	0.12632963
7	0xbe9ace29	-0.30235413
8	0x3eb3334a	0.35000068
9	0x3e7756bc	0.2415418
10	0xbd22ce46	-0.0397475
11	0x3e02e1e4	0.12781483
12	0x3cffab2f	0.031209556
13	0x3e064a06	0.13114175
14	0xbe4978e0	-0.19675016
15	0xbe934910	-0.2876668
16	0x3c47a2a0	0.012184769
17	0xbdb303c3	-0.08740952
18	0x3d912737	0.07087558
19	0xbe89a72a	-0.2688535
20	0xbee6dc3b	-0.45089898
21	0x3c634c1c	0.013873126
22	0xbd14bc68	-0.03631249
23	0xbead08a8	-0.33795667
24	0x3e9d5671	0.30730012
25	0x3d950ffd	0.0727844
26	0x3dd0a89c	0.1018841
27	0xbe80bea9	-0.25145462
28	0x3d040666	0.032232665
29	0xbd916636	-0.07099573
30	0xbe07483b	-0.13211147
31	0x3e5b9a93	0.21445684
32	0x3c83c330	0.016084284
33	0xbc0f6b04	-0.008753542
34	0xbe24157f	-0.16023825
35	0x3d765920	0.06014359
36	0xbd72cbcd	-0.05927639
37	0x3d3f485d	0.04669987
38	0xbdcc1908	-0.09965712
39	0xbe29ffda	-0.16601506
40	0x3ebf66f7	0.37383243
41	0x3e14dc69	0.14537205
42	0xbc5d1d06	-0.013495689
43	0xbe877a67	-0.26460573
44	0x3e607832	0.21920851
45	0xbc23d0e1	-0.009998531
46	0xbe1f40ee	-0.15552112
47	0xbd77036c	-0.060305998
48	0x3daabbf0	0.083366275
49	0xbded7ca2	-0.115960374
50	0x3e862e1b	0.2620705
51	0xbe273d5a	-0.16331998
52	0x3c406544	0.011742894
53	0xbe325ed4	-0.17418987
54	0xbd4d7598	-0.050160974
55	0xbcca7314	-0.024713077
56	0xbd1775be	-0.036977522
57	0xba95cefc	-0.0011429484
58	0xbe2c7b57	-0.16843925
59	0xbc7d0acb	-0.015444468
60	0xbe47c06a	-0.19506994
61	0x3e26eab7	0.16300474
62	0x3ebbea2e	0.36702102
63	0x3d625ec3	0.055266153
64	0xbe673538	-0.22578895
65	0xbdb27af2	-0.08714856
66	0x3e00edbb	0.12590687
67	0x3db6abc3	0.0891948
68	0xbe70bb6b	-0.23508994
69	0xbe19dcd6	-0.15025648
70	0xbd82a164	-0.06378439
71	0x3c40a8a8	0.011758961
72	0xbc20f5b9	-0.00982421
73	0xbd8df924	-0.069322854
74	0x3b42380c	0.0029635457
75	0xbe75c8f2	-0.24002436
76	0xbdc91774	-0.098189265
77	0xbe162129	-0.14661087
78	0xbe529c7a	-0.20567504
79	0xbe47c918	-0.19510305
80	0xbd90e108	-0.07074171
81	0xbbdbb6e5	-0.0067051523
82	0xbaa8a386	-0.0012866117
83	0xbdfc841d	-0.12329886
84	0xbc6bcd52	-0.014392214
85	0xbcd9754d	-0.026545191
86	0x3d3681f8	0.04455754
87	0xbd9c0131	-0.07617415
88	0xbe79cf08	-0.24395382
89	0xbe934c9f	-0.28769395
90	0xbce071bc	-0.027397983
91	0xbe5603be	-0.20899865
92	0x3d7613e4	0.060077563
93	0xbe5342fa	-0.20631018
94	0x3d0e2cfd	0.034710873
95	0xbd3359a6	-0.043786667
96	0x3bbb0b40	0.005708128
97	0xbdfe3bdb	-0.1241376
98	0x3cbb455d	0.022860223
99	0xbeb73b9d	-0.3578767
100	0xbb3f3889	-0.0029177985
101	0xbe412eee	-0.18865559
102	0xbe15cae4	-0.14628178
103	0x3c65ac0c	0.01401807
104	0xbe2a4872	-0.16629198
105	0x3e113e2c	0.14183873
106	0xbda5406b	-0.080689274
107	0xb9210e83	-0.00015359563
108	0xbd309806	-0.04311373
109	0x3e3f3179	0.18671216
110	0xbe7c14c6	-0.246173
111	0xbecab20a	-0.39588958
112	0x3e7ac7d0	0.24490285
113	0xbc8d08e3	-0.017216152
114	0xbb455615	-0.0030111123
115	0xbe932bb0	-0.28744268
116	0xbdde12bc	-0.10843417
117	0x3e43c9c7	0.1911994
118	0x3dfe0f20	0.124052286
119	0xbe2b4d0c	-0.1672861
120	0xbe6c2f58	-0.23064935
121	0x3df9a943	0.12190487
122	0xbdb15e2c	-0.0866054
123	0x3e13c2de	0.14429805
124	0xbe95703c	-0.2918719
125	0x3e4c8b19	0.19974937
126	0x3e4c74eb	0.19966476
127	0xbcbd32d9	-0.023095535
128	0xbdbd3f90	-0.09240639
129	0xbe76ad60	-0.24089575
130	0xbdcd9154	-0.10037485
131	0xbdb86ff7	-0.090057306
132	0x3e3677e4	0.17819172
133	0xbe77f64b	-0.24215047
134	0xbcd50330	-0.026002496
135	0xbe69c28c	-0.2282812
136	0x3e0809ba	0.1328496
137	0x3dc33a53	0.09532609
138	0x3e48d0e4	0.19610935
139	0x3d9a4d2d	0.07534251
140	0xbe9a3b75	-0.30123487
141	0xbe687240	-0.22699833
142	0xbe5936f4	-0.21212369
143	0xbe8aa1cd	-0.2707657
144	0xbe029b9c	-0.12754673
145	0xbd2383fa	-0.039920785
146	0xbdc5b79f	-0.096541636
147	0x3e0c8a20	0.13724566
148	0x3e1c2664	0.1524902
149	0x3e3dbf17	0.18529926
150	0xbd934ff8	-0.07192987
151	0xbe1efbb0	-0.15525699
152	0x3eaa2cf4	0.33237422
153	0xbe957506	-0.29190844
154	0x3d8c5de3	0.06853845
155	0xbdcb7329	-0.099340744
156	0xbe2eb2dd	-0.17060418
157	0xbe65fbd8	-0.22459352
158	0xbe8ad919	-0.27118757
159	0x3e42155f	0.18953465
160	0xbd513b10	-0.051081717
161	0x3d2b0400	0.04175186
162	0xbddf1875	-0.10893337
163	0x3df33f76	0.118773386
164	0xbda25016	-0.079254314
165	0xbe5f9f94	-0.21838218
166	0x3e4b58b4	0.19858056
167	0xbe2c531c	-0.16828579
168	0xbdb0b79f	-0.08628773
169	0xbe4f8ffb	-0.20269768
170	0x3cca55e0	0.024699152
171	0xbe8b356a	-0.2718919
172	0xbe51b651	-0.20479704
173	0xbe8efac5	-0.27925697
174	0xbd3f378c	-0.046683833
175	0x3c79ca03	0.015245917
176	0x3e1b732e	0.15180656
177	0x3c0f8742	0.008760275
178	0xbe36b44c	-0.17842215
179	0x3e149e74	0.1451357
180	0xbe10737a	-0.14106551
181	0x3de0e5b9	0.10981316
182	0xbe512c30	-0.20427012
183	0x3e09e8d1	0.13467719
184	0xbea4d8ca	-0.32196647
185	0xbdf74c9d	-0.1207516
186	0xbe158682	-0.14602092
187	0x3e24e0f1	0.16101433
188	0xbe893e90	-0.26805544
189	0x3e5e2d30	0.21696925
190	0x3e117488	0.1420461
191	0xbe87cd6e	-0.26523918
192	0xbe302452	-0.17201355
193	0xbe3ba5b9	-0.18324937
194	0xbd53cf19	-0.051711176
195	0xbd004ac0	-0.031321287
196	0x3e03bcaa	0.12864938
197	0xbf270664	-0.65244126
198	0xbc9d8e20	-0.01923281
199	0xbe81da55	-0.25361887
200	0x3db0f434	0.08640328
201	0x3d882cf5	0.066492
202	0xbe001df7	-0.1251143
203	0x3db951cc	0.09048805
204	0xbd69bca1	-0.057064656
205	0xbce0d7d0	-0.027446657
206	0x3eb489ff	0.35261533
207	0xbda0790c	-0.07835588
208	0x3e0809a8	0.13284934
209	0x3ddc53b9	0.10758156
210	0xbe159250	-0.14606595
211	0xbd1002e6	-0.035159014
212	0xbce7a9ac	-0.028279148
213	0xbe698d15	-0.22807725
214	0xbde25588	-0.1105147
215	0x3d2f3cc0	0.042782545
216	0xbeac6fb2	-0.33678967
217	0xbe534c7f	-0.2063465
218	0x3ded9aae	0.116017684
219	0xbe87ce54	-0.26524603
220	0x3e7e2ffd	0.24822994
221	0xbe03aa00	-0.12857819
222	0xbe315b5d	-0.17320009
223	0xbe4fa931	-0.20279385
224	0xbd7ed020	-0.062210202
225	0x3e4ef1dd	0.20209451
226	0x3e214b71	0.15751435
227	0xbe8bd3ac	-0.2730993
228	0xbea53943	-0.3227025
229	0xbd868cfd	-0.0656986
230	0xbba905c0	-0.005158156
231	0xbe90a3c8	-0.28249955
232	0xbdefaab4	-0.11702481
233	0xbb632662	-0.003466033
234	0x3e7708b8	0.2412442
235	0xbe0c14e3	-0.13679843
236	0x3d717c0f	0.058956202
237	0xbef9ee1a	-0.4881447
238	0xbe7d22ca	-0.24720302
239	0xbf04f3dd	-0.51934606
240	0x3e6e9a9a	0.23301163
241	0xbe605310	-0.21906686
242	0x3cc3fee7	0.023925258
243	0xbdc4cd74	-0.096094996
244	0xbe191baf	-0.14951967
245	0x3dad7a23	0.08470561
246	0x3e103dae	0.14086029
247	0xbe7ae99e	-0.2450318
248	0xbe1656ae	-0.14681503
249	0xbe47aad7	-0.19498764
250	0xbced8380	-0.028993368
251	0xbe1c5336	-0.15266117
252	0xbddb9439	-0.107216306
253	0x3e01140a	0.126053
254	0xbe78ab51	-0.24284102
255	0x3d23b3f0	0.039966524

fc2.bias f4 [16]
0	0x3ea80f90	0.32824373
1	0x3e27e0a5	0.16394289
2	0xbdd7dc60	-0.1054008
3	0x3db6050b	0.088876806
4	0xbdce7fd6	-0.100829765
5	0x3e0b3940	0.13596058
6	0x3e75d152	0.2400563
7	0xbcdddeee	-0.02708384
8	0xbe9c6bb3	-0.30550918
9	0x3e986d22	0.29770762
10	0xbc8569f0	-0.016285866
11	0xbed3fc78	-0.41403556
12	0xbe5adf19	-0.21374168
13	0x3e51dce7	0.20494424
14	0xbec81686	-0.39079684
15	0xbe295d6b	-0.16539542

fc3.weight f4 [64, 16]
0	0xbe945045	-0.2896749
1	0xbe6f0d56	-0.23344931
2	0x3d7dceac	0.061964676
3	0x3b118326	0.0022203415
4	0xbe6fa229	-0.23401703
5	0x3d858708	0.06519896
6	0x3e176fa3	0.1478868
7	0x3cd26a80	0.025685549
8	0xbaba1e71	-0.0014199746
9	0x3ce58bae	0.028020706
10	0x3e62b45e	0.22139117
11	0x3db6da32	0.08928336
12	0xbe98971a	-0.2980278
13	0xbe86fc3d	-0.26364318
14	0x3d79e459	0.061008785
15	0xbe64d02e	-0.22345039
16	0x3e0cc8ef	0.13748525
17	0xbdf3b64d	-0.119000055
18	0x3e79ba55	0.24387486
19	0xbdf95b4a	-0.12175615
20	0xbe0de866	-0.13858184
21	0x3d9b29b8	0.075763166
22	0x3ea36bd8	0.31918216
23	0x3df4b0df	0.11947798
24	0x3df61b29	0.12016899
25	0x3e2fe491	0.17177035
26	0xbde34c9d	-0.11098597
27	0xbe872ed2	-0.2640291
28	0x3e08ae2e	0.13347694
29	0x3d2cb5fb	0.042165738
30	0x3d903af7	0.07042497
31	0xbd353a3a	-0.044244982
32	0xbeef34b5	-0.467199
33	0xbde0d602	-0.10978319
34	0xbe20d57f	-0.15706442
35	0x3d345804	0.04402925
36	0x3e25a236	0.1617516
37	0x3e5a5057	0.2131971
38	0xbe5a0420	-0.21290636
39	0xbd5ec549	-0.054387365
40	0x3e5c7ab1	0.21531178
41	0xbe9a4e00	-0.30137634
42	0xbe2a7c7c	-0.1664905
43	0x3d0c1d6d	0.03420775
44	0xbe095a18	-0.13413274
45	0xbd8c6314	-0.06854835
46	0xbe3fd192	-0.18732288
47	0xbe792bc4	-0.24333102
48	0xbd398bcc	-0.045299336
49	0x3e83cccf	0.25742194
50	0xbc61aaba	-0.013773615
51	0xbebb7027	-0.36609003
52	0xbdc0dd26	-0.09417181
53	0x3ddc4bba	0.10756631
54	0xbdb72e03	-0.08944323
55	0xbebac405	-0.36477676
56	0xbe28290c	-0.16421908
57	0xbe9b9d60	-0.30393505
58	0x3d84c7e1	0.064834364
59	0xbe7b4d2e	-0.2454116
60	0xbeaf8e4e	-0.34288257
61	0x3e47b9a3	0.19504409
62	0xbda03c22	-0.078239694
63	0x3ddab5a8	0.106791794
64	0x3e871d9d	0.2638978
65	0x3d457c70	0.048214376
66	0xbe29bcbb	-0.16575901
67	0xbe6297e6	-0.22128257
68	0x3cd221ec	0.02565094
69	0x3d95c8d1	0.07313693
70	0x3d76a6ea	0.060217775
71	0x3e0b0c27	0.13578855
72	0x3e841b41	0.25802043
73	0x3e30d959	0.17270412
74	0x3e24b2c7	0.16083823
75	0xbd92a515	-0.07160393
76	0x3dc93bf3	0.098258875
77	0xbd9f0297	-0.07764166
78	0xbcc2e472	-0.023790572
79	0x3d754ab0	0.05988568
80	0x3bc685b4	0.006058419
81	0xbe83a7e7	-0.25714037
82	0xbd255667	-0.040365603
83	0x3da7a177	0.08185094
84	0xbc82cdab	-0.01596721
85	0x3dbd630b	0.092474066
86	0xbe1f54a6	-0.15559635
87	0xbbe85893	-0.007090637
88	0xbcc4b05a	-0.024009872
89	0x3d00600d	0.0313416
90	0x3d77bbfb	0.060482007
91	0x3d417b7e	0.047236912
92	0xbe75ae27	-0.23992215
93	0xbe1e9c2a	-0.1548926
94	0x3e430d5e	0.19048068
95	0xbe5f5a57	-0.21811806
96	0xbde5d00f	-0.11221325
97	0xbee12291	-0.43971685
98	0x3d6fe56b	0.0585684
99	0xbe1b77db	-0.1518244
100	0xbd21d8b0	-0.03951329
101	0xbe1c0f4d	-0.15240212
102	0xbe55dfde	-0.2088618
103	0x3bde0bc0	0.006776303
104	0x3d7ee1d7	0.062227096
105	0xbdacd176	-0.08438389
106	0xbe17006e	-0.14746258
107	0x3e41dc47	0.18931685
108	0xbdc7570a	-0.09733398
109	0x3e198132	0.1499069
110	0xbd310caa	-0.043224968
111	0xbe3780aa	-0.17920175
112	0x3e22283b	0.15835659
113	0x3dc50ede	0.09621976
114	0xbc07bd1d	-0.008284834
115	0xbe05b692	-0.13057926
116	0x3d5a8c40	0.05335641
117	0xbe30157c	-0.17195696
118	0x3e3481fb	0.17627709
119	0x3d99f5d4	0.07517591
120	0x3db9b8ba	0.09068437
121	0xbddf97c6	-0.1091762
122	0xbd93c4fd	-0.07215307
123	0x3c9702ca	0.018433947
124	0x3e5a0461	0.21290733
125	0xbedca02a	-0.43090945
126	0xbe52c2ca	-0.20582119
127	0x3d89bf8b	0.06725987
128	0xbe56f4d4	-0.20991832
129	0xbdd2b4fc	-0.10288426
130	0xbc38f50b	-0.011288892
131	0xbd722d91	-0.059125487
132	0x3e5d9cbd	0.21641822
133	0xbd9b8efc	-0.075956315
134	0x3e19567c	0.14974397
135	0x3b74fd52	0.0037382436
136	0xbc631c91	-0.013861791
137	0xbe932a5e	-0.2874326
138	0x3cabb1c7	0.020958794
139	0x3ab5d9d0	0.0013874117
140	0xbda76961	-0.08174396
141	0xbd171edf	-0.036894675
142	0xbe307dcf	-0.17235492
143	0x3de180f4	0.11010924
144	0x3e0d98bc	0.13827795
145	0xbe6577bf	-0.22408961
146	0xbe7bfe2d	-0.24608679
147	0xbe0a569f	-0.13509606
148	0xbe7cae70	-0.24675918
149	0xbe61609c	-0.2200951
150	0xbe80b424	-0.25137436
151	0xbe6e32b0	-0.23261523
152	0x3dd69c94	0.10479084
153	0xbe2b13cc	-0.1670677
154	0x3c410ca0	0.011782795
155	0x3db200ca	0.08691557
156	0x3c997f1e	0.018737372
157	0xbe823c8d	-0.25436822
158	0xbe69a860	-0.22818136
159	0xbe3b79ec	-0.18308228
160	0xbe8cecd9	-0.2752445
161	0x3cc0bfd0	0.023528963
162	0xbdc991bd	-0.098422505
163	0xbdf5a445	-0.119942226
164	0xbe1013d6	-0.14070067
165	0x3df1d5fd	0.11808393
166	0x3db23d00	0.08703041
167	0xbd09ab60	-0.0336107
168	0x3e353a07	0.17697917
169	0x3e520884	0.20511061
170	0xbe4ffb16	-0.20310625
171	0x3dd07825	0.10179166
172	0x3d907752	0.070540085
173	0xbe82203c	-0.25415218
174	0xbdb09154	-0.08621469
175	0x3de2166c	0.11039433
176	0xbe47547c	-0.19465822
177	0xbdcc659a	-0.099803165
178	0xbe427e14	-0.18993407
179	0xbe5cf85c	-0.21579117
180	0xbe80f8ad	-0.25189725
181	0xbcb202d4	-0.021729864
182	0xbe410cf6	-0.188526
183	0xbe07c498	-0.13258588
184	0x3b880e40	0.0041520894
185	0xbe3bd796	-0.18343958
186	0x3e5d31ee	0.21601078
187	0xbabb40bd	-0.0014286261
188	0x3d25937e	0.040423863
189	0x3bf95452	0.0076089287
190	0xbd2b71e8	-0.041856676
191	0xbe6148d6	-0.22000441
192	0x3afce649	0.0019294705
193	0xbe73fdda	-0.23827305
194	0x3d436849	0.047706876
195	0x3d2feb99	0.042949293
196	0x3e2ee6dd	0.17080255
197	0xbe04a468	-0.12953341
198	0x3d281425	0.041034836
199	0x3e631ad2	0.221782
200	0xbdd82078	-0.10553068
201	0xbe3f0949	-0.18655886
202	0x3e1b0452	0.15138367
203	0xbd65df4d	-0.05612116
204	0xbe2e259e	-0.17006537
205	0xbda4cf25	-0.08047322
206	0xbe98b8aa	-0.29828387
207	0x3e752eb0	0.23943591
208	0x3de547ee	0.1119536
209	0xbdc8f6b4	-0.0981268
210	0xbeb064d3	-0.34451923
211	0xbccd7d5f	-0.025084196
212	0xbc8a9ab7	-0.016919477
213	0x3e0b1ea0	0.13585901
214	0x3df29bab	0.118460976
215	0xbce6f89c	-0.028194718
216	0xbd3e092f	-0.046395477
217	0xbd4d93cb	-0.050189774
218	0xbb9f3780	-0.004858911
219	0xbe8cddf1	-0.27513078
220	0xbddedc95	-0.108819164
221	0x3d98b4fc	0.07456395
222	0xbe5e4260	-0.21705008
223	0x3e0293f4	0.12751752
224	0xbde58506	-0.11207013
225	0xbceb7d56	-0.028746288
226	0x3df088a6	0.117448136
227	0xbd8ec73e	-0.06971596
228	0x3e73b44d	0.23799248
229	0xbeaafb01	-0.33394626
230	0xbe9f24ff	-0.31082913
231	0x3dfb52c3	0.12271645
232	0x3d952eef	0.072843425
233	0xbec51206	-0.38490313
234	0x3e11592c	0.14194173
235	0x3cf736d3	0.03017751
236	0xbc0e1d48	-0.008673973
237	0x3da08b58	0.07839078
238	0xbe7ff159	-0.2499441
239	0x3e12172a	0.14266649
240	0x3d712a4d	0.05887823
241	0xbc59f2fc	-0.013302561
242	0x3d7f2756	0.062293373
243	0x3ccb22b9	0.02479683
244	0xbda557ad	-0.080733635
245	0x3d1efe3b	0.03881667
246	0xbea89638	-0.32927108
247	0xbeaf59a0	-0.34248066
248	0xbe8adb97	-0.2712066
249	0xbd7d726b	-0.061876696
250	0x3da26b0f	0.07930576
251	0xbd1daffc	-0.03849791
252	0x3e4f098a	0.20218483
253	0x3d9c9bc6	0.07646899
254	0x3d5e586d	0.05428355
255	0xbd333870	-0.043754995

fc3.bias f4 [64]
0	0xbe8429ec	-0.25813234
1	0x3f1023b6	0.5630449
2	0xbda75aab	-0.081715904
3	0xbee57dff	-0.4482269
4	0xbd8c2bff	-0.06844329
5	0xbeb012d5	-0.34389368
6	0x3dd13457	0.10215061
7	0x3e6632f9	0.22480382
8	0x3dcd3c72	0.10021295
9	0x3c8ba566	0.017046642
10	0xbe7bf1c7	-0.2460395
11	0xbe0d50b6	-0.1380032
12	0x3eec979e	0.46209425
13	0xbe022b22	-0.12711766
14	0xbf04768e	-0.517434
15	0xbf228549	-0.63484627
16	0x3dd69335	0.10477296
17	0x3e087a68	0.13327944
18	0x3ee04ef1	0.43810228
19	0x3da5982c	0.08085665
20	0xbe2514d2	-0.16121224
21	0xbf244afe	-0.6417693
22	0xbf5c3e0b	-0.8603217
23	0xbeee69ee	-0.46565193
24	0xbe9d8449	-0.30764988
25	0xbe0582df	-0.13038205
26	0xbe1e19ad	-0.15439482
27	0x3e37e555	0.17958577
28	0x3dfd3be7	0.12364941
29	0x3d0654fa	0.032795884
30	0x3d46b118	0.048508734
31	0x3df5366a	0.11973269
32	0xbd79c9a8	-0.06098333
33	0xbe1cb087	-0.15301715
34	0x3e960971	0.29304078
35	0x3e821bf1	0.25411943
36	0xbe70c815	-0.23513825
37	0xbea22bf3	-0.31674156
38	0x3e83a89f	0.25714585
39	0x3e116b5b	0.14201109
40	0xbe8bae70	-0.27281523
41	0xbd876acf	-0.06612169
42	0xbed287aa	-0.41119128
43	0x3e8e5708	0.27800775
44	0xbe046adc	-0.12931389
45	0x3e8e8375	0.2783467
46	0xbeb12d19	-0.3460472
47	0xbec3c328	-0.3823483
48	0xbf3a04e7	-0.7266373
49	0x3d3b7561	0.045766238
50	0x3ee9851a	0.4560936
51	0x3da74471	0.08167351
52	0xbf472223	-0.77786463
53	0x3c8fb86b	0.017543992
54	0x3f032132	0.5122253
55	0x3dfef2bb	0.12448641
56	0x3e2c453d	0.16823287
57	0x3db13759	0.08653135
58	0x3d9c998d	0.07646475
59	0xbe57793f	-0.21042345
60	0xbcfbbe71	-0.030730458
61	0x3cc756d8	0.024333403
62	0xbced2129	-0.028946476
63	0xbe2f8108	-0.17139065

fc4.weight f4 [1, 64]
0	0x3c8d9326	0.01728208
1	0xbe2cad67	-0.16863023
2	0x3ba0a43d	0.004902391
3	0x3d96c505	0.07361797
4	0xbd8c7147	-0.068575434
5	0x3cc479d5	0.023983875
6	0xbdf53c7a	-0.119744256
7	0xbddb5e22	-0.10711314
8	0x3b8cff6a	0.0043029087
9	0xbc32d4d6	-0.010915002
10	0xbd76ced5	-0.060255844
11	0xbc9a0f11	-0.018806012
12	0xbca5c652	-0.020236168
13	0xbdd47b8f	-0.103751294
14	0x3d837a88	0.06419855
15	0x3d8b796b	0.06810268
16	0xbe04388b	-0.12912194
17	0x3c1a433e	0.009415446
18	0xbe13141f	-0.14363144
19	0xbe111ff7	-0.1417235
20	0xbd1c673b	-0.038184386
21	0x3e7747fa	0.2414855
22	0x3e8859c2	0.2663098
23	0x3e4ad577	0.19807993
24	0xbcae0d35	-0.021246532
25	0x3c538d81	0.012912155
26	0x3d21d97c	0.03951405
27	0xbe50d309	-0.20393004
28	0xbca17f18	-0.019713923
29	0xbd384503	-0.04498769
30	0x3b6dfc01	0.0036313536
31	0xbd5a7203	-0.053331386
32	0xbc213d4d	-0.009841275
33	0x3c8186cc	0.015811346
34	0x3e84c6bc	0.25932872
35	0x3e037ba8	0.1284014
36	0x3af2fca2	0.0018538425
37	0xbca7eb90	-0.020498067
38	0x3dd4880e	0.10377513
39	0xbdebf622	-0.115215555
40	0xbc440c1b	-0.011965777
41	0xbd5c0746	-0.053717874
42	0xbb8c958a	-0.0042902874
43	0x3e01096f	0.12601255
44	0x3ca18657	0.019717379
45	0x3e90a816	0.2825324
46	0x3da7d86c	0.08195576
47	0x3d0d26b9	0.034460757
48	0x3e9e0269	0.30861214
49	0x3c8cac68	0.017172053
50	0xbd9b74f7	-0.07590669
51	0xbe0d141b	-0.13777201
52	0x3e98e500	0.29862213
53	0xbc861e96	-0.016372006
54	0xbdb5e4cc	-0.0888153
55	0x3dac556c	0.084147304
56	0xbe2756a0	-0.16341639
57	0xbcd5d3d8	-0.026101992
58	0xbda8fc13	-0.08251204
59	0x3c307799	0.010770702
60	0xbb679712	-0.0035337848
61	0x3e3e33f0	0.185745
62	0xbdb11210	-0.08646023
63	0x3b897d00	0.0041958094
