models/py_SimpleFeedForwardNN_mdl_64-64-64_12_epochs_0-00100_lr_16_batch_202310261757.pth (torch, 43220 bytes, 7 tensors)

fc1.weight f4 [64, 18]
000000 dc fa 2d bd 7e ff 56 be b8 73 91 be 05 40 ad bd
       -0.042475566 -0.209959 -0.284086 -0.084594764
000010 b5 80 ff bd ec f6 8b 3e 3b 98 87 3e 32 88 e2 3d
       -0.12475721 0.27336824 0.2648333 0.110611334
000020 af 71 c7 3e b7 05 22 3d dd 78 45 3e 5c ee 15 3d
       0.3895392 0.03955623 0.19284387 0.03660427
000030 25 0e 8f 3e 72 83 45 3e ec cb a7 3e 8f 19 ef bd
       0.2794048 0.19288424 0.32772768 -0.11674797
000040 dc f6 2a 3e 50 6a 2c 3e e5 4b 35 bf ad 1e 30 3c
       0.16695732 0.1683743 -0.7081893 0.010749501
000050 6c 3a 85 3d 53 a1 1d bb 75 e1 eb 3d 18 eb 46 3e
       0.06505284 -0.0024052456 0.11517612 0.19425619
000060 bd 09 86 3e 60 bf 57 be ba d4 12 3e b7 57 24 bf
       0.26179305 -0.21069098 0.14338961 -0.6419634
000070 24 f4 08 bf a8 99 89 be 7a 93 45 bf 67 8f 6a bf
       -0.5349753 -0.26875043 -0.77178156 -0.91625065
000080 c9 46 bb bf 30 22 ab be 9d 5d fe 3e 98 aa 99 3e
       -1.4630977 -0.3342452 0.49680796 0.30012965
000090 fb 4b 63 3e 3f 94 c0 bc ac ac 1d be 2c c5 9b 3d
       0.22196953 -0.02350819 -0.153979 0.07605967
0000a0 ba 78 77 be 19 65 9c be ea 48 16 3e ba 4c 7e bf
       -0.24167147 -0.3054588 0.14676252 -0.99335825
0000b0 69 64 12 be e9 e4 8b be 9d aa 81 3e 0b a5 ac be
       -0.14296116 -0.27323082 0.2532548 -0.33719668
0000c0 8a 69 3c 3f db 0c 57 3f d6 9f a9 3f 76 e4 07 3e
       0.7359854 0.8400399 1.3251903 0.13270745
0000d0 3d 42 59 bd d1 2e 96 3c bb 62 fe 3d 67 29 00 bf
       -0.053041685 0.01833287 0.12421175 -0.50063175
0000e0 00 ae 47 be e3 13 2f 3d 7c 4b 83 3e 00 da 07 3e
       -0.1949997 0.042743575 0.25643528 0.13266754
0000f0 4d d1 a5 3e f7 5d 67 3d 34 f8 01 be f4 15 64 3e
       0.32386246 0.056486096 -0.12692338 0.22274
000100 0c d6 bd 3c f9 35 b5 bd ca a7 01 3f 93 a4 80 3c
       0.023173355 -0.08848185 0.5064665 0.015703475
000110 a4 69 a0 bc c8 c6 8d be 22 b4 74 3e c7 d7 ae 3e
       -0.019581623 -0.2769072 0.2389684 0.34149
000120 d4 71 76 be 3f 01 99 3b 63 e8 d8 3d 68 43 24 3d
       -0.2406686 0.004669338 0.10591199 0.040103346
000130 c6 f9 9d 3e 9b 21 aa bc fb c5 85 3e 98 f6 da 3e
       0.30854625 -0.020767977 0.2612761 0.4276626
000140 59 d6 74 3d a4 73 65 be 0b 2f 2e bf ea e4 af 3d
       0.05977473 -0.22407395 -0.6804053 0.08588584
000150 d6 ec 93 bf 9a ad 59 bf e3 0d c1 bf ee 44 af be
       -1.1556652 -0.8503052 -1.5082363 -0.34232277
000160 11 d6 9d 3e 8f 15 60 3e 53 53 02 bf 7e 98 ec 3b
       0.30827382 0.21883224 -0.5090839 0.007220327
000170 94 58 6e 3b 50 ae 2b be 95 d8 68 be ff bc 2a 3e
       0.0036368715 -0.16765714 -0.2273887 0.16673659
000180 de 99 3b 3d 15 b0 16 be 0e 6d 14 be 8f cb 9f be
       0.045801036 -0.14715607 -0.14494726 -0.3120999
000190 5e 4d a8 be d8 be 57 be 4f 0b 1f bf aa 8e 73 be
       -0.32871526 -0.21068895 -0.6212663 -0.23784891
0001a0 32 69 35 bf bb 4d 63 be 8d 00 b8 3e 95 c2 c7 3e
       -0.7086364 -0.2219762 0.3593792 0.39015642
0001b0 73 0d 66 bc 1e 77 d8 3b d9 4a 14 3d ed 7a 47 bd
       -0.0140412925 0.0066059968 0.036204193 -0.048701216
0001c0 f4 11 8f 3d 45 9a b6 be 4d 73 1a 3d 4f 08 6e bf
       0.06985846 -0.35664573 0.037707616 -0.9298143
0001d0 b1 5c 48 bf 3b 3b 11 be 18 26 07 3f 0d 06 cc be
       -0.78266436 -0.14182751 0.527925 -0.39848366
0001e0 27 2f ad 3f 3c 25 e3 3f 11 00 da 3f cc 9d 09 3e
       1.3530015 1.7745738 1.703127 0.13439101
0001f0 15 44 2b be f7 a4 6b be 0a 52 05 bf c3 d9 1b 3d
       -0.1672519 -0.23012148 -0.52078307 0.03804947
000200 b6 23 57 be 95 17 b5 be 59 db 88 3d 09 c0 df be
       -0.21009716 -0.35369554 0.06682462 -0.437012
000210 e5 60 bc be f6 32 cd bf 78 7d 47 bf 9b 2e 81 bf
       -0.36792675 -1.6031177 -0.77925825 -1.0092348
000220 37 5e eb 3d 8b dd 3f bd 43 7b b9 3f cc 69 8c 3f
       0.114925794 -0.04684214 1.4490741 1.0969787
000230 00 fc d0 3f 19 c9 8e 3e 29 51 75 bd f6 3a 0e be
       1.6326904 0.278878 -0.059891853 -0.1388968
000240 ec 66 94 be fc c7 2e be 79 95 1b bd 18 83 82 3d
       -0.28984773 -0.17068475 -0.037984345 0.063726604
000250 bc cd b9 be d5 e9 9d 3e 45 b6 96 3e 39 f3 8d be
       -0.36289775 0.30842462 0.29435936 -0.27724627
000260 01 23 a6 3e af 7a 56 bd b6 fc 31 bd 29 07 c7 be
       0.3244858 -0.052363094 -0.043453895 -0.3887265
000270 22 9e 0c 3d 78 7f ff 3d db 00 15 bd e0 ca 98 bd
       0.034330495 0.124754846 -0.03637777 -0.0746057
000280 67 be f0 3b 15 1f 22 3e e0 70 be be ba 20 d3 bd
       0.0073469165 0.1583217 -0.37195492 -0.103089765
000290 d8 08 17 3b 04 6b 86 be 0b bf 90 bd ba 29 98 3d
       0.0023046043 -0.2625352 -0.070676886 0.07429834
0002a0 9b d2 25 3d 7c fd 8b be 31 69 f5 3c 90 70 92 be
       0.040484052 -0.2734183 0.029957386 -0.28601503
0002b0 11 6e c8 bd 9e 2f ea be ce 32 41 be b9 22 83 be
       -0.097866185 -0.45739454 -0.18867037 -0.2561243
0002c0 c5 aa 95 3e 45 84 c2 be 37 72 bb 3d a7 6c 9b 3e
       0.2923185 -0.3799154 0.09152644 0.30356333
0002d0 4d fb 40 3e d2 e8 38 be d7 ab b0 bd 4e c1 d2 bd
       0.18845864 -0.18057564 -0.08626526 -0.10290776
0002e0 d8 e2 99 3d 6f 8c 1f 3e 5e 95 a0 bd 97 04 c0 3d
       0.0751397 0.15580915 -0.078409895 0.093758754
0002f0 b3 45 8b 3d 81 87 d6 3d 60 c1 11 be 7a dd 9f 3d
       0.068004034 0.10475064 -0.14233923 0.07805915
000300 10 b1 b7 bd 68 87 17 be 7d af 8a 3d 08 68 ed bc
       -0.08969319 -0.14797747 0.06771753 -0.02898027
000310 d0 b4 55 be 33 0f c7 3d 5a dc ca bd 89 8a 94 3d
       -0.20869756 0.09719696 -0.0990531 0.07252986
000320 12 3f 16 bf f5 6d ab 3d 11 fb fb bd 04 b5 9e 3e
       -0.5868999 0.08370582 -0.123037465 0.3099748
000330 b9 36 6f 3e 80 88 89 3f 67 30 17 3f ad ae a4 3f
       0.23360719 1.0744781 0.5905823 1.2865807
000340 1b 7b 5c bd cb 27 2c bd f2 03 a9 be 7b 24 1e bf
       -0.05382834 -0.042030137 -0.33010823 -0.61774415
000350 34 8f bf bf 1d ea 44 3e 07 9e 0e 3e d2 53 e9 bd
       -1.4965577 0.19229932 0.1392747 -0.113929406
000360 7d c8 bb bd 6b b4 29 bd 10 90 98 be 44 43 97 bd
       -0.091690995 -0.041431826 -0.2979741 -0.07385877
000370 60 bd 29 be af b5 b8 3d 14 80 04 3e 03 58 9f 3e
       -0.16576147 0.090190284 0.12939483 0.31121835
000380 e4 28 0c 3f 76 ae 8e 3e bf e5 2a 3e 10 03 ab 3d
       0.54749894 0.27867478 0.16689204 0.083501935
000390 0e 43 91 3d 63 13 a4 3e 73 62 d6 3e e4 5a 97 3d
       0.07092868 0.3204604 0.41871986 0.07390383
0003a0 15 1c 5e 3e 86 a0 b0 3e bf 48 82 be fb bd bf 3b
       0.216904 0.3449747 -0.25446126 0.005851505
0003b0 88 aa 8c be 0c 4e ea bd 17 e5 81 3c 0b 41 43 3e
       -0.27473855 -0.114406675 0.015856309 0.1906778
0003c0 b5 f9 d6 3d 02 3d 33 3e 62 65 2d 3e 32 79 c0 3e
       0.104968466 0.17503741 0.16933206 0.37592465
0003d0 10 69 cb bd 4f 06 6b be e1 a7 2a bf 7f b0 7f be
       -0.099321485 -0.22951625 -0.6666241 -0.24969672
0003e0 d7 c3 fb be 78 08 a8 be d5 e5 ab 3e 8a 6b 7e 3e
       -0.4917285 -0.3281896 0.33573785 0.2484571
0003f0 f1 05 25 be c6 c2 88 bb 35 e3 a4 3a 99 9e 2b be
       -0.16115548 -0.0041736094 0.001257992 -0.16759719

fc1.bias f4 [64]
000000 e2 c1 42 bc ee 7e 6c be 97 fc 28 3e 4d 76 86 be
       -0.011887046 -0.23095295 0.16502605 -0.2626213
000010 ea ef c0 3b 92 5b 16 be fd 9b 91 3e f9 b9 d1 3e
       0.005887975 -0.14683369 0.28439322 0.40962198
000020 f7 b3 48 bc 7e 9a 7a be e2 63 bc 3d a7 fc 1a be
       -0.012249938 -0.24472997 0.09198739 -0.15135442
000030 93 85 4e bd d8 d7 5f be 61 34 06 bf d9 b2 07 3e
       -0.050420355 -0.21859682 -0.52423674 0.13251819
000040 c8 aa b7 3c a5 ca ba 3d a5 af 08 bf 5a 8f 39 be
       0.022420302 0.091206826 -0.5339301 -0.1812109
000050 09 9f 07 bf bf ee 8d 3e bc 3e 06 be fe 14 be bd
       -0.52977043 0.2772121 -0.13109869 -0.09281348
000060 45 6f 4a 3e 28 b5 23 be c0 85 9b bd fe 5b 27 3e
       0.19769008 -0.15987074 -0.0759387 0.16343686
000070 2f a9 0a bf 5f 0a 53 bd fd d5 97 3e 68 c7 b8 bc
       -0.54164404 -0.051523563 0.29655448 -0.022556022
000080 a7 0a 28 be 05 f1 84 3e bc d2 ea 3d c6 76 34 3e
       -0.16410314 0.25965133 0.11465976 0.17623433
000090 4c 16 f6 bd 03 4a 24 3e 3b d2 17 3e db f0 45 be
       -0.120159715 0.16043858 0.1482629 -0.1933016
0000a0 5a e8 3d be 87 a6 3f be 94 05 4e 3d 89 10 2b 3e
       -0.18545666 -0.18715869 0.05029829 0.16705526
0000b0 23 a4 34 be 0c 7d ad bd e4 cd fb bc c0 8a db 3d
       -0.17640738 -0.084711164 -0.030737825 0.10719824
0000c0 c8 ca 33 bd ca f2 ee 3c 34 6f db 3d 17 fe d3 3d
       -0.04389456 0.029168505 0.1071457 0.10351198
0000d0 b3 fe 84 bd 0a 36 88 bd 61 34 ab 3d 2c 83 fb bd
       -0.064938925 -0.06650932 0.083596 -0.122808784
0000e0 d3 ea 89 3d 8c 4e e1 3d 13 b2 fc be f4 1d 4f be
       0.06734242 0.1100131 -0.4935461 -0.2022627
0000f0 71 9b 3f 3e 72 05 e7 3c e4 21 07 3c 89 e3 fb bd
       0.1871164 0.028200839 0.008247826 -0.12299258

fc2.weight f4 [64, 64]
000000 d3 ef b0 3d fc c3 6b bc a3 19 94 bd 64 dc 4d bd
       0.08639493 -0.014389988 -0.07231452 -0.05025901
000010 19 ef 6b be 68 dd b6 bd e6 c9 38 be 44 fc df bd
       -0.23040427 -0.08928949 -0.18045768 -0.10936788
000020 84 e9 15 be 9e 78 b9 bd b4 e0 fb 3d 0b b4 96 3d
       -0.1463986 -0.09056209 0.12298718 0.07358559
000030 f0 ee e2 bd 25 84 9c bc 0e d8 f3 3d b0 9d 71 3d
       -0.1108073 -0.01910598 0.119064435 0.058988273
000040 a0 68 25 bc 74 da 00 be 2d 1c 31 3e e9 3a 6d 3d
       -0.010095745 -0.12583333 0.17295904 0.05791751
000050 95 41 96 bd e2 18 e8 bd 89 3c 81 bb c6 38 13 be
       -0.073367275 -0.11332871 -0.003943984 -0.14377126
000060 7c 8b 33 be 12 8f 44 3d ca 65 40 be fd 27 a9 be
       -0.17533678 0.047988005 -0.1878883 -0.3303832
000070 27 9c f9 3d 0d e6 0d be 37 a6 4a 3c e8 db 99 bd
       0.12187987 -0.13857289 0.01236873 -0.07512647
000080 96 d2 b3 bd f9 19 9c bc a9 54 fa bd 2b b7 e0 bc
       -0.087804005 -0.019055353 -0.12223179 -0.027431091
000090 fe aa a4 bd f9 92 55 bd 60 23 de bb 08 79 e7 bc
       -0.08040427 -0.052142117 -0.0067791194 -0.028255954
0000a0 55 e5 09 be 78 16 4e bd 60 38 23 bc 38 e8 16 be
       -0.1346639 -0.050314397 -0.009962171 -0.14737022
0000b0 80 95 00 3b 37 11 1d be 08 bb 1f bd 25 4e 8a 3c
       0.001962036 -0.15338598 -0.038996726 0.016882965
0000c0 c5 e9 32 be 54 05 58 bd ad 15 99 3d 66 d5 17 3d
       -0.17471988 -0.052739456 0.074748375 0.037068747
0000d0 aa 19 38 bd 29 53 c1 bd 9a 77 26 be b0 49 4d 3d
       -0.04494635 -0.0943969 -0.16256562 0.050119102
0000e0 0d e6 62 be 60 5a b8 3c 74 5c 05 bd 73 b1 a3 3d
       -0.2215807 0.022504032 -0.032558873 0.0799283
0000f0 e2 7b a3 3d 5c cc 2d be f3 73 5d be 7c 6c 39 be
       0.07982613 -0.16972488 -0.21626262 -0.1810779
000100 18 7a 4c 3e 47 8c ad bd 31 1d 68 bd 80 d2 59 3e
       0.1996845 -0.084740214 -0.056668464 0.21271706
000110 ab 94 1f be dd aa a8 bd f2 f5 1a 3e 09 cb 5c 3e
       -0.15584056 -0.082357146 0.15132883 0.21561827
000120 d0 9d 92 bc 5e b7 02 bd b4 76 d6 3d 95 bc b6 3d
       -0.017897516 -0.031913154 0.104718596 0.08922688
000130 14 1e 27 3e 0a ef e3 bd e8 82 10 be 3f e7 3f 3c
       0.16320068 -0.111295775 -0.14112437 0.011712848
000140 80 73 37 bc 13 31 86 bc a9 94 9f bc 57 48 6e bd
       -0.011196971 -0.016380822 -0.019480066 -0.058174457
000150 d0 39 a8 3d 78 e1 b0 bd fb 7d 8f 3c da 8b fc bd
       0.08214152 -0.08636755 0.017516127 -0.12331362
000160 19 9c a2 bd 60 a6 f7 bd 3e 05 21 be aa a7 3d be
       -0.079399295 -0.120922804 -0.15724656 -0.1852099
000170 cf 0d 25 bd 53 5f 20 be 85 f7 17 be 6c af 0b be
       -0.040296372 -0.15661363 -0.14840515 -0.13641137
000180 bf d0 02 bb 3d 38 02 bd 97 c9 6e 3d 1e 5f 2d bd
       -0.0019960848 -0.031791914 0.05829772 -0.04232704
000190 83 48 ca bd 3e 43 6b bd d8 4d 7d 3d c3 07 cc bd
       -0.09877112 -0.057437174 0.061841816 -0.09962418
0001a0 2b 7f fb 3d 60 c5 1d bd 00 f0 99 39 22 1f 15 be
       0.12280115 -0.03851831 0.00029361248 -0.14562657
0001b0 c2 b8 04 be d1 d7 fb 3d 4f 37 8b 3d 57 7e 35 bd
       -0.12961105 0.12297023 0.06797659 -0.04430994
0001c0 84 b3 9a 3a f2 e6 8b 3c 73 b2 99 3d 74 2f 63 be
       0.0011802767 0.017077897 0.075047396 -0.2218607
0001d0 5a f8 9a bd 95 bf 47 3e cd 88 7b 3d 8c b1 d3 3d
       -0.075669006 0.19506676 0.06140976 0.10336599
0001e0 fb f2 de 3d 3d a8 21 3d 22 ef ea 3d bf ae 1c 3e
       0.108861886 0.039467085 0.11471392 0.15301035
0001f0 00 36 25 3d 9f e2 12 3e 92 ff 02 3d 75 b9 fb bd
       0.0403347 0.14344262 0.031982012 -0.122912325
000200 14 09 61 3d d8 75 d1 bd 70 95 91 bd 03 b3 81 3c
       0.0549403 -0.10227555 -0.07108581 0.01583243
000210 14 4f d1 bd bc 0f c6 bd 56 3f e4 bd fc d1 ff 3d
       -0.10220161 -0.0967097 -0.11144893 0.12491223
000220 8e 22 92 3d 48 b4 27 bd c0 b8 da bd 7b aa 27 bd
       0.07135497 -0.040943414 -0.106797695 -0.040934067
000230 d3 b8 f3 3d 6a 36 c3 bd 58 c5 aa 3c 0a 24 c9 bd
       0.11900487 -0.09531863 0.020846054 -0.09821327
000240 30 58 86 3c c5 32 24 bc 9c f2 fa bd 67 a0 b3 3c
       0.016399473 -0.01002187 -0.12253305 0.021927072
000250 3c 90 e2 bd 26 d0 11 be f1 9c d1 bc 5c 4e 2e bd
       -0.11062667 -0.14239559 -0.02558753 -0.042555198
000260 e1 2b e1 bd 50 99 57 bd a0 1a ad 3c 50 b8 68 3c
       -0.10994697 -0.052636445 0.02113086 0.0142041
000270 9f b0 0b 3d b0 b4 7f 3d ca f9 98 3b 4d 89 1f be
       0.034103986 0.062428176 0.004668449 -0.1557972
000280 e6 89 b0 bd 19 9b 23 bd 40 a2 7f bb 00 94 2a bc
       -0.08620052 -0.039942835 -0.003900662 -0.0104112625
000290 54 14 c1 3d 31 d1 5e 3d 36 ee b2 3d 80 59 c2 bd
       0.094277054 0.05439872 0.087368414 -0.09489727
0002a0 58 8c 50 bd c7 52 cf bd 08 56 de bc 1c 02 9d bd
       -0.050915092 -0.101232104 -0.027140632 -0.07666418
0002b0 f8 91 95 bd a3 06 08 3d ca 77 fa bd 54 d7 2b be
       -0.07303232 0.033209454 -0.12229879 -0.1678136
0002c0 24 ad 91 bd 30 2a bc bd 28 2d b2 bd 3a 65 73 3d
       -0.07113102 -0.09187734 -0.08700019 0.05942271
0002d0 04 5b e6 bd d0 97 3c 3c e6 d3 a7 3b 6a 8a b2 3d
       -0.112478286 0.011510804 0.005121696 0.08717807
0002e0 04 f2 a9 bd 59 4f 0e be 68 e4 81 bc 40 b6 af bc
       -0.08298114 -0.13897456 -0.015855983 -0.021449208
0002f0 68 6c c1 bd 7f 23 b2 bd 0b 1b 1c 3d e1 5b 09 3e
       -0.09444505 -0.086981766 0.038111728 0.13413955
000300 f3 2e 43 3e 78 db 93 be 47 dc ef 3c 6c 07 bb 3e
       0.19060878 -0.2887838 0.029279841 0.365291
000310 a4 9d 82 be 2b 03 15 3b 40 b7 a6 3e 9f 2e b2 3d
       -0.25510895 0.0022737484 0.32561684 0.087002985
000320 04 3e 6b bb 82 ff 60 bd b7 a3 82 3d 07 c4 89 be
       -0.0035895118 -0.05493117 0.063788824 -0.2690737
000330 30 08 a6 3e 3b 99 4f 3d 84 4b e1 bd d6 9f 9b bd
       0.32428122 0.05068324 -0.110007316 -0.07598846
000340 be c0 99 3d 71 30 96 3d af 80 99 be 1e a2 a7 bd
       0.07507466 0.07333458 -0.2998099 -0.08185218
000350 0e 2c 25 3d 17 87 25 bd bb 6f 50 3d f9 6d 0d be
       0.040325217 -0.040412035 0.050887804 -0.13811482
000360 88 45 0a 3e 9b e6 87 be d0 b9 e2 be c9 10 87 bd
       0.13503087 -0.26543126 -0.4428239 -0.065949984
000370 f9 c5 76 be 9a 14 77 be 46 c7 9e 3e 4e 6a 39 3d
       -0.24098958 -0.24128953 0.3101141 0.045267396
000380 ee e4 c2 bd 45 c9 71 bd 5b 3c 66 3e b0 32 18 be
       -0.09516321 -0.059029836 0.22483961 -0.14863086
000390 d2 09 16 bd 3c fa 9f 3c e1 3c 69 bd 08 24 55 be
       -0.03663046 0.0195285 -0.056942824 -0.20814526
0003a0 70 0d 54 3e cf 95 11 be 64 15 9c 3d 48 76 7a 3b
       0.20708251 -0.14217304 0.076212674 0.0038217474
0003b0 b5 82 07 be fa 29 a0 3c b3 89 3f 3d 3b 98 26 3e
       -0.13233455 0.019551266 0.04676218 0.16269009
0003c0 3f 47 94 3b 39 71 cd bd 5a fc 98 3d 34 8e e3 be
       0.0045250948 -0.10031361 0.07470007 -0.4444443
0003d0 c9 7f 8c 3d 7f b0 d4 3e 98 d6 8c 3e c0 67 37 bd
       0.068603106 0.41540906 0.27507472 -0.044776678
0003e0 64 c0 2f bd d5 2b e6 3d a3 df a3 bd 24 b1 06 3e
       -0.042908087 0.11238829 -0.0800164 0.13153511
0003f0 74 55 04 3d d5 9a 40 be da ea ab 3e de be bb be
       0.032308057 -0.18809064 0.33577615 -0.36669058

fc2.bias f4 [64]
000000 1b cc 9c bc 1b c9 09 bd 44 a0 c6 bd 5e b6 9c 3d
       -0.019140294 -0.033639055 -0.09698537 0.07651971
000010 e9 b2 fc bd 10 c1 aa 3c 9f 13 e4 bb fd 18 1d be
       -0.12338812 0.020844012 -0.006960347 -0.15341564
000020 2c d3 16 be cf e0 c2 bb 72 7a e1 bd 0e 81 36 3d
       -0.14728993 -0.0059472094 -0.11009683 0.04455667
000030 08 21 74 bb ee 37 df bd 4f 3f cd bd c9 30 65 3b
       -0.0037251133 -0.108993396 -0.10021841 0.0034971705
000040 af 76 57 b8 88 b6 f2 bd 02 08 dc bd b7 c8 9b bd
       -5.1370527e-05 -0.11851221 -0.10743715 -0.07606643
000050 33 cf 17 3d 16 c7 ca 3d d8 b4 b1 3d 7c cb d6 3c
       0.037062835 0.09901254 0.08677071 0.026220076
000060 cf 3a 0e bc bd 08 33 bd e5 f1 b1 bd c6 c5 2d be
       -0.008681013 -0.043709505 -0.08688716 -0.16969976
000070 09 f1 e2 bd a7 dc 9e 3c eb b5 a1 3c 4e 89 75 bd
       -0.1108113 0.019392325 0.019740066 -0.059945397
000080 63 d3 cf bd 4d 7e 8b 3e 20 4a fa bd 70 c3 ee bd
       -0.10147741 0.27244797 -0.122211695 -0.116583705
000090 6a 97 bb 3d 95 76 6f 3d 6d 94 43 be 8e da 9b bd
       0.09159739 0.058462698 -0.19099589 -0.076100454
0000a0 04 8f c2 3e 9d fc 41 bc 5c 67 ac bd 1d d1 9a 3d
       0.37999737 -0.011840013 -0.08418152 0.075594164
0000b0 27 6b 25 3e c7 ad cd 3b 56 18 ca bd 48 52 e7 bd
       0.16154157 0.0062768194 -0.09867923 -0.11294991
0000c0 01 ee 55 3c 1b df c1 3c c2 dd 28 be a1 bd 07 3e
       0.013057233 0.023665955 -0.16490844 0.13255931
0000d0 62 76 39 be 4e cf 8f 3d 5d 9c 0b 3c 38 a9 0f bd
       -0.18111566 0.07021962 0.008521167 -0.03507349
0000e0 1d a6 f5 bd 55 18 a8 3d ba c6 f3 bd 41 ec 64 3d
       -0.11994574 0.08207766 -0.119031385 0.05588937
0000f0 dc b3 b1 3d 08 f7 9a 3a 30 a7 3f bc b5 fa 10 3d
       0.086768836 0.0011822889 -0.011697575 0.035395343

fc3.weight f4 [64, 64]
000000 f3 a0 c6 3d 63 c3 17 be 9f 8d df 3b 4d 9d df bc
       0.096986674 -0.14820628 0.0068223025 -0.027296687
000010 2e e2 71 3d cf fe a8 3c ae 7c ec 3c 9c 2f 88 3b
       0.059053592 0.020629315 0.028868046 0.004156066
000020 9a 80 f5 bd 3f 8b b5 3d 5c a4 cc 3c 26 79 bd bd
       -0.119874194 0.0886445 0.024980716 -0.09251623
000030 be 5e da 3d f9 c6 9b bd ed 5b e9 3d b5 6f 6c bd
       0.10662602 -0.076063104 0.113944866 -0.05772372
000040 94 10 7e 3c 6e c4 d2 bd f8 b5 28 bd ac 54 69 3d
       0.015506882 -0.10291372 -0.041189164 0.056965515
000050 bf 46 c5 3d 42 55 05 be 6e e6 e2 bd b0 e8 8a be
       0.09632634 -0.13020805 -0.11079107 -0.2713065
000060 35 ab 3d bd 54 84 c3 3c cb be 9f 3d c2 47 e6 bb
       -0.046305854 0.02386681 0.07800063 -0.007027597
000070 94 48 f6 bd 6e 32 98 bd f3 56 2a bd c8 54 d5 3d
       -0.12025562 -0.07431494 -0.041586827 0.10416561
000080 3a ac 23 bd f6 3d a6 bd 9c ca c9 bd 2b 86 96 3d
       -0.03995917 -0.08117287 -0.09853098 0.07349809
000090 cd 60 f1 bd 1b 3d 88 be e6 c3 b1 bd 4a 4a 1f bd
       -0.117860414 -0.2660912 -0.08679943 -0.038889207
0000a0 b3 5e 14 bd 76 ba e1 bd ca c4 ae bd 37 46 ce bd
       -0.036223125 -0.11021893 -0.08533628 -0.10071986
0000b0 9f 86 05 be 96 c2 e9 bd 8a 80 89 3d ac 15 03 3e
       -0.13039635 -0.114140674 0.0671397 0.12801236
0000c0 65 ff 8b 3d 70 b6 7b bd 05 c9 c3 bd 13 b3 68 bb
       0.06835822 -0.061453283 -0.09559826 -0.0035507127
0000d0 71 3a 0a bd 41 e4 82 3d 62 2c a7 3d 26 2a e1 bd
       -0.03374714 0.06391192 0.08162762 -0.10994367
0000e0 1e 17 9b bd 09 50 31 3d dd eb b4 3d 51 6f 05 be
       -0.07572769 0.043289218 0.0883405 -0.13030745
0000f0 91 15 5b bd 1b 97 fe 3c d4 bc b0 bd f0 d9 2d bd
       -0.053487364 0.031077912 -0.08629766 -0.04244417
000100 7b 3e 46 3d 7f 96 90 bd 88 1f b5 bd 40 f8 5d bd
       0.04839943 -0.07059955 -0.08843905 -0.054191828
000110 24 47 bd 3c c0 94 2b 3d 30 6f 83 3d 73 1f d8 3d
       0.023105212 0.041889906 0.06417692 0.105528735
000120 8c 04 53 3c 9d 0e b0 3d 27 89 ab 3c 20 3d 9a bd
       0.012879502 0.08596537 0.020939423 -0.0753119
000130 1e af 0e bc fe 10 31 3d 58 dd 4e be 45 4a 28 3d
       -0.008708743 0.043229096 -0.20201623 0.041086454
000140 dc fb c3 bc ca 97 cf 3d 10 0b ba 3c 9f 67 7a 3c
       -0.023923807 0.10136373 0.022710353 0.015283494
000150 af 10 ba bc 6d 3e 8f bd 07 d1 e6 3d 03 c6 68 bc
       -0.022713033 -0.06994329 0.112703376 -0.014207366
000160 b0 a1 7c bd 2c 71 11 3e 79 fb 4b be 62 87 89 bd
       -0.061677635 0.14203328 -0.19920148 -0.06715275
000170 51 0c 01 bd 54 41 b5 bd 8c 3b 5a ba 0c ed 93 bd
       -0.031505886 -0.08850351 -0.0008324913 -0.072229475
000180 f1 a0 3b 3d 00 c1 85 bd 40 da 7f bb 1b 39 76 3c
       0.045807783 -0.065309525 -0.003904 0.015028263
000190 d4 ec ec bd 30 be f2 3b c2 1d 85 bd f5 a5 d3 bd
       -0.11568609 0.007407926 -0.064998165 -0.10334388
0001a0 1f a5 8b bd 65 a6 0a 3e d1 c3 96 bd a7 fc 51 3c
       -0.06818604 0.13540037 -0.07361568 0.012816585
0001b0 dd 2b 52 3d 01 4a 1e bd 03 53 58 be e1 9c 97 3d
       0.051311363 -0.038644794 -0.21125416 0.07402969
0001c0 3d be 27 bb 59 76 1b be 5a 1e 76 3d 3d de 23 3c
       -0.0025595569 -0.15181865 0.06008754 0.010001716
0001d0 3a 98 e4 bc 72 93 e3 bc 8a b3 93 3d b2 24 2b 3d
       -0.027904619 -0.027780268 0.07211979 0.041783042
0001e0 1e ce c5 bc 0c 57 23 bd ed 7e 26 bd dd 9f fa bc
       -0.024146136 -0.039877936 -0.04064839 -0.030593807
0001f0 ac 18 fa bd 4c d3 f1 bd cc b5 6b 3d 93 33 ba bd
       -0.12211737 -0.1180788 0.057546422 -0.09091868
000200 87 08 74 3d 71 2e 95 3d 08 14 d2 bc b3 0f 53 be
       0.059578445 0.072842486 -0.025644317 -0.20611458
000210 97 2c 19 bc fe d7 c4 3d e4 ee 20 bd 3a 84 32 bc
       -0.00934901 0.0961151 -0.039290324 -0.010895783
000220 0a 60 5b 3d 43 87 68 bd ec 4f b0 3d c5 94 a6 bd
       0.053558387 -0.05676962 0.08608994 -0.08133844
000230 7b ea ad 3d 3e 6f 29 bd fe f9 e8 bc b8 1d 1d bd
       0.08491989 -0.041365854 -0.028439518 -0.03835842
000240 aa eb 45 3d a8 23 4e 3d 2f 4b 07 bc 1f ab a1 3d
       0.04832045 0.050326973 -0.008257671 0.07893967
000250 30 c4 ab 3c 2f 7f 47 bc 44 c7 48 3d a2 fe 2d 3d
       0.020967573 -0.012176319 0.04901816 0.042479165
000260 5a ed c8 bd 7c ea a6 bd 4b 68 c6 bd c1 b2 b2 bd
       -0.09810896 -0.08150193 -0.09687861 -0.08725501
000270 46 cc 84 bd 28 8b da 3d 26 95 ea bd 2c 03 8f 3d
       -0.064842746 0.10671073 -0.11454229 0.06983027
000280 4d 9d 1c bd 32 14 1e be f0 c9 4f 3d 71 7d 6c 3d
       -0.03823595 -0.15437391 0.050729692 0.057736818
000290 97 e7 e8 bd 98 02 bf 3d 86 80 96 3d 19 03 09 bd
       -0.11372297 0.093266666 0.07348733 -0.03345022
0002a0 c8 eb 1b 3d 57 d6 d3 3c d2 c1 17 3d c5 df 23 3d
       0.038066655 0.025859041 0.037050076 0.040008325
0002b0 17 05 54 3d a8 3d 05 bd 88 92 20 3e ab 44 3f 3d
       0.051762667 -0.032529503 0.15680897 0.046696346
0002c0 cc f7 a5 3d 4e 76 a8 bd 89 dc 03 bd 2a 8a bd 3d
       0.08103904 -0.0822569 -0.03219274 0.09254868
0002d0 16 91 32 bd 61 8f e6 3d 06 4e 23 bd e4 a3 8c 3c
       -0.043595396 0.11257816 -0.03986933 0.017167993
0002e0 4d 10 db bd e3 84 86 bd 4a 9d 97 3c c0 f6 80 bd
       -0.106964685 -0.06568315 0.018507618 -0.06297064
0002f0 28 79 32 3d 95 c3 af bd 98 c9 b1 3d b0 ad b7 3d
       0.043572575 -0.08582226 0.08681029 0.08968675
000300 8e bf 9b 3d 80 2a cc bb 78 3f 28 bd 90 d5 e6 3c
       0.076048955 -0.0062306523 -0.041076154 0.028178006
000310 92 59 9f 3d 23 73 7b bc 38 8a 7d bc 2a 08 a0 bd
       0.07780756 -0.015347275 -0.015474848 -0.07814057
000320 77 d3 35 bd 20 6e 23 bc 4e 56 ec 3d 6c c7 ba bd
       -0.04439112 -0.009974986 0.11539899 -0.09120068
000330 41 68 a5 bd 10 df 56 3c 6e 79 91 bc a3 0e 87 3d
       -0.080765255 0.013114706 -0.017758097 0.065945886
000340 48 0e 26 3d c0 da 0c 3c 3a cf 4a bd 08 d7 49 bd
       0.040540963 0.008597076 -0.049514033 -0.049277335
000350 2a bd dd bd a1 3d 20 3c bc b4 d7 bd 9c 04 19 bd
       -0.10827096 0.0097803185 -0.10532519 -0.03735791
000360 56 4b fc bd 0c 98 11 bd 52 d7 d3 3c 50 19 e2 3d
       -0.12319057 -0.035545394 0.025859509 0.11039984
000370 70 f9 4e 3d 9c 8b 50 3d 0c 65 04 bd 36 18 d7 bd
       0.05053085 0.050914392 -0.03232293 -0.10502665
000380 7a eb 98 bd 1f d3 32 be a8 9c bc 3d c6 74 39 bc
       -0.074667886 -0.17463349 0.09209567 -0.011319345
000390 9f 5f b8 3c 65 af a0 3d 64 07 73 3d 9e 69 c4 bd
       0.022506533 0.07845954 0.05933322 -0.095904574
0003a0 c2 11 49 bd f8 d5 bc bc f4 96 5d 3d 0f 60 eb bd
       -0.0490892 -0.023051247 0.05409904 -0.11492931
0003b0 3f eb 02 be 58 b8 82 bd 3c 6b 72 3c 6b 73 b0 bd
       -0.12785052 -0.06382817 0.0147960745 -0.08615764
0003c0 94 18 46 3d 26 5d 9a bd c3 5c f6 bc 96 3d 50 3c
       0.048363283 -0.07537298 -0.03007353 0.012709996
0003d0 fe 43 8b 3d 96 90 a8 3d 7a ff 8d 3d 2e e8 5c bc
       0.06800078 0.082307026 0.06933494 -0.01348309
0003e0 06 6f a4 bd 18 6d 7d bd a1 82 2f 3c e8 36 be 3c
       -0.080289885 -0.061871618 0.010712297 0.02321954
0003f0 78 dc 46 bd 03 c1 b5 bd 44 a5 d2 3d fc 0d 33 3d
       -0.0485501 -0.08874705 0.10285428 0.04371451

fc3.bias f4 [64]
000000 7c 54 16 3e f4 06 95 3e f1 fc 56 be 9c a9 be bd
       0.14680666 0.29106867 -0.20994927 -0.09309694
000010 2e e5 a7 be b5 c6 45 3e cc c5 86 be b8 af e6 3d
       -0.32792038 0.19314082 -0.26322782 0.112639844
000020 4e f6 77 be 7b 9e 99 3e 68 8e 83 be 7f 8e b9 3d
       -0.24215052 0.30003724 -0.25694585 0.09060382
000030 aa 3a c9 bc a2 ec 9e bd 13 a6 3f be ef 88 c8 bc
       -0.024564106 -0.07759978 -0.18715696 -0.024479358
000040 fc f5 90 3e 61 be fa 3e a5 56 a1 3d aa 49 82 be
       0.2831267 0.48973373 0.07877854 -0.25446826
000050 bb 3b 16 be 3a fb 4e be ce ba 94 3e f6 91 52 bc
       -0.14671223 -0.20213023 0.2904877 -0.012852183
000060 c3 dd fa be 47 33 d2 be ea e0 b1 bd 8c dc 13 be
       -0.48997316 -0.41054747 -0.08685477 -0.144396
000070 b5 6e 1c bf 0f 36 a1 3d e7 a6 0d be 77 54 f8 bb
       -0.61106426 0.07871639 -0.138332 -0.0075784284
000080 8a b6 05 bf 89 2f 09 3e b2 59 61 be 87 77 8e bd
       -0.5223166 0.1339704 -0.22006872 -0.06956392
000090 27 18 83 3d ad 12 2c be 5f b3 20 be 1f dc 2f be
       0.06401091 -0.16803999 -0.15693425 -0.17173813
0000a0 4e 08 05 3e ab e8 58 3d 0d 03 f5 bd d3 05 df 3e
       0.12991449 0.052956264 -0.119634725 0.4355913
0000b0 59 8e c0 3c c0 33 7b 3e 02 77 05 3f fa 03 9c be
       0.023505377 0.2453146 0.52134717 -0.30471784
0000c0 78 2c 9e be 68 63 8d be 00 64 1f be 02 db 76 3e
       -0.30893302 -0.27614903 -0.1556549 0.24106982
0000d0 ca cf 6b be 9a 8c 35 be af ef 7b bd fe ca de 3e
       -0.23028484 -0.17729416 -0.061507877 0.43514246
0000e0 cf f0 16 be 20 3a 2d 3e ed 24 3c bc 63 03 19 be
       -0.14740299 0.16916704 -0.011483413 -0.14942698
0000f0 a5 29 1b bd 81 1f 4a 3d 9a 0a de 3e 17 2f 93 3e
       -0.037881512 0.04934645 0.43367463 0.28746864

fc4.weight f4 [1, 64]
000000 79 2c 23 bc 54 20 7c 3c 60 9d b4 3d 16 e2 75 3d
       -0.009959334 0.015388567 0.088190794 0.060030065
000010 db 02 f6 3d e4 03 7f 3d 62 52 b4 3c a1 c6 43 bb
       0.120122634 0.06225957 0.02201194 -0.002987303
000020 97 a3 30 3c d2 b4 01 3c f5 88 4a ba e0 ff 5b bb
       0.01078119 0.007916646 -0.00077260967 -0.0033569261
000030 62 78 f2 3d 43 f4 61 3d 55 fe f0 3c 80 85 45 bc
       0.118393674 0.055164587 0.02941815 -0.012055755
000040 e1 57 37 3c c2 0b fc bd 13 53 2a 3d 81 1d dd bd
       0.011190386 -0.1230693 0.041583132 -0.10796643
000050 53 bb 6a 3d 10 30 e9 3b 91 5d 64 bd d6 e3 ec 3c
       0.057307553 0.007116325 -0.055753294 0.028917234
000060 93 58 5f 3d 6f b1 b9 bc 27 f2 3a bc bb 5c 07 3c
       0.05452783 -0.022667615 -0.011410273 0.008261855
000070 51 f4 65 3d 13 4d 01 be 09 85 a4 bd df c2 0e bd
       0.0561412 -0.12627058 -0.08033187 -0.034853812
000080 08 8d 88 3b 59 1b 9f 3d 35 5c 60 bc 8a 5a 8f 3d
       0.004167203 0.07768888 -0.013693859 0.06999691
000090 a1 9b a1 bd c0 b8 99 bd 44 f7 64 bc 2b e4 b1 3b
       -0.07891012 -0.075059414 -0.013974968 0.005428811
0000a0 19 ca 82 bb e0 d9 5d 3d 5d e9 d5 3d ce 14 6f bd
       -0.003991377 0.05416286 0.10444901 -0.05836945
0000b0 2f 46 9a 3c 1c 7c 95 ba 3b ce e0 bd 42 a4 a2 bd
       0.018832294 -0.0011404785 -0.10976835 -0.07941486
0000c0 f7 4d a9 3c 13 03 99 bc 39 f0 df 3c 30 01 c4 3d
       0.02066706 -0.018678224 0.027336227 0.09570539
0000d0 ff c0 ac 3d a1 4e 83 3d 99 87 bb 3c fa a6 ef bd
       0.084352486 0.06411482 0.022891806 -0.1170177
0000e0 c8 9a 2f 3d e0 9d be 3d d8 86 34 bd 89 1a 90 bb
       0.04287222 0.09307456 -0.04407391 -0.0043976945
0000f0 cd a3 3f 3d 25 0e 6b 3c e0 17 f2 bd 66 a7 f9 bb
       0.046787072 0.014346634 -0.1182096 -0.0076188324
