models/py_SimpleFeedForwardNN_mdl_16-16-16_12_epochs_0-00100_lr_16_batch_202310261816.pth (torch, 8276 bytes, 7 tensors)

fc1.weight f4 [16, 18]
-0.5264601 0.039349012 0.1395981 -0.04183641 0.2771177 0.4367532 0.34081677 0.54365873
0.17961888 -0.6055441 -0.7166421 -0.23515405 -1.2378476 -0.57859004 -1.7493892 -0.021830752
0.467099 0.2408318 -0.05949413 -0.045716528 -0.12514693 -0.35887933 0.16537774 -0.11053042
-0.02860204 -0.8622024 -0.48590946 -0.042524107 0.12036766 -0.018907754 0.65807533 0.3711076
0.36281112 0.11839686 0.11496561 0.086524814 -0.120796956 0.0028399976 0.10895297 0.045826294
0.09384658 -0.17125846 -0.029670628 -0.99341977 -0.5171765 -0.6096741 0.19856039 -0.07706988
0.900899 1.1662283 1.6510094 0.025285404 -0.29302177 -0.076002724 0.077369615 0.10559158
-0.0082744025 0.12255317 0.11401983 -0.10673285 -0.26789913 -0.9039818 -0.5380925 -0.347697
0.51772547 -0.28750622 1.405728 1.1957595 1.757654 0.20011003 -0.117747106 -0.27334604
0.11328856 0.027931599 0.035501387 0.012422022 0.12907012 -0.22747251 -0.0145502025 -1.3520749
-0.8058417 -0.19867422 0.49746546 -0.21417403 1.312579 1.3687109 1.6876825 0.2756752
-0.013114999 -0.14189187 0.4704963 0.040560637 -0.46140066 0.008075774 0.1497559 -0.25331867
-0.013584286 1.2514081 0.72607625 1.3582382 0.11790298 0.10199464 -0.48884684 -1.0585717
-1.2698286 0.41726923 -0.22795182 -0.14149034 0.14892948 -0.020567162 -0.025226172 0.11080079
-0.20596866 -0.31180584 -0.009328344 -0.46749598 -0.44229496 -0.29880098 0.2674743 -0.36937812
0.8107684 1.1245248 1.5253243 -0.18201709 -0.075647816 -0.3124341 0.0088574 -0.24452811
-0.12192355 0.09758532 0.13311142 0.25256678 0.2574735 0.044768333 -0.26015893 0.067422576
-0.31187892 -0.11016847 -0.1635021 0.014713668 0.020369992 -0.21210131 -0.06855754 0.24855638
-0.14350644 -0.19668631 0.20299298 -0.010804399 0.1823665 -0.33490118 -0.15030359 -0.4332765
-0.12965356 -0.1358355 -0.4039833 -0.029359244 0.20213273 -0.9821093 -0.646034 0.0024118673
-0.19298111 -0.32050988 -0.13196808 -0.20512001 -5.394321e-05 -0.11195568 0.13405696 0.12506767
0.050063662 0.13942045 -0.20399602 -0.1444847 -0.14006673 0.10608749 0.06232555 0.07800858
0.07471326 -0.052964073 0.074338086 0.10684458 -0.40316004 0.04575569 -0.1410743 0.112138115
0.23872592 0.2295938 0.009802979 1.5761344 0.65595734 0.525405 -0.32671738 0.27220878
-0.8023671 -0.76186126 -2.0208068 0.18134561 -0.031515032 -0.13847294 -0.3616539 -0.020764988
0.11155945 0.17042306 0.0062684156 -0.124454014 -0.22855651 -1.1641077 -0.5064445 -0.7616244
-0.11346685 -0.2607579 0.8900623 1.4610558 1.2523632 -0.22699973 -0.13528998 -0.29512537
-0.42586327 0.05024566 0.06594309 -0.2603578 -0.17141329 0.5672312 0.3978835 0.66140956
0.377263 -0.08569451 -0.5951429 -0.14424357 -1.0311877 -0.82259226 -1.9447868 -0.48047894
0.42673087 0.33348292 -0.060537983 -0.3509033 0.010229563 0.017051836 -0.028571645 0.08795421
0.008307134 -0.22718613 -0.9915451 -0.11416465 0.18965799 0.08989774 0.04213506 1.5150478
0.5574827 -0.23024423 0.27216002 0.01850068 0.17905386 -0.0323019 0.016494054 0.1913348
00000000: 17c6 06bf 6e2c 213d cef2 0e3e a85c 2bbd
00000010: 5fe2 8d3e 1e9e df3e 897f ae3e 382d 0b3f
00000020: 03ee 373e f004 1bbf db75 37bf 39cc 70be
00000030: ca71 9ebf 7a1e 14bf fceb dfbf 68d6 b2bc
00000040: 9a27 ef3e 9d9c 763e 1eb0 73bd 4141 3bbd
00000050: 8426 00be 08bf b7be c858 293e c65d e2bd
00000060: d34e eabc 4cb9 5cbf 20c9 f8be c22d 2ebd
00000070: 5283 f63d 6fe4 9abc a077 283f d101 be3e
00000080: 61c2 b93e 0e7a f23d 1773 eb3d ec33 b13d
00000090: 6564 f7bd 411f 3a3b bc22 df3d 5ab4 3b3d
000000a0: a332 c03d 615e 2fbe d10f f3bc c250 7ebf
000000b0: ae65 04bf 9a13 1cbf 6a53 4b3e d0d6 9dbd
000000c0: 51a1 663f f846 953f 4754 d33f 5623 cf3c
000000d0: f306 96be 51a7 9bbd f673 9e3d 6640 d83d
000000e0: 5c91 07bc 28fd fa3d 3b83 e93d c196 dabd
000000f0: 132a 89be 5a6b 67bf 6ec0 09bf 5705 b2be
00000100: a889 043f 0434 93be e5ee b33f a60e 993f
00000110: cefa e03f a5e9 4c3e 6525 f1bd 03f4 8bbe
00000120: d503 e83d cfd0 e43c e769 113d bd85 4b3c
00000130: f52a 043e 8eee 68be f963 6ebc ca10 adbf
00000140: a44b 4ebf 4171 4bbe cbb3 fe3e 7050 5bbe
00000150: 9702 a83f eb31 af3f fb05 d83f 4d25 8d3e
00000160: 4be0 56bc 1a4c 11be e4e4 f03e e922 263d
00000170: b53c ecbe 4050 043c 9c59 193e fcb2 81be
00000180: a090 5ebc 242e a03f 22e0 393f c0da ad3f
00000190: 1e77 f13d 91e2 d03d 224a fabe 477f 87bf
000001a0: be89 a2bf 50a4 d53e 346c 69be d8e2 10be
000001b0: f880 183e 777c a8bc 1ea7 cebc 86eb e23d
000001c0: 73e9 52be 04a5 9fbe e9d5 18bc a25b efbe
000001d0: 7c74 e2be 71fc 98be 64f2 883e 211f bdbe
000001e0: 858e 4f3f 6ef0 8f3f d43d c33f b062 3abe
000001f0: 3eed 9abd 5df7 9fbe a11e 113c 9465 7abe
00000200: 0eb3 f9bd d0da c73d 5c4e 083e 6f50 813e
00000210: 91d3 833e 005f 373d 8d33 85be d914 8a3d
00000220: 98ae 9fbe 02a0 e1bd 186d 27be 9911 713c
00000230: f8de a63c 1631 59be e567 8cbd 9085 7e3e
00000240: 5af3 12be 2368 49be 64dd 4f3e ef04 31bc
00000250: 49be 3a3e 2b78 abbe 2fe9 19be 6bd6 ddbe
00000260: e7c3 04be 7618 0bbe e6d6 cebe cc82 f0bc
00000270: e2fb 4e3e 846b 7bbf 7c62 25bf 6b10 1e3b
00000280: d79c 45be df19 a4be a422 07be fb0a 52be
00000290: 1541 62b8 0549 e5bd 3a46 093e bd11 003e
000002a0: 8e0f 4d3d 3cc4 0e3e 55e4 50be ccf3 13be
000002b0: a76d 0fbe 6644 d93d 1349 7f3d f6c2 9f3d
000002c0: 4403 993d dbf0 58bd 913e 983d 55d1 da3d
000002d0: fe6a cebe 526a 3b3d c875 10be aba8 e53d
000002e0: 9174 743e a31a 6b3e ad9c 203c c6be c93f
000002f0: d2ec 273f f180 063f 8047 a7be f35e 8b3e
00000300: ee67 4dbf 5709 43bf e654 01c0 aab2 393e
00000310: e815 01bd dacb 0dbe b32a b9be 561b aabc
00000320: 4879 e43d 6283 2e3e 4867 cd3b bfe1 febd
00000330: b80a 6abe 7b01 95bf 59a6 01bf d1f9 42bf
00000340: 4f61 e8bd 0f82 85be 1fdb 633f e003 bb3f
00000350: 704d a03f 9e72 68be 7589 0abe ac1a 97be
00000360: c00a dabe 65ce 4d3d 2c0d 873d 9e4d 85be
00000370: f786 2fbe 1036 113f 63b7 cb3e 2352 293f
00000380: 9e28 c13e 9a80 afbd 495b 18bf 96b4 13be
00000390: f5fd 83bf 6895 52bf c6ee f8bf 5601 f6be
000003a0: 787c da3e 46be aa3e adf6 77bd 99a9 b3be
000003b0: e699 273c 4bb0 8b3c 150f eabc 5621 b43d
000003c0: a51a 083c 7ba3 68be e6d5 7dbf 28cf e9bd
000003d0: b435 423e 4e1c b83d d095 2c3d 16ed c13f
000003e0: 30b7 0e3f 25c5 6bbe 8f58 8b3e bd8e 973c
000003f0: e559 373e ff4e 04bd 8a1e 873c 45ed 433e

fc1.bias f4 [16]
-0.4860296 -0.13485985 0.10421832 0.42763263 0.047626812 -0.021787953 0.16253598 -0.1556551
-0.036132757 -0.23331034 -0.07615845 0.3215533 -0.46290976 -0.0068619917 0.14987125 0.37117627
00000000: dfd8 f8be b318 0abe 6a70 d53d aaf2 da3e
00000010: 5514 433d a67c b2bc d56f 263e 0d64 1fbe
00000020: f1ff 13bd e8e8 6ebe f6f8 9bbd a2a2 a43e
00000030: 8202 edbe 8fda e0bb d977 193e d10a be3e

fc2.weight f4 [16, 16]
0.0104446905 -0.2538242 -0.08134601 -0.27212176 0.08184475 0.015273674 -0.10769736 0.22001246
-0.1253126 -0.04760924 0.15650623 -0.19157964 -0.12038986 -0.21705918 0.0071969293 -0.11931926
-0.09048011 -0.08317539 -0.08901581 -0.13705671 -0.13396741 0.26438656 0.1595392 -0.0029365718
-0.17914163 0.22038433 0.2585498 0.07857245 -0.036162376 -0.0035217633 0.023398751 0.03688039
-0.16136514 -0.3554799 0.041117832 0.16612422 0.19296503 -0.3320042 0.098550156 0.076139666
0.08171662 0.14465895 -0.09212197 0.022890465 -0.18913542 0.0403679 0.04825613 0.3718103
-0.34713918 0.17183699 -0.36796683 0.07520038 0.019511968 0.25219557 0.015174444 0.0051644193
-0.50721675 0.2200208 0.24176626 -0.4620011 -0.20734946 -0.3568185 0.12071201 0.10747453
-0.114128426 -0.17892434 0.15264527 -0.17475188 0.04839155 -0.08960458 0.13456462 -0.11218932
-0.16056927 0.036047217 -0.3859254 0.06653906 -0.24021715 0.22204167 0.17061357 0.20410801
0.14246945 0.029464303 -0.3117157 0.07045331 0.19883977 -0.12362425 -0.0135236615 -0.002183997
-0.0666437 0.26135713 -0.2567452 -0.02053182 -0.072618075 0.16515084 -0.0383864 0.07497261
-0.40627334 -0.11545202 -0.024813669 0.1645551 0.035880398 -0.56420726 -0.083304755 -0.14637521
0.009557509 0.057677403 -0.28465468 0.015582324 -0.045260116 0.30555984 0.22010654 0.3621644
0.42557663 0.0018282041 0.1744642 -0.10276671 -0.082348265 -0.1297415 0.006023893 0.2872817
0.24079801 0.26940456 0.035723712 0.2786661 -0.12380612 0.052275866 -0.08287654 -0.35022426
-0.16115226 0.08511559 -0.103192225 0.0469895 -0.036637228 -0.26762384 0.002287833 -0.26758176
-0.1020173 -0.09642048 0.011527815 0.12627329 0.15135524 -0.08115837 0.021922372 0.09544593
-0.10522742 0.16230457 0.16127151 -0.1990034 -0.13608424 0.07788684 -0.020348396 0.23606382
0.013790822 -0.018536352 0.16038802 -0.04610454 0.073025644 0.41821963 -0.09755469 -0.31012443
0.2863815 0.0659926 -0.25378194 -0.18404484 -0.073862016 0.099053614 0.08901892 0.17992535
0.22126456 0.03395699 0.16784771 -0.4228776 -0.20438486 0.47299603 0.13915668 0.31435204
-0.4237567 -0.21903792 0.008833722 -0.10318582 0.12674674 -0.35478583 0.24559928 -0.076605946
0.043407768 -0.09893795 -0.34410876 0.26966178 0.035053313 0.2139673 0.12063542 0.03538124
0.12306234 0.11856767 0.046325035 -0.22717775 0.061962128 -0.17360775 0.05035378 -0.20999134
-0.23437725 -0.10230154 -0.0015588256 -0.08231275 -0.18899013 0.2203316 -0.08402025 -0.05626649
0.13100052 0.005237334 -0.03877529 -0.01703355 0.06099669 0.016693657 -0.25415504 -0.0081881685
0.2590226 -0.06139718 0.06829834 0.12943417 0.26113144 -0.0025456124 0.020729454 -0.30952865
-0.16782531 -0.19704473 0.17693956 0.26028746 0.30479106 -0.28137526 0.0374585 0.20797697
-0.2660249 0.17599472 -0.27662057 0.012052622 -0.0695366 0.17559493 0.12513816 0.31251252
0.09093903 0.031512063 0.003428256 -0.094607025 -0.14749657 -0.1521191 -0.22626056 0.19683297
-0.2318803 -0.08400197 -0.14579189 -0.015188062 -0.046029966 0.28366822 0.095964395 -0.1692514
00000000: 3520 2b3c 3ff5 81be bd98 a6bd 8b53 8bbe
00000010: 389e a73d 6f3e 7a3c 6f90 dcbd f24a 613e
00000020: f251 00be e801 43bd 2b43 203e 742d 44be
00000030: f58e f6bd c344 5ebe 38d4 eb3b a85d f4bd
00000040: a34d b9bd dc57 aabd ec4d b6bd 9858 0cbe
00000050: c12e 09be ad5d 873e 3e5e 233e 8073 40bb
00000060: e770 37be 6eac 613e a460 843e 98ea a03d
00000070: 001f 14bd 62cd 66bb bdae bf3c e40f 173d
00000080: e73c 25be 7601 b6be 2c6b 283d 781c 2a3e
00000090: a098 453e 74fc a9be aad4 c93d 1def 9b3d
000000a0: 0b5b a73d 7a21 143e 72aa bcbd c984 bb3c
000000b0: b7ac 41be d058 253d 38a8 453d eb5d be3e
000000c0: 3abc b1be 09f6 2f3e 2666 bcbe a802 9a3d
000000d0: 90d7 9f3c c71f 813e 3b9e 783c 4a3a a93b
000000e0: f5d8 01bf 224d 613e 9391 773e 688b ecbe
000000f0: 6b53 54be eab0 b6be dc37 f73d 9b1b dc3d
00000100: 2abc e9bd f137 37be 0b4f 1c3e 28f2 32be
00000110: 3836 463d 9b82 b7bd 4fcb 093e 84c3 e5bd
00000120: 456c 24be 3fa6 133d 0498 c5be a145 883d
00000130: 7cfb 75be e45e 633e 53b5 2e3e b101 513e
00000140: 83e3 113e 1f5f f13c 3399 9fbe d349 903d
00000150: a79c 4b3e b62e fdbd 5992 5dbc 6421 0fbb
00000160: 7e7c 88bd 9ad0 853e 1b74 83be 5932 a8bc
00000170: c9b8 94bd 4d1d 293e 0f3b 1dbd 3d8b 993d
00000180: 0f03 d0be 1c72 ecbd 0946 cbbc 2281 283e
00000190: 53f7 123d e36f 10bf af9b aabd 62e3 15be
000001a0: 1997 1c3c 243f 6c3d 42be 91be 014d 7f3c
000001b0: ac62 39bd 5772 9c3e 9c63 613e 9d6d b93e
000001c0: 2ee5 d93e 5aa0 ef3a bea6 323e 5a77 d2bd
000001d0: 35a6 a8bd f5da 04be 1464 c53b 9616 933e
000001e0: c193 763e 65ef 893e 0753 123d 53ad 8e3e
000001f0: 108e fdbd 381f 563d 2dbb a9bd 9850 b3be
00000200: 1905 25be 1551 ae3d 7256 d3bd 1078 403d
00000210: eb10 16bd fe05 89be 78ef 153b 7a00 89be
00000220: 72ee d0bd 1a78 c5bd 29df 3c3c c94d 013e
00000230: defc 1a3e 5c36 a6bd 8c96 b33c 2879 c33d
00000240: 7981 d7bd 2b33 263e 5c24 253e 8cc7 4bbe
00000250: ab59 0bbe 2383 9f3d aeb1 a6bc b7ba 713e
00000260: e6f2 613c 8cd9 97bc c23c 243e 1dd8 3cbd
00000270: 788e 953d e220 d63e c1ca c7bd a1c8 9ebe
00000280: 99a0 923e 2127 873d b5ef 81be 4076 3cbe
00000290: f844 97bd 9fdc ca3d 8d4f b63d 5a3e 383e
000002a0: 2d93 623e 7c16 0b3d 45e0 2b3e 6a83 d8be
000002b0: 444a 51be 892c f23e 177f 0e3e c0f2 a03e
000002c0: a3f6 d8be 7a4b 60be 51bb 103c 1653 d3bd
000002d0: e6c9 013e 7da6 b5be 617e 7b3e 94e3 9cbd
000002e0: 58cc 313d fb9f cabd 062f b0be 1c11 8a3e
000002f0: 1094 0f3d 3e1a 5b3e b40f f73d ebeb 103d
00000300: 1c08 fc3d 9bd3 f23d 52bf 3d3d 49a1 68be
00000310: 00cc 7d3d 3bc6 31be c43f 4e3d f807 57be
00000320: 9700 70be 7883 d1bd 8251 ccba 9693 a8bd
00000330: a186 41be 9b9e 613e cf12 acbd b177 66bd
00000340: 0025 063e f19d ab3b d7d2 1ebd f289 8bbc
00000350: aad7 793d 23c1 883c 9c20 82be ab27 06bc
00000360: 9c9e 843e 9c7b 7bbd 00e0 8b3d 648a 043e
00000370: 05b3 853e 4ad4 26bb d1d0 a93c 8a7a 9ebe
00000380: 66da 2bbe 18c6 49be a52f 353e 6644 853e
00000390: 930d 9c3e 6b10 90be 166e 193d eaf7 543e
000003a0: 6a34 88be f637 343e 36a1 8dbe 5c78 453c
000003b0: 3469 8ebd 28cf 333e 3824 003e a401 a03e
000003c0: 3e3e ba3d cb12 013d 97ac 603b 54c1 c1bd
000003d0: 5709 17be 1cc5 1bbe d9b0 67be 958e 493e
000003e0: 0872 6dbe 3a09 acbd 784a 15be 59d7 78bc
000003f0: eb89 3cbd f63c 913e fb88 c43d 3d50 2dbe

fc2.bias f4 [16]
0.102871485 -0.1952672 0.31306696 -0.094138 -0.16055404 0.31923848 0.29628673 0.13039297
-0.01003543 -0.07944033 -0.085686214 0.07775005 0.05371497 -0.43883523 0.15672183 0.16079283
00000000: 49ae d23d 20f4 47be 504a a03e 6ccb c0bd
00000010: 4768 24be 3a73 a33e e5b2 973e bc85 053e
00000020: a56b 24bc 9db1 a2bd 417c afbd 6b3b 9f3d
00000030: 3a04 5c3d 03af e0be b07b 203e e0a6 243e

fc3.weight f4 [16, 16]
0.027861739 0.22230919 0.09376778 -0.4099549 0.098401584 0.09400101 -0.1408408 -0.30422115
0.08283166 0.10436889 0.085023016 0.0050551584 -0.22646555 0.095823325 -0.2702364 -0.15913694
-0.20631717 0.080935426 -0.20986228 0.07381766 -0.10870183 -0.0031215462 -0.2729599 0.12248004
-0.32401994 -0.119776055 0.18115124 -0.2674526 0.20044073 -0.19244051 -0.015401132 0.11458981
0.06266347 0.05607674 0.09415229 -0.07983956 -0.04284634 -0.010072346 0.102910414 0.098886184
0.17087305 -0.04585167 0.038032215 -0.049058903 -0.18649222 0.115523405 0.3477288 0.18679848
-0.053684175 0.017780393 -0.15202773 -0.0753004 -0.24411285 0.023717927 0.06347623 -0.15588585
-0.025491154 0.14940137 -0.07572809 0.052315503 -0.2465865 -0.19270217 -0.24610478 -0.012571618
-0.1717844 0.19241878 -0.13777852 -0.40696043 -0.09808434 0.09272637 0.21782514 -0.2414513
-0.121061355 0.020327607 0.35208198 0.19392923 -0.013615344 -0.37699497 0.22473322 -0.027833588
0.11448614 0.20707253 -0.16731475 0.03714911 -0.038232002 -0.18663932 -0.023971524 0.15043704
-0.21194637 -0.12789376 -0.06310125 0.24509498 -0.15630955 0.10837957 -0.30429915 0.05640689
-0.19307011 -0.0104330005 0.17768605 -0.37026337 0.18726991 -0.13254637 0.2626617 -0.35416123
0.154028 -0.18260825 -0.009855305 0.12181295 0.21166225 -0.3092715 -0.06346437 0.045915503
-0.0034273565 -0.20572399 -0.53864115 0.07502431 -0.02641419 -0.36306095 -0.26327476 -0.060393553
-0.07013646 0.027293783 0.24307357 -0.02148119 -0.2239044 -0.019436779 -0.2205552 0.15575334
0.10472673 -0.21543412 0.0643627 0.030725824 -0.17202288 -0.030939136 -0.17515163 -0.0057052374
-0.092112035 -0.12389829 -0.13482791 -0.17134365 0.23963162 -0.041948795 -0.26586002 0.06857124
-0.15927169 -0.09258604 0.050907627 -0.022931192 0.044767704 0.09189035 0.17170559 -0.1891676
-0.08014069 -0.10346322 0.12232556 0.19433975 -0.15304217 -0.032263745 0.2852572 0.00862627
-0.10474207 -0.13135245 -0.006223837 0.00094215083 -0.23685956 -0.22607961 0.1616903 -0.27018347
-0.3683385 0.023187099 0.15256578 -0.21360737 0.16288921 0.069438264 -0.40064555 0.07047221
-0.20284039 -0.19985908 -0.06504531 -0.20538396 -0.00031243122 -0.20871045 0.07072108 -0.013999856
-0.086041555 -0.15587941 0.102369264 -0.00587267 0.17419016 -0.12198498 0.13089404 -0.24288854
-0.21483085 -0.16329417 -0.24783781 0.015567189 -0.19699614 -0.12505914 0.18142588 0.006323313
0.08687697 -0.07184787 0.05899009 0.13408868 0.06533292 -0.169844 -0.30008432 -0.09559959
0.13778633 -0.12405676 0.17833729 -0.23582256 0.023543822 -0.14576542 -0.0565509 -0.31408182
-0.2950462 -0.27330732 0.22143231 -0.17212333 0.12268659 -0.31821257 0.20223223 -0.1980365
0.16573322 -0.24496037 0.042575467 0.09827997 0.1533905 0.08686529 -0.20049067 -0.15968888
-0.20336446 -0.045341905 -0.067557074 0.07306002 -0.084600024 -0.32984522 -0.24040148 -0.2095094
0.12978591 0.069110654 -0.11970199 -0.12921356 -0.19068229 -0.37437135 -0.20452847 -0.16661634
-0.37488574 -0.11447808 -0.038986236 0.19233376 0.009244115 -0.1933966 0.036219794 0.14299956
00000000: 4d3e e43c 05a5 633e 5209 c03d 9ce5 d1be
00000010: c586 c93d 9a83 c03d 9238 10be e0c2 9bbe
00000020: a5a3 a93d 5bbf d53d 8c20 ae3d bea5 a53b
00000030: 96e6 67be 053f c43d 6d5c 8abe cbf4 22be
00000040: cf44 53be 79c1 a53d 23e6 56be b72d 973d
00000050: 119f debd db92 4cbb 66c1 8bbe d1d6 fa3d
00000060: f1e5 a5be 264d f5bd b67f 393e 8cef 88be
00000070: 5640 4d3e 200f 45be 0855 7cbc 10ae ea3d
00000080: b555 803d b9b0 653d ead2 c03d ec82 a3bd
00000090: a57f 2fbd 7b06 25bc b2c2 d23d d784 ca3d
000000a0: 58f9 2e3e f6ce 3bbd abc7 1b3d fdf1 48bd
000000b0: d1f7 3ebe 8997 ec3d 8209 b23e 1a48 3f3e
000000c0: f0e3 5bbd 30a8 913c 28ad 1bbe 1937 9abd
000000d0: b8f8 79be 194c c23c d3ff 813d 8aa0 1fbe
000000e0: d3d2 d0bc acfc 183e 5417 9bbd c848 563d
000000f0: 2c81 7cbe b853 45be e402 7cbe 30f9 4dbc
00000100: 40e8 2fbe 6e09 453e d015 0dbe 1e5d d0be
00000110: 71e0 c8bd 53e7 bd3d 8e0d 5f3e 023f 77be
00000120: 04ef f7bd 1586 a63c 1744 b43e 6295 463e
00000130: e412 5fbc 7c05 c1be 7720 663e 4403 e4bc
00000140: b677 ea3d d20a 543e 8f54 2bbe aa29 183d
00000150: 2999 1cbd 611e 3fbe ee5f c4bc 2b0c 1a3e
00000160: 7808 59be 95f6 02be 3a3b 81bd 2efa 7a3e
00000170: 9c0f 20be 1cf6 dd3d 19cd 9bbe e90a 673d
00000180: 2cb4 45be 2def 2abc 55f3 353e 2993 bdbe
00000190: afc3 3f3e 3cba 07be 987b 863e 9f54 b5be
000001a0: 84b9 1d3e a8fd 3abe 2578 21bc 1179 f93d
000001b0: fdbd 583e d658 9ebe 9cf9 81bd e511 3c3d
000001c0: 809d 60bb 4fa9 52be 63e4 09bf 58a6 993d
000001d0: 9262 d8bc 20e3 b9be f3cb 86be 3b5f 77bd
000001e0: b4a3 8fbd 3697 df3c 47e8 783e 52f9 afbc
000001f0: 3247 65be e139 9fbc 39d9 61be ce7d 1f3e
00000200: f87a d63d c39a 5cbe 97d0 833d b9b4 fb3c
00000210: c426 30be 1274 fdbc f35a 33be 00f3 babb
00000220: 3ca5 bcbd 63be fdbd 5410 0abe b674 2fbe
00000230: fe61 753e 80d2 2bbd ce1e 88be 146f 8c3d
00000240: 1e18 23be c09d bdbd 8484 503d 32da bbbc
00000250: 575e 373d 0231 bc3d 97d3 2f3e 27b5 41be
00000260: cd20 a4bd 86e4 d3bd d385 fa3d 0001 473e
00000270: 16b7 1cbe fd26 04bd 3b0d 923e 3355 0d3c
00000280: 0383 d6bd 4281 06be 54f1 cbbb acfa 763a
00000290: 508b 72be 6a81 67be 2492 253e 7d55 8abe
000002a0: dd96 bcbe dff2 bd3c 343a 1c3e e4bb 5abe
000002b0: 6ecc 263e a635 8e3d 6a21 cdbe bc53 903d
000002c0: 64b5 4fbe dca7 4cbe 7a36 85bd 2c50 52be
000002d0: cfcd a3b9 31b8 55be 37d6 903d a75f 65bc
000002e0: 8e36 b0bd da9e 1fbe faa6 d13d 876f c0bb
000002f0: e85e 323e 43d3 f9bd 1609 063e c6b7 78be
00000300: 9efc 5bbe 9636 27be 32c9 7dbe 860d 7f3c
00000310: 5bb9 49be 810f 00be b5c7 393e cb33 cf3b
00000320: 8eec b13d fa24 93bd 989f 713d 8b4e 093e
00000330: 44cd 853d 96eb 2dbe a7a4 99be b8c9 c3bd
00000340: dc17 0d3e 7811 febd 0d9e 363e 787b 71be
00000350: f9de c03c 8843 15be eba1 67bd 55cf a0be
00000360: 4c10 97be f0ee 8bbe 27bf 623e 1941 30be
00000370: 1b43 fb3d c2ec a2be f715 4f3e 15ca 4abe
00000380: f8b5 293e e4d6 7abe 9d63 2e3d 0247 c93d
00000390: 6612 1d3e 6ee6 b13d 6d4d 4dbe 7b85 23be
000003a0: c63e 50be 6fb8 39bd 5d5b 8abd 7ea0 953d
000003b0: c742 adbd 79e1 a8be ce2b 76be a289 56be
000003c0: 99e6 043e e389 8d3d 5126 f5bd 8f50 04be
000003d0: 3842 43be 9aad bfbe e96f 51be 799d 2abe
000003e0: 06f1 bfbe 7c73 eabd 08b0 1fbd 24f3 443e
000003f0: a174 173c c209 46be 355b 143d 7a6e 123e

fc3.bias f4 [16]
0.1211082 0.057158794 0.50533307 0.0188882 0.040475525 -0.19768617 0.20695785 -0.23766132
-0.2681901 0.38764888 -0.23673029 -0.09309806 -0.2331032 -0.010980362 -0.18807413 0.058353703
00000000: 9307 f83d 571f 6a3d 825d 013f 6dbb 9a3c
00000010: aac9 253d 3e6e 4abe c2ec 533e 7d5d 73be
00000020: 3650 89be ea79 c63e 6d69 72be 32aa bebd
00000030: 9bb2 6ebe fae6 33bc 8196 40be 4b04 6f3d

fc4.weight f4 [1, 16]
-0.07209745 -0.018229483 -0.1981304 0.12763393 -0.120505184 0.07843382 -0.13836747 0.033065442
-0.011295676 -0.23541547 0.09562776 -0.012017493 0.10682708 -0.05841548 0.019312598 0.010839833
00000000: d4a7 93bd ff55 95bc b2e2 4abe 78b2 023e
00000010: 6ccb f6bd e9a1 a03d 34b0 0dbe a16f 073d
00000020: 8011 39bc c110 71be 7dd8 c33d 05e5 44bc
00000030: 28c8 da3d 1245 6fbd 7435 9e3c 8e99 313c
